agent2_checkpoint_critic.pth (torch_old, 297485 bytes, 9 tensors)

fcs1.weight f4 [256, 24]
00000000: 3d8b b0be 5bcb 41bf eb73 07bd ccc6 b5bb
00000010: 4f28 89be 0dfa 873f 243b a8bd 6f68 36bd
00000020: 60c9 72be 30e4 dfbe 8dc0 ccbd 352f 243e
00000030: 1ede 03bd 43c7 813f a0fe debd 5fc0 1f3e
00000040: 2371 5dbe 70ef ecbe b620 fbbd 792d b73e
00000050: bbc5 403e 3876 873f 54fe c4bd faa8 b53e
00000060: 59e3 943e 8f3c e1be ba7f 53be e36f 4f3e
00000070: 12f2 ac3d 49a5 92bd 7146 1fbe 486d 523e
00000080: 0594 2d3e e9db 2fbf 4e84 68bd 7a2a 403e
00000090: 5184 0b3f 600f 37be 9324 d2bc c1a0 383e
000000a0: b93f 053e c29f 56bf 8c6b c4bd c47d c63d
000000b0: a8bc 773f 27b6 febe edc9 a7bc 0be4 d03d
000000c0: 259f 913e 93aa a2bd 362b 07be 3b5b 903e
000000d0: 18f2 053e 8da9 6fbf ad5f b1bd 5b11 373e
000000e0: 171d c23e e19c 10bd 26df 593d 5b68 293e
000000f0: 2ceb f1bc 2238 99bf dc39 f13d 8b21 753d
00000100: 3bcf b73e 9d05 71bd 68cd b6bc c628 1e3d
00000110: b5e6 bebd eb3d a1bf e760 813d be56 e63d
00000120: ca3b 2e3f ca70 a83e 6bed abbc d20d 2bbe
00000130: 27b4 f6bd 3495 663f 7797 3fbc 4893 64be
00000140: 4382 003f 173c e03e fe12 41bd c439 4fbe
00000150: 1d88 0dbe f848 3a3f 2d55 02be cd64 07be
00000160: bff6 273f d08a 3d3e a8ea 483d e3e3 683c
00000170: 7b0c 89be 891f 0c3f a171 e3bb 2d6f b5bb
00000180: b4bf bbbe eb91 373f 4793 20bb 04db 74bd
00000190: 375f d2bd b6f6 553e eb5f bfbc 4189 48bd
000001a0: 5ff4 0ebe 9ad6 8e3f 286c 04bd bd0c 0d3f
000001b0: 1048 073e f772 c1be c600 38bd bb86 153f
000001c0: 2a04 22bd f9dd 833f bf5f 093d 6a19 fabe
000001d0: 6d33 c33e 8979 32bf 3932 613c 4741 f7be
000001e0: 3ad9 813c 73bc c93e 0f21 0dbe 6d01 8ebe
000001f0: 6ef1 cebe 7695 0abd 55c4 47be 18f6 63be
00000200: 30c1 2a3d d78c 763c adc1 98bd 9e10 78be
00000210: 9b37 7dbe 5dd8 22be 0f0a 4abd 9a37 9fbe
00000220: c717 873e 5ed6 3abe 4c6d ab3e f9fe 883e
00000230: 79ff 40be 1e1e 44bf a4a7 aa3e 097a 643e
00000240: c36b 683e 382e 703e 4c1b 23bd 2ee9 1f3e
00000250: 6a7a b5bd a7be 3a3e 5cbf 883c 5d84 ff3d
00000260: 12fa 843e 5ed2 e83d 348e bdbc fe6f 59be
00000270: 3e90 463e 37f0 ee3e db30 c3bd 9f5b 3abe
00000280: 8d2a 523e ef23 cabd 4d6e e8bc 6dcd 0dbd
00000290: 0ade 773f 9ce5 483e e0ff 913b 6bbf 36bd
000002a0: c107 3e3f 8ef7 76bf 2262 f63d 8546 393e
000002b0: 4ac1 edbc 5ac8 313f 98fa 093e 4a5d 563e
000002c0: 3b54 053f e92b 4cbf a72e 1c3d 1e1b efbd
000002d0: 591a 39be 524d 6d3d f45b 86bd 28e8 f1bd
000002e0: a51d 233f 3ea9 26bf 4a95 cabd 3ac4 a13b
000002f0: 85d7 e5be f6ca 0fbf c22f 85bc cff1 b23d
00000300: 263a 0b3e 7825 01bd 065b 1fbd f399 293f
00000310: bfc7 d93e c9dd 02bf 2ebc a6bd 7f31 223f
00000320: a46a 2d3e abff e6be 1fbd 96bd a423 b1be
00000330: 1573 dd3e b297 0bbf 7846 84bd c4d7 b4be
00000340: 69ee ba3e 1d9a b3be fffd 023e 1fd0 ee3e
00000350: 004c 373e 96d0 cfbe 3689 0f3e 96c2 c03e
00000360: e9e7 b43e f222 7d3f 885d 3ebe dd82 d93e
00000370: 1856 093f 776d 18bf de33 fbbd b4ea bf3e
00000380: 3ba3 5e3e e41a 823f 254f 4bbb 708b 01be
00000390: 4794 083f 2505 adbe e8d8 523c f6c8 27be
000003a0: affa 793d 23b4 893f 142b abbd dc35 d0bd
000003b0: 7f88 223d 3b30 d43e d577 35bd a989 c7bd
000003c0: 4e4a 96bf 4a6b 923b b669 c83b d683 b1be
000003d0: 1933 adbe 99e9 04bf 962c 4d3d 71c8 9fbe
000003e0: 9204 63be 4f9f 253e 1ee8 cd3b 7fb5 2f3e
000003f0: 994d 30be a9c6 903e d43c 27bb a0bf 7a3e
-0.3448123 -0.7570092 -0.033069532 -0.00554738 -0.26788566 1.0623184 -0.08214405 -0.04453319
-0.23709631 -0.4372878 -0.09997664 0.16033633 -0.03219425 1.0138935 -0.108884096 0.15600727
-0.2162519 -0.46276426 -0.122620985 0.3577688 0.18825428 1.0582952 -0.09618822 0.3548048
0.29079702 -0.43991515 -0.20654193 0.20257525 0.08444609 -0.07160432 -0.15554215 0.205495
0.16950996 -0.6869493 -0.0567668 0.18766204 0.54498774 -0.17876959 -0.025652206 0.18030073
0.1301259 -0.8383752 -0.095908254 0.09691957 0.9677224 -0.49748346 -0.020482028 0.10199746
0.2844173 -0.07942691 -0.13200077 0.28194603 0.13080633 -0.9361809 -0.08660827 0.17877714
0.3791282 -0.03530586 0.053191327 0.16543715 -0.029531084 -1.1970255 0.11778614 0.059846442
0.35900292 -0.058843244 -0.022314742 0.038613103 -0.093213476 -1.2597021 0.06317311 0.112470135
0.6805998 0.3289855 -0.020987233 -0.16704491 -0.1204608 0.90071416 -0.011693827 -0.22321808
0.50198764 0.43795845 -0.047137253 -0.2023688 -0.13821454 0.7276759 -0.12727804 -0.13222046
0.6561088 0.18509984 0.04905191 0.014214489 -0.26767334 0.5473562 -0.006941036 -0.005536935
-0.36669695 0.7170703 -0.0024501847 -0.059779182 -0.10272067 0.20894894 -0.023361167 -0.04895902
-0.13960408 1.1159241 -0.03232971 0.5509756 0.13211083 -0.37783024 -0.044922613 0.5840871
-0.039554752 1.0302116 0.033538576 -0.48847514 0.38125172 -0.697167 0.013744884 -0.4829199
0.015850652 0.39401588 -0.13782142 -0.27735463 -0.4041857 -0.033833943 -0.19508488 -0.22261846
0.041688144 0.015048227 -0.07458816 -0.24225089 -0.24728243 -0.15902849 -0.049326 -0.31097108
0.26385328 -0.18245837 0.33481824 0.2675703 -0.18847455 -0.76608455 0.33331025 0.22312178
0.22697358 0.23455131 -0.039820954 0.15616295 -0.08861239 0.1823679 0.01669281 0.12476418
0.25972039 0.11368249 -0.023139097 -0.21234128 0.19390962 0.46667644 -0.09530803 -0.18199013
0.20524044 -0.09870135 -0.028372908 -0.034619737 0.9682318 0.19618839 0.0044555515 -0.044616144
0.7423058 -0.9647149 0.12030436 0.18093307 -0.029022831 0.6944634 0.134745 0.20934024
0.5208165 -0.797545 0.03813043 -0.11675094 -0.18076457 0.057935067 -0.065605074 -0.118118584
0.6371711 -0.65101993 -0.09891756 0.004936722 -0.4489099 -0.5616907 -0.016258124 0.087375276
0.135964 -0.031529874 -0.038905166 0.6625053 0.42535207 -0.5111967 -0.08141361 0.63356775
0.16935211 -0.45116934 -0.07360291 -0.34597504 0.43251863 -0.54528344 -0.06458753 -0.35320866
0.36510018 -0.35078517 0.12792204 0.4664316 0.17900085 -0.40588826 0.14017186 0.37648457
0.35333183 0.9888145 -0.18590367 0.42482653 0.53646994 -0.5954203 -0.12265752 0.37483752
0.21741955 1.0164456 -0.0031022516 -0.12650847 0.53351253 -0.33792987 0.012869097 -0.16385254
0.061030086 1.0758098 -0.08357826 -0.10166523 0.039680954 0.41443047 -0.044303734 -0.097430535
-1.1741426 0.0044683563 0.0061161174 -0.34670895 -0.33828047 -0.5191894 0.05009135 -0.31207612
-0.22169712 0.16174053 0.006283774 0.17159079 -0.17217101 0.28276566 -0.0025518434 0.24487162

fcs1.bias f4 [256]
00000000: 1339 14c0 f661 d3be 2e8a 9abe 344d e8bd
00000010: 4679 97bf 35d4 9abf b9b2 d4bf 956b f63e
00000020: e504 02bf 1e3a 6dbf 5af7 29c0 60f7 743e
00000030: a66d 3cbf 7dd4 8dbf c1d1 4dbc f3d1 e6bd
00000040: 2fb5 ccbf 0772 bdbd 0810 9fbf 17d4 f3be
00000050: 9fcd 48be 93e8 403f a1b2 b3be 45b4 0ebf
00000060: 041b 55bf 52fa 38bf 2404 95bf 8daf 7bbf
00000070: c8e6 d0bf 3b70 10bf 6eb2 18be f213 09bf
00000080: 8410 283d f344 debe c8db 0fbf 194b 32bf
00000090: 5e06 2abf 46e8 03bf e3ee 20be 4172 873e
000000a0: e704 18bf f735 33bf 3f10 86bf f4d7 09be
000000b0: 373a 12bf a9f5 8ebf 0c43 c9be e95a 9ebe
000000c0: 1edb 663c 3e62 05be 4836 a7bf df27 55be
000000d0: a7b6 2cbf 2ba2 72bf 7de4 8c3d 00d0 c3be
000000e0: b0e2 afbf a295 3bbf 10c1 13bf 65c2 85be
000000f0: fb5f b3bf 73d7 7cbf 35ba b8be fe66 5f3d
00000100: 2812 98bd 422c afbf f579 00bf b560 cfbe
00000110: 920d 8fbe ff35 bbbf 9a5d 9abf 51d2 afbf
00000120: 73bc 3ebe 8eed f1be 02ca bfbf 74d7 c5be
00000130: bbf0 ddbd 6e5b 1fbf dee3 303e 37b9 2abe
00000140: a531 27bf 2414 4dbf d69a 9abe 37c2 a8be
00000150: b334 9bbe 8c7b aebf 6eb0 bfbe b6da c4be
00000160: 0e59 18be 1daf b6be 5336 30be c5f4 63bf
00000170: f6d3 da3d 807c 3cbe d559 24bf dafa bdbe
00000180: a322 b9be a6aa 58bf 4f3f c5be 701b b7bf
00000190: f749 30be 556a 7ebf bbb5 8a3e c780 85bd
000001a0: e529 03bf a9f2 5dbe bb3c 353e aa22 4ebf
000001b0: dc28 6dbe c7ce e23d 346b 7ebe e3ff 28bf
000001c0: d919 84be 599f 51be 714a bbbe 8dc3 603e
000001d0: ae91 11bf 7882 f3be 5328 f9be a380 803e
000001e0: 852c 4ebe 6add 35bf f46a a6be ba1f 3dbe
000001f0: 155d c2bf b084 3bbf ba7e 20bf eb8b 04bf
00000200: 3bc6 d0be a204 2dbf 51b5 22bf ddf3 80be
00000210: e53c 14bd 4f1f 51be 5602 0bbf 931d f6be
00000220: 0712 d9bf de3e 06be 8d23 193e 82c4 4cbf
00000230: 4838 dfbe 1678 86bf c42e 81bf 469b 6dbe
00000240: 42c9 1d3d bc23 8dbf 4b49 e1be c5e1 31bf
00000250: f124 62bf 48cc 9fbf c7e8 62be 2c91 b6be
00000260: 4a42 37be e6e3 f1be faf3 28bd e326 27bf
00000270: 5c9a f0be 1fff 77bf aeba d8be 02f4 3bbf
00000280: 5922 2abf 46fb 603e 3c9e 893d 01e8 cdbe
00000290: 64c0 abbe 37b2 38bd dbf0 cebd 6bdf b1be
000002a0: f6b1 2ebe c04a 3e3e 2fa3 9a3a e532 8fbf
000002b0: f7b7 1ebf da70 adbf ce58 20bf 4749 59bf
000002c0: 28d2 41bf 0aef b439 865a 1fbf 5a49 80be
000002d0: 74b8 89be bc18 0cbf b495 26bf 3cac b6be
000002e0: a589 9fbd 572d 21bf d40e 0ac0 9858 0dbc
000002f0: f20f 033e be48 51bd dc44 4dbf ef1c 823d
00000300: 5565 24bf c19f 2cbf 196a 1dbe 79b0 c3be
00000310: e5af 6fbe aa0e acbe a112 113e a0bb bbbe
00000320: 9fb2 38bf aaa6 50bf 531e 9fbf b2fc 5ebf
00000330: 7bc6 4cbf a9f2 1bbf f977 88bf 3185 9ebf
00000340: 0bd6 55be cc67 7dbf ed76 50bf a2ca 573c
00000350: d1b0 c23e ad23 2dbf 9cb9 9ebe aef2 acbd
00000360: 7d5b 13bf ca79 49be 2b3e b8ba 966c 8dbe
00000370: 2efb 8dbf e3f2 07bf 6987 393e fdcc aabe
00000380: c70b 96bf 3e16 89be c61a 61bf f9e0 58bf
00000390: 554f 88bf 86ca 40bf 18cf b3be 8339 4ebd
000003a0: a182 ddbe 9475 02bf 67d3 72be 2349 98bf
000003b0: 3c45 d3be 910b 023e 6df2 90bc 48ce 2abf
000003c0: 4148 c2be 2a9d 69bf 9305 a2bd a5d9 40bf
000003d0: f691 cabe 543a 89bf 706b 32bf 8e9b 3fbf
000003e0: 1046 2abf cca8 553e b92f 5cbf f691 0abf
000003f0: 0051 88bf f74c 03bf f2cd f1be e3aa a8bf
-2.3159835 -0.41285676 -0.30183548 -0.1134285 -1.1833885 -1.209601 -1.6617042 0.48128954
-0.5078872 -0.92666805 -2.6557221 0.23922491 -0.7360481 -1.1080471 -0.012562216 -0.112705134
-1.5992793 -0.092502646 -1.2426767 -0.4762275 -0.19609688 0.7535488 -0.3509722 -0.5574382
-0.8324435 -0.7225696 -1.1641889 -0.98314744 -1.6320429 -0.5642125 -0.14911816 -0.5354606
0.041031376 -0.4341198 -0.56194735 -0.6964584 -0.66415966 -0.51526296 -0.15716128 0.26454356
-0.5938248 -0.7000422 -1.0473708 -0.13461286 -0.5712008 -1.116872 -0.39308965 -0.30928734
0.014090328 -0.13025758 -1.306344 -0.20815991 -0.67466205 -0.947787 0.06879518 -0.3824463
-1.3741055 -0.73275197 -0.57716465 -0.26124874 -1.4013666 -0.9876625 -0.36079565 0.05454158
-0.07425338 -1.3685381 -0.5018609 -0.4050347 -0.2794004 -1.4625853 -1.2059815 -1.3736058
-0.18626575 -0.47251552 -1.4983523 -0.3864094 -0.10836931 -0.62248886 0.17274424 -0.16672216
-0.65310127 -0.8010886 -0.30196255 -0.32960674 -0.30313644 -1.3631454 -0.37439293 -0.38448113
-0.14877722 -0.35680476 -0.17208223 -0.89045364 0.106849596 -0.18406868 -0.6419957 -0.37105447
-0.36159238 -0.8463539 -0.38524863 -1.4305248 -0.17215715 -0.99381 0.27091774 -0.06518703
-0.512358 -0.21674599 0.17698948 -0.80521643 -0.23160118 0.11074596 -0.24845582 -0.6601545
-0.2580097 -0.20470943 -0.36580232 0.21949597 -0.56862915 -0.47560477 -0.48663577 0.25098142
-0.2013417 -0.71040976 -0.32503474 -0.18469134 -1.5184656 -0.7324934 -0.6269337 -0.51776
-0.40776238 -0.67585194 -0.63557917 -0.25186053 -0.036190886 -0.204221 -0.5430044 -0.48069438
-1.6958627 -0.1310992 0.14954968 -0.7998735 -0.43597627 -1.0505397 -1.0092397 -0.23203763
0.038522013 -1.102653 -0.4400123 -0.6948512 -0.8833762 -1.2484217 -0.2215911 -0.35657632
-0.17896381 -0.47244185 -0.0412483 -0.6529371 -0.46992767 -0.9687366 -0.42329925 -0.734192
-0.6645866 0.21970853 0.06719634 -0.40216067 -0.3354522 -0.045091834 -0.10104533 -0.34740767
-0.17060074 0.18583202 0.00117979 -1.1187407 -0.6199946 -1.3550065 -0.62635505 -0.8487744
-0.757113 0.00034510373 -0.622475 -0.25055963 -0.2689854 -0.5472524 -0.6507218 -0.3567828
-0.077899255 -0.6295981 -2.157155 -0.008627079 0.12799051 -0.051094763 -0.80183196 0.06353175
-0.6421712 -0.67431265 -0.15372504 -0.38220575 -0.23406942 -0.33604938 0.14167263 -0.36666584
-0.72147554 -0.8150431 -1.2431129 -0.8710433 -0.7999036 -0.60917145 -1.0661613 -1.2384397
-0.20882432 -0.98986506 -0.81431466 0.01317087 0.38025525 -0.6763256 -0.31000984 -0.08444725
-0.57561475 -0.19675365 -0.0014056613 -0.27621907 -1.1092279 -0.5310499 0.18118061 -0.3335952
-1.1722344 -0.26774782 -0.8793148 -0.8471828 -1.064921 -0.75309026 -0.35118937 -0.050347816
-0.43263724 -0.5096066 -0.23713456 -1.189732 -0.4126376 0.12699725 -0.017693723 -0.6672101
-0.3794575 -0.9125544 -0.079112194 -0.753321 -0.39564484 -1.0720925 -0.69695187 -0.7484673
-0.66513157 0.20865172 -0.8601032 -0.5412897 -1.0649719 -0.51289314 -0.47227436 -1.317715

bns.weight f4 [256]
00000000: 834e b33e 2cef f23e b947 29be b868 8d3f
00000010: 3b1d e83e ba4e 113f 9c6b 7f3f 5c4e 493f
00000020: d99c 483f 3ff9 0e3f c751 0a3f 1fb1 223f
00000030: 9bfa ce3e 4508 7b3f 5ea8 6c3f ad88 ab3e
00000040: c2b9 cd3f db8f 663f 6f92 a43f 81ad 993d
00000050: be56 c33e 0dc2 2140 121c 18bb c23f 6f3f
00000060: f613 2e3f 1140 653f 6704 b3be aba1 2e3f
00000070: dfb7 513f d1fb 4c3f df57 153f c5ae d33e
00000080: d551 b53f 977e 193f d4a0 1c3f fa46 4b3f
00000090: 6f75 833e 1a5c a03f 0a25 b63e eb56 933f
000000a0: 2e6c 273f e331 0d3c be90 fd3f 6c57 953f
000000b0: 2de5 c43e 617c 403f 78bf 843f 404d 523f
000000c0: 393d 233f 27b0 533f 8057 3e3f b995 2dbf
000000d0: 44a6 d13e c782 d33e f448 5f3f 5cc4 1c3f
000000e0: 53f9 b43e 8c5c 2e3f b380 473f 25bc 933e
000000f0: 2158 b53f 230f 463f 5a25 703f 74d7 683f
00000100: c3b3 f43e b330 c73f 4100 563f 76c2 f43e
00000110: 00f1 203e e449 0f40 79fb 313f dd26 063f
00000120: 4114 163f 8ead d43e 75e7 ef3e 4378 083f
00000130: 2fa8 613f 3235 153f 542f f23f 1481 663f
00000140: 5328 fb3e 831f 6b3f 3f0c 803f 0075 1240
00000150: 6920 403f 1bcb a93e 62e8 74bf 83a0 cb3e
00000160: 8c15 653f 11b4 503f 0eb1 5f3f b210 f83e
00000170: 512c 2d3e 25cf 803f 7e24 383f 3152 1e3f
00000180: 94bd d83d 3f48 3a3f 9081 023f be86 613f
00000190: 53cf 453f d7a2 4b3f e167 733f a19f 553f
000001a0: 3d50 f33e f946 5d3f dc72 3c3f 5378 693f
000001b0: 406a b03f b87d 863f e93a 6f3f 97be 843f
000001c0: 55c7 333e 8527 1b3f 1281 333f cb51 493f
000001d0: 6a6d 463e e75a 2a3f db5a 14bd d87c 7dbd
000001e0: 7d52 a03f ccf8 a53f 3dfa 1b3f d456 1b3f
000001f0: cf4b 8b3f c587 a63f eafd 2b3f db2f 773f
00000200: 3740 3b3f 939c 52be 5707 a23e 03b9 f73e
00000210: a322 643f 6dd1 173f bb08 4f3f 76d8 3f3f
00000220: 19b9 bd3e bf4a 473f 91c5 973f 8a37 ee3e
00000230: 696c 4e3f 4705 b2be 2d2d a03e b64b 173f
00000240: bcce ff3e 4230 4abe 3669 013f 8d77 313f
00000250: 22e0 b93e 7799 ab3f dc99 4d3f 2824 343e
00000260: 67db 0d3f e1bc f5be f9e7 803f a731 c03b
00000270: 04b1 833f 18d8 a73e 7719 233f a56f c43e
00000280: ef1f 0a3f 43a7 8c3f 2fce 6f3f e068 fd3e
00000290: 732a 11bb aadd 1dbf 8c61 2840 c629 243e
000002a0: fb21 9a3d 7d2a 7c3f d318 6c3f b718 4e3f
000002b0: 0bc6 4f3f 0538 453e 7937 ed3e 9374 dd3d
000002c0: 8594 4b3f 49c4 1fbf cd5b b03e 120b 0040
000002d0: fb01 123f 6d62 e83e 42a1 403f 4419 b53d
000002e0: 5a6b 963d ff52 c1be 0cda b23f 2bbe e03e
000002f0: a1a2 d83f 6814 993f 77e9 993e 7e47 d33d
00000300: adc5 2f3f b08c 823f b46a 563f 36ad 353f
00000310: 8bce 6e3f 93b3 0e3f 1399 533f 367d 8fbd
00000320: 29da eb3e 4409 d03e 5eaa 68bb 3df9 f13e
00000330: f964 bd3e ecd6 f13e 1e8a d83e 1e64 0dbe
00000340: 8874 463f 1b7e 943f 8201 7f3f c2d6 993f
00000350: 97f1 8b3f e571 c43e 7477 5d3f 7ae0 723f
00000360: 27c6 f83e 6fae 7b3f 9289 863f a50e 573f
00000370: 2609 973e d26b 7e3f c4ba 5f3e 9b8c 3c3f
00000380: eb19 ae3f f277 fd3e 13dc fe3e 2f87 673f
00000390: 347a 7f3f a7e9 493e ea47 753f 3b0b 1f3f
000003a0: 2c23 3f3f 1d45 3d3f f3ae 6b3f 1cde b73e
000003b0: ef28 783f 66c3 253f 0623 6b3f 36e4 ad3f
000003c0: 92fe 083f 7de4 e63f 562f bc3e 377b ed3e
000003d0: 1837 413f ecfd 083f 91ce 2e3f 626d 103f
000003e0: bb9b 0b3b 4441 e53e 2389 833f 1fef 343f
000003f0: b086 6a3f 9699 923f 5463 9e3f fe8c 0c3f
0.35020837 0.474481 -0.16531266 1.1047583 0.453348 0.5676075 0.99773574 0.7863519
0.7836433 0.5584907 0.5403103 0.63551515 0.40425572 0.98059493 0.9244441 0.33502713
1.6072314 0.90063256 1.2857188 0.07503796 0.38152117 2.527469 -0.002321009 0.9345666
0.6799921 0.8955088 -0.34964296 0.68215436 0.8192119 0.8007174 0.58337206 0.41344276
1.4165598 0.59958786 0.61182904 0.79405177 0.25675532 1.2528107 0.35575134 1.15109
0.65399444 0.008617851 1.9809797 1.1667304 0.38456097 0.7518979 1.0370932 0.82149124
0.63765293 0.8269066 0.74352264 -0.67806584 0.40947163 0.41310713 0.8722069 0.6123712
0.3534647 0.68109965 0.77930754 0.2885448 1.416752 0.77366847 0.93806994 0.90953755
0.47793397 1.5561737 0.8359414 0.47804612 0.15716934 2.238885 0.6952434 0.5240305
0.58624655 0.41538662 0.46856275 0.53308505 0.8814725 0.58284295 1.8920693 0.9004071
0.49054202 0.9184496 1.0003737 2.288391 0.75049454 0.3316277 -0.9566709 0.39770898
0.89486 0.8152476 0.8737954 0.48450238 0.16911437 1.0063215 0.7193068 0.61844164
0.10583034 0.7276649 0.50978947 0.88096225 0.77269477 0.7954535 0.9508038 0.834467
0.47522154 0.8643642 0.7361276 0.91199225 1.3782425 1.0507116 0.93449265 1.0370663
0.17556508 0.60607177 0.7011882 0.7864043 0.19377676 0.66544956 -0.03621946 -0.06188664
1.2525173 1.2966552 0.6092871 0.60679364 1.088251 1.3010184 0.6718432 0.96557397
0.7314486 -0.20567541 0.31646225 0.4838334 0.8911535 0.59303933 0.80872697 0.7493967
0.3705528 0.7784843 1.1857167 0.46526748 0.8063417 -0.3476965 0.31284466 0.590999
0.49962413 -0.19744971 0.50551164 0.69323045 0.36303812 1.3406209 0.80312896 0.17591918
0.55412906 -0.47995666 1.0070792 0.005865294 1.0288396 0.32782054 0.6371073 0.38366428
0.53954977 1.0988544 0.93673986 0.49494076 -0.0022150546 -0.6166636 2.6309538 0.1603156
0.075260125 0.9850233 0.9222538 0.8050646 0.81161565 0.19259651 0.46331385 0.108132504
0.795235 -0.6240888 0.34445038 2.0006757 0.5703427 0.45387593 0.7524606 0.0884271
0.073446944 -0.37758633 1.3972793 0.43895087 1.692463 1.1959352 0.30060932 0.103163704
0.68661004 1.0199184 0.83756566 0.70967424 0.9328391 0.5574276 0.8265545 -0.07006304
0.4606488 0.4063207 -0.0035501937 0.47260466 0.369911 0.47234285 0.42292875 -0.13807723
0.7752156 1.1600984 0.99611676 1.2018664 1.0933102 0.38368145 0.86510396 0.94873774
0.48588678 0.9831304 1.0510733 0.8400672 0.29499167 0.9938327 0.21848589 0.73652047
1.360166 0.49505574 0.49777278 0.9044065 0.9979584 0.19718038 0.9581286 0.6212651
0.74663043 0.73933583 0.92063826 0.35911644 0.9693746 0.6475128 0.91850317 1.358527
0.53513443 1.8038479 0.36754864 0.46383068 0.7547469 0.53512454 0.68283945 0.56416905
0.002130254 0.44776356 1.0276226 0.7067737 0.91611767 1.1453121 1.2374063 0.54902637

bns.bias f4 [256]
00000000: 4d86 0e3e 7deb 183e bafb 90bc 7751 023f
00000010: 4f39 2b3c 9819 803d 912c bb3d 4a87 2c3e
00000020: 181d 893e 5ae1 3c3e 93e4 973d 8519 ae3d
00000030: 04af 54bd c7b1 ee3d 2a76 8f3d c99c e0be
00000040: 6bf8 f43d f7e7 723e c655 053f 72c0 0dbf
00000050: fbfb 5abe 6f0e d4be 071e 803b 5663 223d
00000060: 12de 7a3e 9e27 573d caae 57bd d328 5a3e
00000070: e0c4 87bd 4304 b93d cb37 323e 6edb 5a3e
00000080: 2089 053f 40d1 273e f497 acbe 151a 863d
00000090: 0353 753e 0a2e eb3d 7924 f43e 71f0 8c3e
000000a0: 41cb b23d deb0 e4bb 7701 f9bd 68c0 a73e
000000b0: 8dfe e43d 8ff9 a9bc b770 a63e a228 b83e
000000c0: 538d b03d ac95 363e c3c6 823e 4815 8ebd
000000d0: ce0a 813c c290 80bd 1172 ea3d 2231 6d3d
000000e0: 2f3d 9bbd 4e8c 8c3e 5c3c 553d f6d0 54be
000000f0: 49fe df3e 1ae9 5f3e f1eb 76bd c009 9bbc
00000100: d68b 293d 291c c6bd 6306 9a3e 7cfe cfbd
00000110: dd25 26bf 4adc 87bd c26e 0b3e 9919 e73d
00000120: 2055 a43d c1c4 403e 32f4 a2bd 2c53 19be
00000130: e8be e53e b194 0bbe 7edd a13c f671 3d3e
00000140: 2105 623e 1fa8 af3e b0dc 883e 4cff 173f
00000150: 16c0 523e 345e 3a3d e7d0 5cbe 786c 99bd
00000160: 27cc 843e 4296 533e ced5 543e b273 abbe
00000170: 256b 27bf bbb3 733d b6bc 783e 2402 703e
00000180: 703f 103f cd4c 243e 5459 903d 8ae9 313d
00000190: e485 403e 4b07 6f3e cb5f 513e efb3 db3e
000001a0: 403f adbd 3510 a63e cefb 89bd db72 973e
000001b0: 1f4a 423e 3492 613e 34b2 9b3e 6117 213e
000001c0: 3ad4 eebe a18c cc3d 96e8 393e ede4 1d3e
000001d0: 5926 e6be e8e6 dd3c 7ec2 51ba 39d2 d53e
000001e0: a722 3cbe 86f4 973e e4eb df3d 3228 8c3d
000001f0: 86af fd3d fce4 983e 3dd1 00bc 1adf 533e
00000200: 1285 0b3d cb34 c8bb dece 4abd b94a cf3d
00000210: f195 093e ece2 ac3e a264 8d3e 5901 a73d
00000220: 3d83 85bc 69cb 6f3e 2a99 b23e c2aa bfbb
00000230: d2ea a63e 741b 03bd 8ba9 8dbe 83de 6b3e
00000240: 5ba1 69bb 4a38 baba f16c ee3d 1a45 ec3d
00000250: 5fdc 653d 0b13 9f3f 6eb3 823e 2424 20bb
00000260: a77f 953d 15cb bebc fdb6 b43e 0ad9 1dbb
00000270: d993 0b3e 7ac0 b0bc 3eff 703e ebe5 c8be
00000280: b12d a73d 419b a53e 13b2 8f3e 5d21 8f3d
00000290: 5bf6 58bb 7b3d 94bd 56c7 063f 2ccf 7dbe
000002a0: adc3 50be aaae b23e d4be 0e3e 2706 8f3e
000002b0: f1f4 5d3e 7793 07be 4726 fd3d 9b7f 083f
000002c0: 8eee 8d3e b1f4 efbe a6de 97be e755 763f
000002d0: 6ce5 bc3e 3913 703d e193 ef3d 83cd ebbe
000002e0: 2f4b be3e 0658 53bd b522 5bbd f0a0 b03e
000002f0: 4959 be3e 7f39 733e ecee 013e 753a b8be
00000300: 3d04 e03e 91c6 283e f266 713e aa85 d03d
00000310: f79e 7b3e 21a9 bc3b 1eda 2c3e 125c c23e
00000320: 4c45 07bd c2e0 a03d 002e c1ba c78a 573c
00000330: 2c21 153e 3925 8fbe bd88 d43d c6d5 11bc
00000340: ec94 c83d 4536 703e c631 04be 33c1 353e
00000350: 2bdc a63e b64a c53d 9214 283e d452 a7be
00000360: ec99 803d 29ed 8a3e f19b 863e 276d 493d
00000370: b936 da3d 1813 b13e 6a10 f7be cf13 413e
00000380: f61e f43e 6dad 403e bf29 413e 25f4 303f
00000390: 732b be3e 757f c0bb a834 a23d b36f 163e
000003a0: 72ba 593e b6e6 2a3e f378 933e e475 923b
000003b0: fd62 ef3d 5bbc 8d3d b446 903e b8e9 98be
000003c0: de92 d33e 0e05 943f 8c48 ed3c 7958 a33d
000003d0: 0494 3b3e 7c10 273f b3cc 373e 5d22 873e
000003e0: d549 07bb d187 fa3d c73e b43d 2c57 613e
000003f0: 1261 993e 9965 1e3f 6644 8d3e 2f42 4a3e
0.13918419 0.14933582 -0.017698158 0.50905555 0.010450675 0.062548816 0.0913936 0.16848484
0.2678001 0.1844534 0.07416644 0.08500961 -0.05192472 0.11655002 0.0700496 -0.43869618
0.119614445 0.237213 0.52084005 -0.55371773 -0.21385185 -0.41417262 0.0039098295 0.039645515
0.24498776 0.052528016 -0.052656926 0.21304636 -0.06629348 0.09034016 0.17404096 0.21372768
0.5216236 0.16388416 -0.3370968 0.065479435 0.23957448 0.11483391 0.47684076 0.27527192
0.08730174 -0.006979092 -0.121584825 0.32763982 0.11181364 -0.020748882 0.3250787 0.359685
0.086207055 0.17830533 0.25542268 -0.06937653 0.015752222 -0.0627761 0.11447538 0.057908185
-0.07580029 0.27450794 0.052059516 -0.20782837 0.43748692 0.21866265 -0.060283605 -0.018925548
0.041393124 -0.0967334 0.30082998 -0.10155961 -0.64901525 -0.06633814 0.1361647 0.11284179
0.08024049 0.18825056 -0.07956733 -0.14973134 0.44872212 -0.1363094 0.019758936 0.18500504
0.22072269 0.34307954 0.2673087 0.5937393 0.20581087 0.045499995 -0.21564065 -0.07491392
0.25937006 0.20662788 0.20784685 -0.33486706 -0.65397865 0.059497576 0.24290738 0.23438317
0.563468 0.16044922 0.07048288 0.04343561 0.18801075 0.23342626 0.20446698 0.42910716
-0.084593296 0.3243424 -0.06737481 0.29579815 0.18973587 0.22028428 0.30409396 0.15731575
-0.4664629 0.0998776 0.1815513 0.1541936 -0.44951132 0.027087644 -0.0008001699 0.4176195
-0.18372594 0.29678744 0.109336644 0.06843604 0.12386994 0.298622 -0.007862386 0.20690575
0.034062453 -0.006109809 -0.04951369 0.10121674 0.13436104 0.33766878 0.2761584 0.08154554
-0.01629793 0.23417439 0.3488248 -0.0058492133 0.3260103 -0.032008603 -0.27668414 0.230341
-0.0035649154 -0.0014207449 0.11641873 0.115366176 0.056118365 1.2427686 0.2552752 -0.0024435604
0.072997384 -0.023290196 0.3529586 -0.0024085664 0.13630618 -0.021576155 0.23534867 -0.39237913
0.08163012 0.32345012 0.28065547 0.069887854 -0.0033105824 -0.07238289 0.5264791 -0.24786061
-0.20387144 0.34898883 0.13939983 0.2793438 0.21675469 -0.13239847 0.123608164 0.5331971
0.27721065 -0.46866372 -0.29662055 0.96224827 0.36893785 0.058612082 0.116981275 -0.4605523
0.37166736 -0.051597618 -0.053499896 0.34497786 0.37177494 0.23752402 0.12688798 -0.359821
0.43753234 0.16481997 0.23574427 0.101817444 0.24572359 0.0057574664 0.1688008 0.3796087
-0.03302507 0.07855369 -0.001473844 0.013155646 0.14563435 -0.27958086 0.10377643 -0.008901065
0.097940296 0.23458202 -0.12909612 0.17749481 0.3258985 0.096333906 0.16414097 -0.3268038
0.06279358 0.27134064 0.2629085 0.04917636 0.10654969 0.3458488 -0.4825471 0.18855213
0.4767987 0.18816157 0.18863581 0.69122535 0.37142524 -0.005874569 0.079202 0.14691047
0.2126253 0.16689572 0.28803214 0.00446962 0.116888024 0.069206916 0.28178942 -0.29865813
0.41322988 1.1564043 0.028965257 0.07975859 0.18318182 0.6525953 0.1794918 0.26393405
-0.0020643373 0.12232936 0.08801036 0.2200591 0.2995687 0.61873776 0.27591246 0.1975181

bns.running_mean f4 [256]
00000000: e8d5 7841 f054 1c40 907a 893d 5bf3 793f
00000010: 7cae e93f adcb 9140 3cf4 a53f 2fcc 103f
00000020: 77ba 6d3f 0a03 a33f 87c1 5541 f1f3 8e3d
00000030: 8ad9 1041 d7a6 893e 9706 743e 7f52 8740
00000040: b754 cb41 3b27 c93e cae5 d13f dbc2 b540
00000050: b10a c73f f25f 9f3f 0400 0000 f9a5 573e
00000060: fc67 813f c4d3 f43e 0288 f93d a3f2 c63f
00000070: 6056 9040 ad3f cc3e f0d4 ae3f 4edb 5740
00000080: afa8 c83d 09e4 e43f 7102 bc3e a155 7240
00000090: d6f2 e940 a75a 593e 3ce8 1841 7f13 353f
000000a0: b193 b43d 0400 0000 0940 333f 9b47 373e
000000b0: ff9f 803f dc65 a840 ed56 843f 4297 803f
000000c0: 0793 a83e 0e08 ee3e bdb3 0e40 d345 0b3e
000000d0: ed64 443b 7d01 1540 294a 203e f52f 373f
000000e0: 4ca6 1a40 a79b 0f40 0c91 2b3f 3df8 143f
000000f0: 4955 a23e bbee f23f b600 d93f 8dee c83e
00000100: d59e aa3d 2cc9 b73e 3378 db3e db7e b23e
00000110: 87d0 8940 f67c 623f ca42 f53d a316 273f
00000120: b183 b13e 7d82 9240 012e 0641 a436 9640
00000130: 8843 923f f3a4 b63f ccd0 1a3e 70bf cd3e
00000140: f0f5 1240 8904 843f de74 a63f 7c42 803e
00000150: 563b 063f 800b 0f3e 1b7b 9a3e 0f3d 3e40
00000160: ed8e c33e 9352 b73e ac28 c63d 51ca 6640
00000170: 4e40 ce40 4036 f83f 464f 553f cf03 723f
00000180: 3f9e 0141 16f6 c03d 3843 e83d 9042 943f
00000190: c420 9c3f 1188 2f40 b825 3d3e 2eda 7d3f
000001a0: fc17 b83f f7cf b43f dc21 693f e1cc be3e
000001b0: ff9e 4e3d af1d a03d 98ad 5d3f b5d0 6040
000001c0: 2143 f63e 08cb 963d 202f e43f b547 a73e
000001d0: 7213 553f bb64 3b3f 0400 0000 c95a 2240
000001e0: 9994 fb3e eed5 493e 4b7c 053e 9884 5a3e
000001f0: 0711 9c3f b26b 773f 0e54 b13f d595 e33f
00000200: 6b5e 143f c5e4 6c37 2a27 6740 fb9c aa3f
00000210: 244f a53d 5f13 683f b979 8d3f 6dc4 5740
00000220: 5c9d 8d40 02a3 503f 3ff9 7d3e 658d 1041
00000230: 2b6e 963f 417e 0e3d d2ca e63e e917 1340
00000240: 0400 0000 0400 0000 09f1 853e 3162 e33f
00000250: dbe9 3940 954a fc40 a4a9 5040 0400 0000
00000260: e456 c33d 3f47 153c 8006 8940 0400 0000
00000270: 3b8c 1b3e 3311 2a40 4813 3440 780b 283f
00000280: 116d b73d b774 4b3f 77e3 3a3f 6b18 cc3d
00000290: 0400 0000 406d 6a3e 11f0 203e 3009 0a40
000002a0: 0b1e 2f41 9120 143f 96f4 b03e cfaa 823f
000002b0: b609 363e 8ca8 7641 d97a 793e bd8b 7840
000002c0: 39e3 9840 dfe6 4740 9a63 0f40 7a64 4f40
000002d0: 112c b93f f51f 733f 9177 293f 581a 783f
000002e0: c605 a23e 6293 2a3e e7bf de3f b82a a040
000002f0: aa5e 9f3e 645a 4f3e dc13 c940 7fcb a840
00000300: 992d 8e40 842a 1e3f 595a 183f 068b 093f
00000310: c16a 553f 5217 403f 3d92 db3e cd45 523f
00000320: 4ec1 5e3f c38e 8a40 8bea 113f df19 0940
00000330: 1e56 6640 8d19 313f 2353 8c40 0426 843b
00000340: 0a82 8c3e d722 203f 3215 753f 4b4c 593f
00000350: f58a c03d 9cb5 be40 0987 103e 3691 cc3e
00000360: f83f f03d 9403 9a3f cd00 ce3d f3dc 9b3f
00000370: b659 d340 5f16 283f c899 2941 b2d5 103f
00000380: 7508 3f40 7576 e440 57a8 9040 ec84 1b40
00000390: f0e9 9b40 0400 0000 747b a83e 73c1 ac3f
000003a0: ad54 3f3f 7df2 603f dc56 3e3f 8cc7 2141
000003b0: 644d 5b3f 3a8e 9a3e 3930 363f 56af 8840
000003c0: 3988 8240 a075 3440 9c13 7e3d 2ee0 6540
000003d0: f457 a43e 6baf 1e41 f6cb 913f c4f4 7840
000003e0: 953d 6040 201d 873f 8e89 303f 9cb3 993f
000003f0: bb94 613f 6dba 7d40 2f06 a23e 7342 2741
15.552223 2.4426842 0.0671283 0.97636956 1.8256373 4.556113 1.296516 0.5656156
0.9286265 1.2735302 13.359748 0.06980122 9.05311 0.268851 0.23830639 4.2288203
25.416365 0.39287743 1.6398251 5.680036 1.5550138 1.2451155 6e-45 0.21059407
1.0109859 0.47817814 0.121841446 1.5542797 4.510544 0.3989233 1.3658733 3.3727603
0.09797799 1.7882091 0.36720613 3.7864764 7.310893 0.21225987 9.556698 0.70732874
0.088172324 6e-45 0.70019585 0.17898409 1.0048827 5.262434 1.0339028 1.004616
0.32924673 0.4649052 2.2297204 0.13600855 0.0029967383 2.3282158 0.1565329 0.7155755
2.4164 2.2438753 0.670182 0.5819128 0.31705692 1.8979105 1.6953342 0.392445
0.08331076 0.3589567 0.42865142 0.34862408 4.306705 0.88471925 0.1197563 0.65268916
0.34670785 4.5784287 8.386231 4.69417 1.1426859 1.4269089 0.15118712 0.40185118
2.2962608 1.0313884 1.3004415 0.25050724 0.5243429 0.1396923 0.30172047 2.9724767
0.3819498 0.35805187 0.09675726 3.6060984 6.4453497 1.9391556 0.83324087 0.9453706
8.101134 0.09421937 0.11340946 1.1582813 1.2197499 2.7426798 0.1847142 0.9916104
1.438232 1.4125966 0.9106729 0.37265685 0.0504446 0.07818162 0.8659301 3.5127385
0.4809809 0.07362944 1.7826881 0.32671896 0.83232796 0.7320058 6e-45 2.536791
0.4913681 0.19710514 0.13035695 0.21339643 1.2192696 0.96648705 1.3853776 1.77801
0.5795657 1.4119961e-05 3.6117654 1.3329157 0.080717355 0.9065456 1.1052772 3.3713639
4.425459 0.8149873 0.24802111 9.03452 1.175237 0.034788374 0.45076615 2.2983344
6e-45 6e-45 0.26160458 1.7764341 2.9048984 7.8841043 3.260354 6e-45
0.095380574 0.009111225 4.2820435 6e-45 0.15190212 2.6572998 2.8136768 0.656425
0.0895635 0.7947497 0.73003334 0.09965595 6e-45 0.22893238 0.15716578 2.1568108
10.944835 0.5786219 0.34561604 1.0208377 0.17777142 15.416149 0.24363269 3.883529
4.777737 3.1234663 2.2404542 3.2405076 1.4466573 0.9497064 0.6619807 0.969152
0.3164503 0.16657785 1.7402314 5.0052147 0.3112691 0.20249325 6.2836742 5.274841
4.443066 0.61783624 0.5951286 0.5372776 0.8336602 0.75035584 0.42885008 0.8213776
0.8701371 4.329927 0.5699851 2.142204 3.5990062 0.6917961 4.3851485 0.004032852
0.27442962 0.6255316 0.95735466 0.8488204 0.09401504 5.959669 0.14114012 0.39954537
0.11730951 1.2032342 0.100587465 1.2176803 6.604701 0.65659136 10.600044 0.56576073
2.9848912 7.13946 4.5205493 2.429988 4.872307 6e-45 0.32906687 1.3496536
0.7473858 0.8787001 0.74351287 10.1112175 0.85664964 0.30186635 0.7116733 4.2714033
4.0791287 2.8196793 0.06203042 3.5918078 0.32098353 9.917827 1.1390369 3.8899393
3.5037587 1.0555763 0.6895989 1.2007937 0.8811757 3.9645035 0.31645343 10.453723

bns.running_var f4 [256]
00000000: 1807 a342 f893 c541 a638 fb3e 7b13 9f40
00000010: 265a e840 f32b 7142 dfc1 a240 6407 6340
00000020: efc1 0a41 dea8 0841 37b1 d441 8e80 b93e
00000030: 30e5 ce42 e03e bf3f 3a67 cf3f 6433 2242
00000040: 9f23 3e42 4907 2040 d55e d740 4fb2 bd42
00000050: 32e1 8041 14a9 843f 0400 0000 60e4 b13f
00000060: d7df 0941 e004 4340 c8a6 243f c8e0 2e41
00000070: fb6a ae41 ba3f fe3f 84b3 5d41 22c8 be41
00000080: 1edc 273f 2f98 b441 9b99 1b40 a877 4742
00000090: cbaf 9642 0a52 933e c549 b942 88ee ac40
000000a0: 39a1 2d3f 0400 0000 6e9b 763f 46eb 453f
000000b0: f682 0941 1205 5442 84bc bf40 b823 f040
000000c0: 87cb 2640 e109 4a40 cdc5 8041 3d26 643f
000000d0: 3f8b 993c b677 9d41 e66e 3d3f 44bd bd40
000000e0: 50a0 8041 3207 9141 7210 8d40 a12c 8340
000000f0: 56fe 5b3f df5e 5741 0d26 4641 b5ac 2740
00000100: 20ff 0d3f 029a 803f edc5 f13f 6a69 1a40
00000110: 004d 6042 89a0 e63f 0108 e13e 3d7e 6240
00000120: e357 3240 00b8 5b42 b710 a242 9166 3542
00000130: 0078 b340 3a27 0041 abaa 1d3f f696 3040
00000140: 2d5c 8f41 bad0 dd40 edf6 0d41 8074 df3f
00000150: 4621 7140 6bf0 173f b84b 1a40 4e2c fa41
00000160: 8d89 0340 4452 1240 febc e43e cea0 ec41
00000170: ac80 a742 fcc8 bd41 6177 cc40 77f1 8e40
00000180: 0d49 8942 633f 043f e22a 303f 07de c840
00000190: f7a5 3641 ac63 b341 9867 863f bce5 c140
000001a0: c794 3f41 9081 5241 2b13 fe40 f444 2040
000001b0: 4b54 8b3e 8439 1e3f dce3 d540 e8b9 0942
000001c0: 2bd6 7140 21a6 d63e 7e05 4641 f2e2 0640
000001d0: a772 c240 ee34 cf40 0400 0000 652a f641
000001e0: e7d9 3f40 befd 1f3f 068b 263f fae0 ca3f
000001f0: 7998 d840 8139 dc40 f303 3b41 46c0 8541
00000200: 8239 2040 618b 5437 4713 3a42 92aa 3341
00000210: 577e c33e be4a f540 e570 0541 bb27 ee41
00000220: 3dee 0c42 2264 c040 1cf9 0640 8e99 5c42
00000230: d3ba 1b41 30a3 4c3e a6e6 2040 c911 e941
00000240: 0400 0000 0400 0000 c6de 9e3f 063e ae41
00000250: 761e bc41 de37 ba41 9b6d 4142 0400 0000
00000260: 36ac f83e 8dd0 313d 8880 0642 0400 0000
00000270: 5bb0 a83f 826f 7241 cf29 1e42 852d a340
00000280: 6389 ff3e 28a7 1a41 928e ee40 ea2d f03e
00000290: 0400 0000 79c9 d23f 7c56 c23f 6d87 af41
000002a0: 2065 4d43 3db1 4040 89ff 3e40 f6d3 9940
000002b0: 83ed 373f 8de2 c143 4fda 0840 db75 1c42
000002c0: ec10 fa41 6f38 8741 f65f 8941 ac2c 9d40
000002d0: 0f1b 6341 a062 d840 3b30 a240 3361 3141
000002e0: fe36 1140 fdf6 803f 7b20 5b41 7026 4a42
000002f0: 0dd6 0640 e6ea 433f af87 8f42 7a61 9942
00000300: fd86 0742 c2f4 5b40 6341 8840 22c4 7940
00000310: 9a8e 1341 7148 9b40 b5d1 ca3f 5ec6 2b41
00000320: 59d0 e140 70a2 5042 1242 8c40 ae31 a441
00000330: b925 c641 d5b8 a540 7f3f 3842 c405 063c
00000340: cab7 b13f a3cd 3840 e062 bf40 31a3 0441
00000350: 1156 0f3f c56a 8942 908e 203f d41f 5e3f
00000360: 8aa5 cf3e f150 a740 2b31 123f 4214 2e41
00000370: 692a 8942 96aa 6440 8f12 4b43 da78 6840
00000380: 36de ca40 a728 1f43 9b20 4442 2c61 f540
00000390: d559 d941 0400 0000 2c66 0e40 adb8 1e41
000003a0: 33b0 9840 ee5b e440 62c5 d140 fb07 8842
000003b0: 0523 fe40 7844 0040 32ed 7540 f3d1 a441
000003c0: a54c 0942 72a6 8940 1dc8 a53e c57b 2442
000003d0: dc00 2940 155f 0642 1397 ef40 069d 1142
000003e0: 3528 7342 0e0c 3d41 d935 6440 27c4 4341
000003f0: d968 bd40 abba a441 2c32 e83f 6205 3343
81.513855 24.69725 0.49066657 4.971128 7.2610044 60.29292 5.086166 3.547326
8.672347 8.541227 26.58653 0.36230892 103.44763 1.4941063 1.6203377 40.550186
47.534786 2.5004447 6.730326 94.84826 16.109959 1.0364099 6e-45 1.389782
8.617148 3.0471725 0.6431699 10.929878 21.802237 1.9863198 13.856327 23.847721
0.6557025 22.574308 2.4312503 49.86685 75.343346 0.28773528 92.64408 5.4041176
0.6782413 6e-45 0.96330917 0.77312124 8.594473 53.00495 5.991762 7.50436
2.6061723 3.156853 16.096582 0.89120847 0.018743156 19.683453 0.7399734 5.9293537
16.078278 18.128513 4.4082575 4.099198 0.8593496 13.460662 12.38429 2.6199162
0.55467415 1.0047 1.8888527 2.412684 56.075195 1.8017741 0.4395142 3.538955
2.7866142 54.929688 81.032646 45.350163 5.6083984 8.009577 0.61588544 2.759214
17.920008 6.9317293 8.872785 1.7457428 3.7676558 0.59351224 2.4108715 31.271633
2.0552704 2.286271 0.4467544 29.578518 83.75131 23.723137 6.3895726 4.4669757
68.64268 0.5165922 0.68815434 6.277103 11.415519 22.423668 1.0500364 6.0592937
11.973823 13.156631 7.93984 2.5042086 0.27212748 0.6180651 6.684065 34.43155
3.7786968 0.4192362 12.376341 2.1076016 6.0764956 6.475211 6e-45 30.7707
2.9976747 0.62496555 0.6505588 1.5849907 6.7686124 6.8820195 11.688464 16.718884
2.50351 1.2668636e-05 46.518826 11.229143 0.38182327 7.665374 8.340062 29.7694
35.232655 6.0122232 2.1089544 55.149956 9.733111 0.19984126 2.5140777 29.133684
6e-45 6e-45 1.2411735 21.780285 23.514874 23.277279 48.357037 6e-45
0.48568887 0.04341178 33.62552 6e-45 1.317882 15.152224 39.54083 5.0993066
0.49909505 9.66581 7.4549036 0.4691003 6e-45 1.6467735 1.5182643 21.941126
205.39502 3.0108178 2.9843466 4.807124 0.7184679 387.76993 2.1383245 39.115093
31.258263 16.902555 17.171856 4.911703 14.194106 6.762039 5.0683875 11.08623
2.2689815 1.0075375 13.69543 50.537537 2.1068146 0.765303 71.76501 76.690384
33.881824 3.4368138 4.257982 3.902596 9.222315 4.852593 1.5845248 10.7359295
7.056683 52.15863 4.383065 20.524258 24.76842 5.1788125 46.062008 0.008180086
1.3884213 2.887551 5.9808197 8.289842 0.559907 68.708534 0.62717533 0.86767316
0.40555984 5.2286305 0.57106274 10.879946 68.58283 3.5729117 203.0725 3.6323762
6.3396254 159.1588 49.03184 7.668112 27.168863 6e-45 2.224986 9.920087
4.7715087 7.136222 6.5553446 68.01559 7.941775 2.004179 3.8426023 20.602514
34.32485 4.301568 0.32379237 41.12087 2.6406775 33.592854 7.4871917 36.403343
60.789265 11.815443 3.5657866 12.235389 5.919049 20.591146 1.8140311 179.02103

fc2.weight f4 [256, 258]
00000000: 6d71 e6bd 619d 69be 121f 613d ee01 a23d
00000010: 67b0 f83e 827b 65bd 06e7 14be 208f 02be
00000020: 3b8a b33d 410d bf3c 494d 82bc 4cbd 763e
00000030: 35d1 233e 362c 0dbe d374 13bd b47f 143f
00000040: 93f5 583e 37a1 66be ec20 debe 3d5b ca3e
00000050: 4c19 31be 6132 9a3d 3ef8 9439 7db3 f7b9
00000060: d8f5 023f c895 e5be 4c8d 903d 7cfa f53d
00000070: 2c79 743e 3126 1b3d 51d2 6bbe a1fe 8ebe
00000080: 3f5f b3be 0b57 4abf 006d 883d b1cf 65be
00000090: 36ce 503c 75cd 393e 2901 bebe 03ea d7be
000000a0: 9c31 10bf a98c eebd e97a ea3d e6b1 38be
000000b0: 67a4 ec3d e686 603e 1a8f 82be 8f00 3ebe
000000c0: 41f7 1c3e de6c 503e c8cd d53c e0cb ddbe
000000d0: 780f 11bc 7eab f3bd 93c7 2cbe 9246 443e
000000e0: 7d06 153f 7085 edbd aae1 3b3d 8a6a d53d
000000f0: a0ae 41be 3ac4 f5bd dbdf aabe 7ca9 8abd
00000100: b1de 4ebe bece 58be 55df 1a3d f25f 303e
00000110: ea1a ad3e 2fae bbbe beb2 2fbe 2c2c f4bd
00000120: 2015 483d 3d4d b23c f29d b0bc a0f7 febc
00000130: 2b68 14bf 7d0c 45be 7ce6 0ebd 3bea eabc
00000140: 3f95 9abd 6d1c abbf 3cf0 25bd 02f5 06bf
00000150: bf45 a7be 9bb0 493e 6a70 a739 d00e d83e
00000160: d0a5 e5be 2738 713e 0019 e6be 2083 233e
00000170: ea2d 7d3e 6322 04be 637c f0bd cd61 183e
00000180: a1c9 a4be 19e9 eebe e2bd a53e b340 8e3d
00000190: 1551 b03c 84d5 173e 85cd 8a3e 18e8 a1be
000001a0: 88f0 363e 4692 23be 00b8 723e c4ad 87bf
000001b0: 2ab3 a8bd f22e a23d 448b b83d 60d9 28bd
000001c0: 1056 b93e ebf5 cebd ba48 0dbd f62b 333d
000001d0: d30b 803e b728 533c 905d 903d fb0e a9be
000001e0: 9f1d 073e 5c22 83bb b298 143d f4ed 86be
000001f0: c67e 473e 34d7 ae3e 0d54 f1be 4ae4 6d3c
00000200: 9a9d 2b3e 788e b2bc 2939 883e beea c1bd
00000210: a363 733e 64c9 a7be b21a 48bf b1fa 99bd
00000220: 7851 553c 314e ef3d 12fb afbf 9e48 863e
00000230: 20e9 71be de8c 313e 3176 403e 8a2f 87be
00000240: 396f c03b 4b00 303e 5547 303e f955 ebbd
00000250: 6af1 f43d dda4 51be 9619 e0bd ebc7 883d
00000260: 114b 8a3e 5e00 3bbe b053 bdbd 3cf3 273e
00000270: 4615 8dbf 3c9b 89be 9898 be3e ec67 b63e
00000280: 7d40 3e3e 1696 753d f31e e8be 4191 c1bd
00000290: 4b42 d1bc 5de1 65be e638 553d 8304 793d
000002a0: 0532 6e3e 392a 643e b4d1 8cbd aa87 80bd
000002b0: 8874 5a3d 6964 bebd 3e98 37be 873e abbe
000002c0: 5509 d63b 80dd 503e 83f4 4a3e fde9 10bf
000002d0: 6b74 ddbe ebdd 91be 35e2 ae3d 814c 9b3e
000002e0: 3346 c5be 71c1 c0bc da80 333e eb2c 17be
000002f0: 4e91 db3d 782c 91bd e2b2 e5bd 41d8 a13e
00000300: 8e25 b9bc aa86 753d c990 7abf 1d2c d1be
00000310: d81a f2be 3604 083e fc61 5c3e 47cb 89be
00000320: b016 32be 1697 9dbd 48c6 55bd 10c3 5ebd
00000330: a708 f3b9 9d03 b03d 7608 a03d 4e75 ffbd
00000340: fe87 9c3e f8a0 a43e 0c6e fd3d b944 b7be
00000350: b949 44be fbb1 9dbe 04c8 00bf 44da 123e
00000360: 3877 973c c769 05bf 9667 313d 4238 ef3e
00000370: 1402 a0be 72e4 423e 47fb c43e a1ea 4abe
00000380: 655b 0cbe f1c7 82bc 842e 833b 2ee4 ecbd
00000390: b919 99be 5d5f adbc fd38 9f3e 6ea9 723b
000003a0: bd69 9d3d ae31 9abe 531b 5cbd c8e6 89be
000003b0: 6891 69bf d11e fb3b 52d4 693e 2044 b5bd
000003c0: cd9f a8be 9d82 2bbf 1542 d23b 52a6 39be
000003d0: f02c da3e d990 f0bd 0bf4 04be 30f8 053d
000003e0: 03bf 4a3d 3483 91be 3bf3 053e 81cd 08bf
000003f0: a4d6 b6be fa7f 853d f40d 5f3e 452f 953e
-0.11252103 -0.22813942 0.05496127 0.07910524 0.48572084 -0.05602599 -0.14541253 -0.1274991
0.087666 0.02332175 -0.015905993 0.24095649 0.15997775 -0.13786396 -0.036000084 0.5800736
0.21187429 -0.22522436 -0.43384492 0.39522734 -0.17294806 0.0752914 0.00028413715 -0.0004724524
0.5115638 -0.44840837 0.070582 0.12010667 0.23874348 0.03787822 -0.23029448 -0.2792864
-0.35033605 -0.7903907 0.06661415 -0.22442509 0.012744477 0.18144782 -0.3711026 -0.42170724
-0.563257 -0.116479225 0.114492245 -0.18036613 0.11554795 0.2192646 -0.25499803 -0.185549
0.15328695 0.2035403 0.0260991 -0.43319607 -0.008853786 -0.11897944 -0.16873007 0.19167545
0.58213025 -0.11597717 0.045869507 0.10420711 -0.1891427 -0.12000318 -0.33373913 -0.06770608
-0.20202138 -0.21172616 0.037810642 0.172241 0.33809596 -0.3665633 -0.17158028 -0.119224876
0.04884827 0.021765346 -0.02155969 -0.031123936 -0.5797145 -0.19243045 -0.034887776 -0.028676143
-0.07547998 -1.336805 -0.04051231 -0.527176 -0.326704 0.19696276 0.00031936477 0.421988
-0.44853067 0.23556577 -0.44940948 0.15967989 0.24724546 -0.12903742 -0.11742475 0.14881058
-0.3218508 -0.46662214 0.32371432 0.06945934 0.021523038 0.14827543 0.27109924 -0.31622386
0.17865193 -0.15973768 0.23703003 -1.0599904 -0.08237298 0.0791911 0.09010938 -0.04122293
0.36198473 -0.10105499 -0.034493186 0.043743096 0.2500902 0.012888125 0.07049096 -0.33019242
0.13194893 -0.0040018987 0.036278434 -0.2635342 0.19481954 0.34148562 -0.47134438 0.01451976
0.16759339 -0.02179645 0.2660611 -0.09468602 0.23768477 -0.32770836 -0.78165734 -0.07518519
0.013019912 0.11684836 -1.3748496 0.26227278 -0.23624086 0.17338893 0.18795086 -0.26403457
0.005872634 0.17187612 0.17214711 -0.11491007 0.119601086 -0.20473047 -0.1094238 0.06678756
0.27010396 -0.18261859 -0.09244478 0.1640138 -1.1022117 -0.26876247 0.37225795 0.3562616
0.18579288 0.059957586 -0.45336112 -0.09451533 -0.025544306 -0.2244925 0.052056216 0.06079532
0.23261268 0.22281732 -0.06875935 -0.06275876 0.05333379 -0.092964955 -0.1792917 -0.33446142
0.006531874 0.20396996 0.19819836 -0.5660704 -0.43252882 -0.28489622 0.08539239 0.30331805
-0.3853012 -0.02352974 0.17529622 -0.14763229 0.10721074 -0.0708856 -0.1121576 0.316103
-0.022600915 0.05994288 -0.97877175 -0.40853968 -0.47286105 0.13282856 0.21521753 -0.269129
-0.17391467 -0.07694833 -0.05219105 -0.054385245 -0.00046355018 0.08594439 0.07814114 -0.12473546
0.30572504 0.3215406 0.123745054 -0.3579462 -0.19168748 -0.3079985 -0.503052 0.14341074
0.018489465 -0.5211453 0.043311678 0.4672261 -0.31251585 0.19032457 0.3847296 -0.19816066
-0.13706739 -0.01596448 0.004003348 -0.11566959 -0.29902437 -0.021163637 0.31098166 0.0037027257
0.076861836 -0.30116028 -0.053736996 -0.26933885 -0.912375 0.0076635857 0.228349 -0.088508844
-0.32934418 -0.66996175 0.006416569 -0.18129852 0.4261241 -0.117463775 -0.1298372 0.032707393
0.04949857 -0.28420413 0.13081066 -0.53438574 -0.35710633 0.0651855 0.21782666 0.29137626

fc2.bias f4 [256]
00000000: 0de0 91be 28a5 d9be 8ca7 3fbd c6f1 8dbe
00000010: 2fd9 62be c130 f0bd 83e3 14be c27a c6be
00000020: bd80 81be 70d1 90be 4f55 fdbd 3190 aa3e
00000030: 4615 5dbe 651f 89be d80c ba3e 5144 6cbe
00000040: cec8 bebe 80ad 85be c63b 6abe a80b 3a3c
00000050: 8acb 69be 451d 9ebe 4bdf 7ebd 1909 90bd
00000060: 801a b7be 03bb ddbe 4bbb 8bbc 6f5b adbe
00000070: 2283 edbd a503 c6bd 1f3b 95be 9227 52be
00000080: c501 f5be 26c0 c6be 355e bfbe 0d30 00bf
00000090: b69b 1cbe d3b9 e8bd ce86 31be ff36 06be
000000a0: ff1b 7cbe 9b90 c6be 0ce4 cfbe b770 a9be
000000b0: 2b69 5abd 459f 92be 075c 51be c173 1cbd
000000c0: 5acc b9be d27c ed3e ab00 47be 8f11 5bbc
000000d0: f1a1 a2be d9e9 babd 068b 203d 3124 073e
000000e0: caf9 23bd f69c 02be 5768 27be 9d3e 40be
000000f0: 591e 2bbe 6976 7cbe 1986 70bd d326 78be
00000100: b732 f3bd b668 95be c943 10be 5c8d b53d
00000110: c53b 62be 6637 7abe d438 8ebe 3745 44be
00000120: 53aa 0c3e 436d 513b 7e8a 6e3c 7e99 38bd
00000130: a542 22be d853 acbe e37b 67bd f101 6cbd
00000140: e810 23be 7f2a 7dbe 06bd 98be 684b 0abe
00000150: 2a53 62be 7ea1 753e 1c27 60bd 55ee a6be
00000160: 3195 44be 39c5 83be 16a4 a5be f189 92be
00000170: 4f5c 79be db85 c3bd 5400 fbbe 6b6d cbbe
00000180: 4658 3bbe 0d17 87bd df2a c4ba 1b09 60be
00000190: 6e9a bbbd b3b6 59bc a017 2f3d 0cee 40be
000001a0: 8066 9fbe 1b6c aebb 5b81 b7be 559e 613d
000001b0: 8539 8bbd fa45 5ebe 4e13 803d c266 fa3d
000001c0: 0bbd c3bd 5a7d 823c 2c40 debe cbed 9ebe
000001d0: 7b83 bfbc 8ed3 86be 70e9 41be 9dc4 b6be
000001e0: b356 97bb fa32 01be f76e 50be 959c 96be
000001f0: f150 72be 6512 a3be dc49 bfbe d93f 1cbe
00000200: a3a0 fa3c 83b6 78be 6015 27bf a1ab d13d
00000210: d2f2 2abe d45d 5fbe 1418 a93e ad67 0b3e
00000220: f9bc 11bd c870 3fbd d4cb ce3d ee04 2fbe
00000230: d53a aebe 5513 a6bc 4575 9bbb 0c95 89be
00000240: ea90 343c 148e 89be 37ed 57bd 420a b7be
00000250: 6c0c c8bc 4dd2 81be f3be 7bbe 579e dcbd
00000260: 8cc2 16bf 59f7 acbd fbdd e8be 69ae a4be
00000270: 8859 3abe 1466 39be 0547 51be 7c40 08bd
00000280: e983 6fbe 99ae 07be 1e50 ebbe ae07 0abe
00000290: 9f88 8dbe 30c1 b9be 943c f2be 735c 60be
000002a0: 8d98 423e 5042 5fbe 1bf9 d3be 6000 c9bd
000002b0: be59 b9bd 9f3f 1f3f ffe4 bbbd 8d33 08be
000002c0: dacd 8e3e 176f b23e dee5 7abe 60df 30bd
000002d0: d2e0 8dbe d812 81be 4289 e4be c248 c3be
000002e0: 7b16 48be 8393 9fbd 9561 d9be a1c3 12be
000002f0: 3d60 e2be 0755 0d3d 0d96 79be 8867 75be
00000300: de85 d7bd e0c7 50be 5c1d 893d 6a54 adbe
00000310: a5c4 2abe 7b3a 053b c45b fe3c 12d6 ecbd
00000320: 42b9 283b c7b3 debd 91c8 1ebe 02f6 c6be
00000330: a1ff 62be d8c3 a5bd 6c7e 973b 8812 ca3e
00000340: aa41 3ebe 3056 2cbe 5b0e 7cb9 244d 39be
00000350: 396b 4abe 65ad febd 8cfe 36be 3bea cfbb
00000360: d151 7bbe ddfe b5be ae80 363e 7248 c5be
00000370: efa5 46be afeb adbe 9eb8 05be d238 1bbd
00000380: 101b c2bd ca4e 5fbd 27f1 70bc 85a2 8dbe
00000390: 2305 60be c64f 82be 0e56 b6be ba67 6cbe
000003a0: 9bc6 59be dc13 cebd 73d6 90be 268f 58be
000003b0: 675a 74be dfc2 b0be 5b78 82be 442a 46be
000003c0: 6eed 11bf 358b 5cbe d0af 2abe d278 23bd
000003d0: 6c66 2abe c5f7 65be 78ca 4bbe c726 6fbe
000003e0: 8ece fdbd 05ef a43d 81d3 6fbc 41ad 57be
000003f0: bcb7 3cbe 5eb7 abbe 970f 1dbe bdc7 edbd
-0.2849125 -0.42508817 -0.046790645 -0.2772352 -0.22153161 -0.11728049 -0.14539914 -0.38765532
-0.25293532 -0.28284788 -0.12369787 0.33313134 -0.21590146 -0.26781765 0.36337924 -0.23072936
-0.37262577 -0.26108932 -0.22874364 0.011355318 -0.2283155 -0.30881706 -0.062224668 -0.07032985
-0.35762405 -0.4330674 -0.017057082 -0.3385882 -0.11597277 -0.09668664 -0.29146668 -0.20522907
-0.47852913 -0.38818473 -0.37376562 -0.5007332 -0.15293774 -0.11363568 -0.1733658 -0.13106917
-0.24620055 -0.387822 -0.40603673 -0.33093807 -0.053322952 -0.28637138 -0.20445262 -0.03819633
-0.3628872 0.46384293 -0.19433849 -0.0133708855 -0.31764176 -0.09126634 0.039195083 0.131974
-0.04003314 -0.12755188 -0.16348396 -0.18773885 -0.16710795 -0.24654545 -0.058721635 -0.2423356
-0.118749075 -0.2918145 -0.14088358 0.08864853 -0.22093113 -0.24435195 -0.2777773 -0.19167028
0.13736849 0.0031955994 0.014559386 -0.045068257 -0.15845735 -0.33657718 -0.056514632 -0.05761904
-0.15924418 -0.24723242 -0.29831713 -0.13505328 -0.22102037 0.23987386 -0.054724798 -0.32603708
-0.19197537 -0.25736406 -0.3235175 -0.28620866 -0.24351619 -0.09547015 -0.49023688 -0.39731917
-0.18295392 -0.065961935 -0.001496639 -0.21878473 -0.091603145 -0.013288188 0.04274714 -0.18840808
-0.3113289 -0.005322946 -0.35840878 0.055082638 -0.0679808 -0.21706381 0.06253682 0.12226631
-0.095575415 0.015928913 -0.43408334 -0.31040797 -0.023378124 -0.26333278 -0.18936706 -0.3569688
-0.0046184896 -0.12617102 -0.2035483 -0.29416338 -0.23663689 -0.3184997 -0.37361038 -0.15258731
0.030594176 -0.24288373 -0.6526699 0.10237814 -0.16694191 -0.21813136 0.33026183 0.13613768
-0.03558061 -0.046738416 0.10097471 -0.17091724 -0.3402926 -0.02027289 -0.004744204 -0.26871526
0.011020878 -0.2686621 -0.05271646 -0.35750014 -0.024419986 -0.2535576 -0.2458456 -0.107723884
-0.58890605 -0.08445615 -0.45481858 -0.32164314 -0.18198216 -0.18105346 -0.20437248 -0.033264622
-0.23390163 -0.13250197 -0.45959562 -0.13479492 -0.27643296 -0.36280203 -0.47311842 -0.21910267
0.19003506 -0.2180264 -0.4140099 -0.09814525 -0.0905032 0.62206453 -0.09174537 -0.13300915
0.27891427 0.3485038 -0.2450175 -0.043181777 -0.27710587 -0.2520969 -0.4463597 -0.38141447
-0.19539826 -0.077918075 -0.42457262 -0.14332439 -0.4421405 0.034504917 -0.24373646 -0.23965275
-0.1052358 -0.20388746 0.06695053 -0.33853465 -0.16676576 0.0020329047 0.031049617 -0.11564268
0.0025745188 -0.108741336 -0.15506198 -0.38859564 -0.22167827 -0.08093995 0.004623225 0.39467263
-0.18579736 -0.16829753 -0.0002403794 -0.18095833 -0.19767465 -0.12435416 -0.1787054 -0.006345061
-0.24542929 -0.35546008 0.17822525 -0.38531834 -0.19399236 -0.33968875 -0.13058707 -0.037895985
-0.09477818 -0.0545185 -0.014705933 -0.27663055 -0.2187696 -0.25451487 -0.3561253 -0.23086444
-0.21267168 -0.100623816 -0.28288612 -0.21148357 -0.23862611 -0.34523675 -0.2548245 -0.1935206
-0.57002914 -0.21537478 -0.1666863 -0.039910145 -0.16640633 -0.22457798 -0.19901454 -0.23354636
-0.12392913 0.08053402 -0.014637829 -0.21062185 -0.18429464 -0.33538336 -0.15337978 -0.11610363
