agent2_checkpoint_actor.pth (torch_old, 301908 bytes, 18 tensors)

bn1.weight f4 [24]
000000 e0 cc cb 3e 20 74 cd 3e 29 28 f4 3d 69 b7 ae 3c
       0.39804745 0.4012766 0.119217224 0.021327691
000010 55 3a 3e 3f 75 b4 4b 3f 8a 94 01 3f 96 49 00 3f
       0.7430776 0.7957223 0.5061728 0.50112283
000020 af e0 77 3e b2 78 19 3e ac ee e4 3e 58 eb 52 3e
       0.24206804 0.14987448 0.44713342 0.20597589
000030 80 3b 0a 3d 40 11 2e 3e 72 db 25 3e 3e 44 be 3e
       0.03374815 0.16998768 0.16196993 0.3716144
000040 ff a3 1d 3f 62 90 ae 3e 58 e8 5f 3e 34 8f 5f bc
       0.61578363 0.3409453 0.21865976 -0.013644982
000050 23 fd 8f 3f 1d 76 83 3f f2 5d e1 3e 4d 35 3b 3f
       1.1249126 1.027042 0.44016987 0.73128206

bn1.bias f4 [24]
000000 55 e2 37 3d 1e f2 98 bd 42 59 1f 3e 6f e0 54 be
       0.04489358 -0.07468055 0.15561393 -0.2078874
000010 f4 c6 bb bd 64 7c 9d 3b a1 e6 4a 3e 53 1a bb be
       -0.09168807 0.0048060883 0.1981454 -0.3654352
000020 4a 87 af bd d0 97 e7 3c 5b 36 8d 3e c6 e3 90 3c
       -0.08570726 0.028270632 0.27580532 0.017686736
000030 f1 96 ee be 17 68 a0 3e 2b 88 68 bd 08 96 b4 bc
       -0.46599534 0.31329414 -0.056770485 -0.022044197
000040 c6 9a e3 bd ba 4e 45 be e0 6e 03 3e 10 d9 4b bc
       -0.11113505 -0.19268313 0.12835264 -0.012441888
000050 0b 91 8a 3d ac 47 ec 3e f8 e0 d6 3d 0f ef 52 be
       0.06765946 0.4614843 0.10492128 -0.20599006

bn1.running_mean f4 [24]
000000 63 29 ec c0 a0 c8 98 be 3a d2 75 3f 36 ed c0 3d
       -7.380052 -0.29840565 0.96023905 0.094202444
000010 6b 10 8c 3e 76 0f 6d 40 3a d2 75 3f 36 ed c0 3d
       0.27356276 3.7040687 0.96023905 0.094202444
000020 25 f5 ec c0 ba c1 96 be 38 d8 ff 3f e4 af 84 3d
       -7.404925 -0.29444677 1.998786 0.06478861
000030 a0 fb 85 3e 4c 89 6c 40 38 d8 ff 3f e4 af 84 3d
       0.26168537 3.69588 1.998786 0.06478861
000040 81 32 f0 c0 0e a5 95 be c3 3d 95 3f a4 87 84 3d
       -7.506165 -0.2922749 1.1659473 0.06471184
000050 22 ac 87 3e 0e ab 6b 40 c3 3d 95 3f a4 87 84 3d
       0.26498514 3.6823153 1.1659473 0.06471184

bn1.running_var f4 [24]
000000 52 c3 1f 41 86 66 66 3f 58 1a 07 44 4f 0c 83 41
       9.985186 0.9000019 540.4116 16.38101
000010 b5 2c fb 41 d1 21 25 40 58 1a 07 44 4f 0c 83 41
       31.39683 2.580189 540.4116 16.38101
000020 96 b8 14 41 f7 d9 68 3f 51 4f 0a 44 99 33 84 41
       9.295065 0.9095759 553.2393 16.525194
000030 66 6e 01 42 ea 9e 29 40 51 4f 0a 44 99 33 84 41
       32.35781 2.6503243 553.2393 16.525194
000040 bf 18 0f 41 8a 0a 6b 3f 8a 92 0b 44 ea 19 85 41
       8.943542 0.91812956 558.2897 16.637653
000050 36 22 05 42 ec 9c 31 40 8a 92 0b 44 ea 19 85 41
       33.28341 2.7752028 558.2897 16.637653

fc1.weight f4 [256, 24]
000000 16 bd c9 bd 69 23 9c be 59 00 0f bf 5b e7 1e 3e
       -0.098505184 -0.30495766 -0.55859905 0.15517943
000010 81 98 25 3e c4 a5 61 be bf 21 1d bf 13 7c 81 3d
       0.16171457 -0.22035891 -0.6137962 0.063224934
000020 4b e8 c2 3d f1 cb 8d be a6 e4 ea 3d 09 e8 b0 3e
       0.095169626 -0.27694657 0.114693925 0.3455203
000030 0e 88 39 3e 07 e9 9a be 14 3e 53 3e b6 70 8f 3e
       0.18118307 -0.3025591 0.2062915 0.2801568
000040 6d ff 87 3e b5 c2 a5 be 1f e5 a5 3e 5e 8a 2c be
       0.26562062 -0.32375112 0.32401368 -0.16849658
000050 01 db 2e be 16 15 30 bc e1 2e d6 3e 5c dd cd be
       -0.17075731 -0.010747215 0.4183264 -0.40207946
000060 6e ba af 3d 60 cf 42 3c 62 c7 e1 bc af ef aa 3c
       0.085804805 0.011890262 -0.027560893 0.020866243
000070 9e 19 9d 3d 2b 43 bc bc 7f 62 d3 bd d4 42 a9 3d
       0.07670902 -0.022981247 -0.10321521 0.082646996
000080 c3 c5 af 3d 70 2a 81 bb 9c 56 02 3d 55 80 93 bd
       0.08582642 -0.0039418265 0.03182088 -0.07202212
000090 c7 2a 02 3e e8 30 2f bc da 38 72 bd 7d 84 1d 39
       0.12711631 -0.0106928125 -0.05913625 0.00015022042
0000a0 7e 83 06 3d 84 a3 8b bd 7a 1a 8a bd b4 65 52 bd
       0.032840244 -0.068182975 -0.06743331 -0.051366523
0000b0 b4 c5 a8 ba 84 0a e6 3c 4e 85 a8 3c 98 78 06 3d
       -0.0012876303 0.028081186 0.020571377 0.03282985
0000c0 46 b3 35 3c 9c 61 5c 3e ce 8f f7 3e ac d7 3d bc
       0.011090105 0.2152161 0.48351902 -0.011587065
0000d0 5d ac 16 3e 5c 5b 8a be ce 68 15 3f fc f4 ea be
       0.14714189 -0.27022827 0.58363044 -0.45890033
0000e0 03 31 31 be 0b 44 44 3e d5 57 c9 be 57 28 ad 3d
       -0.17303853 0.19166581 -0.39324823 0.0845496
0000f0 12 ef 9e 3e a9 3e bd be 7b 8a 66 be 71 00 11 3e
       0.3104177 -0.36961868 -0.22513764 0.14160325
000100 33 ac 89 be bf 8a 60 3e 5e fe a3 3e 50 5e 95 3e
       -0.2688919 0.21927927 0.32030004 0.29173517
000110 14 3c 8a bd 6e 24 15 bc 1e bd c2 3e 02 b5 48 3e
       -0.0674974 -0.009102924 0.3803491 0.19600299
000120 54 6b 1f 3f 3a 9d e0 bd 52 9e c7 bd bd d1 fe 3d
       0.62273145 -0.109674886 -0.09746994 0.12442348
000130 d9 c4 8c 3c b8 25 b9 3d 90 fe 53 bc f1 ed 96 bb
       0.017183708 0.090403974 -0.01293911 -0.0046060015
000140 67 bc 2c 3e 9a 52 b3 be be b6 3e bf 80 de 1e 3e
       0.16868745 -0.35023957 -0.7449759 0.15514565
000150 b6 35 47 3e e8 f7 11 be 88 07 f5 be 03 9f 26 3e
       0.19454083 -0.14254725 -0.47857308 0.16271596
000160 f4 71 43 3e f4 d0 60 bd 97 03 dc bd e9 02 cd 3e
       0.19086438 -0.054886773 -0.10742872 0.40041283
000170 3e 04 53 be 25 c1 96 bc 71 69 97 bd 55 a8 27 3f
       -0.20607087 -0.018402645 -0.07393158 0.6549123
000180 c0 bd 7e bd 4e 9f d5 bc 8a 1d 8b bd 9a fb 29 3b
       -0.06219268 -0.026076939 -0.067927435 0.002593732
000190 12 df 20 3d 99 49 7d bd e1 fc 86 bb c5 e5 c8 3c
       0.039275236 -0.061837766 -0.004119501 0.024523625
0001a0 59 17 d2 3c 75 89 55 bd 9e 7f 65 3d b7 52 84 3c
       0.025645899 -0.052133042 0.05602991 0.016152723
0001b0 7f a4 95 3d 14 6a 2a bd 84 94 1f bc b7 df 49 3c
       0.07306766 -0.04160507 -0.009739999 0.012321404
0001c0 6c bd 1d bd c2 50 ec 3c ea a7 4c 3d 05 d3 e6 bb
       -0.038510725 0.028847102 0.049964823 -0.0070441985
0001d0 f0 9e bb bc 28 f3 66 3c e1 cf 06 3c 53 bc 4a bb
       -0.022902936 0.014096059 0.008228273 -0.0030935004
0001e0 d6 8d ce 3d 6e 10 6b be d0 97 82 bd 4c b2 ba 3e
       0.10085647 -0.22955486 -0.06376612 0.36464155
0001f0 8e ca 09 bf 65 aa 33 be ed a3 43 3d 8e 77 38 3e
       -0.538247 -0.17545469 0.047763754 0.18014356
000200 58 2b c4 3d 5b a0 b6 be ac fd 2b bd be 43 7d be
       0.0957858 -0.35669217 -0.041989967 -0.24732873
000210 5c 6b 8a 3e 1c ae 9c be 3b c1 c2 3d 75 b0 b5 be
       0.27035034 -0.30601585 0.09509512 -0.3548619
000220 f2 a1 61 bd 7e 14 49 be 82 24 fb 3d c6 4c e9 3d
       -0.055086084 -0.19636723 0.12262823 0.113915965
000230 3a cc a2 be ae b2 8f 3e 55 26 28 3e a2 c3 37 3e
       -0.31796438 0.2806601 0.16420873 0.17945722
000240 cd a1 02 3d df 05 2f 3f 86 34 3b bb 41 1d 99 bd
       0.031892586 0.68368334 -0.0028565242 -0.07476283
000250 15 f6 45 3e 9a 5b 5c be 1d 49 7b bb 81 7e 5e be
       0.19332154 -0.21519318 -0.003834314 -0.21727945
000260 6d a8 a8 3e ef bb 02 3f e7 54 fc 3d 22 f2 ba be
       0.32941 0.51068014 0.12320881 -0.36512858
000270 7c 11 94 3d 7a 44 dd bd b4 8d bf 3d b7 4b b8 be
       0.072298974 -0.108040765 0.093531996 -0.35995266
000280 87 26 6e 3e 97 06 76 3e bb 69 fd bd ef cd af be
       0.23256885 0.24025951 -0.12373682 -0.34336802
000290 e1 b9 a5 3c 36 19 9d 3e 8e 9f 82 bd 4d 4b 0a bf
       0.020230236 0.30683297 -0.06378089 -0.5402115
0002a0 c9 69 de bd 84 e9 14 be 5b 38 52 3d 96 00 71 bd
       -0.10860021 -0.14542204 0.051323276 -0.05883845
0002b0 ae 1a 99 3e ce b0 85 3e 6a 40 1c 3d aa 68 6d bd
       0.29903167 0.26111454 0.038147368 -0.057961144
0002c0 0f 63 5d 3c 8a d3 86 be 26 9f 35 bc ba 53 cd 3c
       0.013512387 -0.26333266 -0.011085307 0.025064338
0002d0 c1 50 e7 ba d8 86 34 3e e7 42 4b bc 39 c7 5e 3d
       -0.0017647968 0.17629564 -0.0124060875 0.054389212
0002e0 4a 78 93 3e 43 05 9a bd 41 2b 91 3c 37 18 45 bd
       0.2880271 -0.07520535 0.01772082 -0.048118796
0002f0 4a d6 8a bf 94 e6 11 3e 9b 2e 86 bd 60 0a a0 bd
       -1.0846646 0.14248115 -0.06551858 -0.07814479
000300 ed 07 bb 3e da 1d 5f be d5 dd 8a 3e 11 56 c2 3e
       0.36529484 -0.21788731 0.2712237 0.37956288
000310 de 90 15 3e 85 7a 93 3e 34 3e f2 3e 00 35 bb 3e
       0.14606044 0.28804412 0.47313082 0.36563873
000320 1a f1 ad 3e 50 14 44 be ad 1f 18 be 41 26 8c 3d
       0.33973008 -0.19148374 -0.14855833 0.06843234
000330 8c 43 b5 3e a8 85 b6 bd 38 30 f4 bd 62 42 f2 3c
       0.35403097 -0.08912212 -0.119232595 0.02957267
000340 d4 24 75 3e d9 0c 45 be 8c b5 0d be e0 f8 20 3b
       0.2393983 -0.19243182 -0.13838786 0.0024562404
000350 10 00 96 3e 1e 2e a0 3d d5 b9 cf bd 7c 47 22 be
       0.29296923 0.07821296 -0.101428665 -0.15847582
000360 ac ea 51 3e f9 d6 59 3d 1c ea dc be 4d fe aa 3e
       0.20499676 0.05318353 -0.4314736 0.3339714
000370 fc f2 80 3e 18 7b c8 3e 76 27 8c be d1 dc 92 3e
       0.25185382 0.39156413 -0.27373856 0.28684095
000380 1f 3c 07 3d 84 49 46 bd 75 ad 13 bf da 46 46 be
       0.03301632 -0.048409954 -0.5768655 -0.19362965
000390 b0 45 f8 3e 00 15 8d bd 7e d5 86 be 97 6c fc bd
       0.48490667 -0.06888771 -0.26334757 -0.12325399
0003a0 3f f1 02 3e 1c 1a 88 3d 62 ac 2d be 7d 1a 17 bd
       0.1278734 0.06645605 -0.1696029 -0.036890496
0003b0 20 8e 60 3e a3 3b c2 3d ad 52 de bd 48 02 7b be
       0.21929216 0.09484031 -0.10855613 -0.24512589
0003c0 78 bd f7 be 71 6b a5 3e ea 21 39 bd a8 78 01 3f
       -0.4838674 0.32308534 -0.04519836 0.5057473
0003d0 19 4a 47 be 7a d6 be 3e f1 89 f6 3c bb 91 6e 3e
       -0.1946186 0.37273008 0.030095072 0.2329778
0003e0 68 dd ee be 8c 54 3f 3e c9 75 4a 3d c4 e8 06 ba
       -0.46653295 0.18684596 0.049428735 -0.0005146379
0003f0 3d 58 64 3e 12 78 29 bc ca 57 db 3d 29 61 97 3d
       0.22299285 -0.010343568 0.10710104 0.07391579

fc1.bias f4 [256]
000000 e8 01 54 be be 95 8f be 96 98 1f be 1d fb 81 be
       -0.20703852 -0.28043932 -0.1558555 -0.25386897
000010 40 52 55 be 0b 6a e2 be 91 f9 4c bd a9 c9 74 be
       -0.20832157 -0.4422153 -0.050042693 -0.23905052
000020 44 e2 bd be d4 a7 b9 be 43 89 c1 be 3c 59 d5 be
       -0.3708669 -0.36260855 -0.37800035 -0.41669643
000030 b5 85 e0 be 0c 38 21 be f3 0f f9 be bf 64 da be
       -0.4385201 -0.15744036 -0.4864498 -0.42654988
000040 90 bc 14 bf 21 ca 0c bf 07 12 c3 be 2d 9f bf be
       -0.58100224 -0.54995924 -0.3809969 -0.3742613
000050 14 47 a5 be b1 ec 71 be 8c 69 de be 4c 79 87 be
       -0.3228079 -0.23625447 -0.434399 -0.2645973
000060 ae a8 ac bd 48 a8 c7 be 4c 78 72 be a8 0b 9c bd
       -0.084306106 -0.38995576 -0.23678702 -0.07619411
000070 a2 5d 26 be f1 e3 84 be 1e 5e 66 3d 16 63 d8 be
       -0.16246656 -0.25955155 0.0562421 -0.42263097
000080 d4 d5 bc bd d0 92 7d be 51 a9 48 be ca 99 26 3e
       -0.09220472 -0.24763036 -0.19595839 0.16269603
000090 71 bc e2 be d5 ce e6 bd 50 17 b3 be a2 eb 85 be
       -0.44284394 -0.11269919 -0.34978724 -0.26156336
0000a0 4a db c8 be a7 bc 13 be 09 69 ef be 52 b8 b7 bd
       -0.39229804 -0.14427434 -0.46759823 -0.08970703
0000b0 fa 21 64 be 8d d7 70 be d5 d4 ba be df 74 f2 be
       -0.22278586 -0.23519726 -0.36490503 -0.4735479
0000c0 9b 85 a7 be 18 87 00 bf ba 70 9b be d9 41 15 be
       -0.3271912 -0.50206137 -0.3035944 -0.145759
0000d0 08 93 cd be 5d 5d e3 3d 36 d8 bb be 8c d8 c2 be
       -0.40151238 0.11101792 -0.36688393 -0.38055837
0000e0 f0 d3 15 be 8b 6f 30 be 8f 7f 48 be 53 df e1 be
       -0.14631629 -0.1723005 -0.1957991 -0.44115695
0000f0 1d cf 96 bd 1e 9f 55 be a4 bf 86 be fb 88 1e be
       -0.073637225 -0.2086148 -0.26318085 -0.15481941
000100 54 b2 73 be 60 6c 21 be 70 85 b7 be 0a c6 9c be
       -0.23798496 -0.15763998 -0.35843992 -0.30619842
000110 ac 65 02 bf 77 99 94 be 28 9a c6 be 89 ed 73 be
       -0.5093639 -0.29023334 -0.38789487 -0.23821081
000120 e1 bd 10 3d a2 8d c9 be de fe 1a 3e 97 7d 04 bf
       0.035337333 -0.3936587 0.15136287 -0.51754135
000130 77 dc aa be 64 b4 bc be f3 65 04 39 82 b6 04 bf
       -0.33371326 -0.36856377 0.0001262648 -0.51840985
000140 42 98 cc be 55 75 9b bd 3c f3 5c be 0d 89 3d be
       -0.39959913 -0.07590739 -0.21577162 -0.18509312
000150 8b 0c ac be 94 d6 b8 be 7f ca 8e be 9d 14 95 be
       -0.3360332 -0.3610121 -0.27888867 -0.2911729
000160 3d 71 d4 be af 9f cf be 01 9e f4 be 16 1c 49 be
       -0.41492644 -0.40551516 -0.47776797 -0.1963962
000170 ee be 71 be 02 d3 8d be 3b 87 7a be 77 7d 83 be
       -0.2360799 -0.2770005 -0.24465649 -0.2568166
000180 8e 50 b5 be c5 67 5d be b9 b7 5f be 58 01 7c bd
       -0.3541302 -0.21621616 -0.21847428 -0.06152472
000190 f6 9f d9 be c7 ee 5f be e8 de d2 be 8d 94 ed bd
       -0.42504853 -0.2186843 -0.4118569 -0.116005994
0001a0 db 8c b6 be a5 7e 93 be 55 08 01 bf d0 30 92 3e
       -0.3565434 -0.2880756 -0.5040334 0.28552866
0001b0 f5 1f 9a be 1c 53 88 be 95 a3 cf be 8f 3a bf bd
       -0.30102506 -0.26625907 -0.4055449 -0.09337341
0001c0 dc f5 b6 be 58 88 99 be 04 47 ad be e2 bf 8b 3c
       -0.3573445 -0.29986835 -0.33843243 0.01705927
0001d0 40 cd 62 be 77 fd c5 be 98 70 e1 3d ba 68 a9 be
       -0.22148609 -0.3866994 0.11007804 -0.33087713
0001e0 d8 dc 04 be 74 4d 95 be d6 15 ba be 63 f9 e9 bd
       -0.1297487 -0.29160655 -0.36344784 -0.1142452
0001f0 09 7c 4a 3d 62 c4 8a 3d 3e c1 d8 be 89 1c e2 be
       0.049434695 0.06775738 -0.42334932 -0.44162396
000200 c0 11 13 be 77 93 33 bf 07 0c d3 3d 36 d4 65 be
       -0.1436224 -0.7014689 0.103050284 -0.22444233
000210 9c 23 88 be d2 a1 b6 be 92 86 f9 be 72 78 a1 be
       -0.26589668 -0.35670334 -0.48735482 -0.31537205
000220 78 6b 57 be 90 a2 72 be f6 30 93 be 98 f9 98 be
       -0.2103709 -0.23694825 -0.28748292 -0.29877925
000230 51 f5 8c be 19 ce 1c be e6 fc 87 be 67 f7 f1 bd
       -0.27530912 -0.15312995 -0.26560134 -0.118147664
000240 ab 9c d6 be 30 c4 75 bc 2d b8 ed be 66 54 8e be
       -0.41916403 -0.015000388 -0.46429577 -0.27798766
000250 65 99 d0 be d8 3d 1d bf 2b 9a fd be ee 26 04 bf
       -0.4074203 -0.6142249 -0.49531683 -0.516219
000260 11 dc 15 3d 1a ec f2 be 34 1d 21 bf 79 58 a3 be
       0.036586825 -0.47445756 -0.62935185 -0.31903437
000270 aa 07 b6 be d7 59 08 bf 76 c2 c3 bd 05 08 28 be
       -0.35552722 -0.53262085 -0.09558575 -0.16409309
000280 de bc 4c 3e bb e2 82 be 9f 32 a1 be b3 84 8a be
       0.19993922 -0.25563607 -0.31483933 -0.27054366
000290 54 f5 95 be 93 e7 cc 3d f2 2e a9 be e5 f8 3a be
       -0.29288733 0.10005107 -0.3304363 -0.18259008
0002a0 1a c0 03 bf 1a e7 a9 be d0 8e 6c 3e 86 00 b9 be
       -0.51465 -0.3318413 0.23101354 -0.36133212
0002b0 25 19 cc be 76 46 80 be b5 94 ce bd ee 8f 4d 3d
       -0.39862934 -0.25053757 -0.10086957 0.05018609
0002c0 d4 41 07 be 35 db ae be 36 be 76 be 4f e2 31 be
       -0.13208705 -0.34151617 -0.24095997 -0.17371486
0002d0 79 2c aa be c7 e2 a0 bd f1 d0 1f be 17 c8 ef 3d
       -0.33237055 -0.07855754 -0.15607049 0.11708086
0002e0 a4 9f 5e be 38 05 c8 be 48 35 c2 be 82 24 2d be
       -0.21740586 -0.39066482 -0.37931275 -0.16908458
0002f0 09 27 92 be c6 c7 8b be cd a3 49 be 24 68 70 be
       -0.28545406 -0.27300853 -0.19691391 -0.23477226
000300 9f 04 af be ce e6 e5 bc 58 0f 2a be 33 b7 11 bf
       -0.34183213 -0.028064158 -0.16607416 -0.56920165
000310 43 69 d6 be e9 cc 84 be ee 4f bc 3e 8c 8a 1e bd
       -0.41877183 -0.25937584 0.36779732 -0.038706347
000320 ca eb 3b be 7c 75 a1 be d4 ea 11 bf a7 42 5d be
       -0.18351665 -0.31534946 -0.56998944 -0.21607457
000330 e1 7d a4 be fb 8e 31 be 50 ce b4 be 16 5c 3a be
       -0.32127288 -0.17339699 -0.35313654 -0.1819919
000340 67 22 79 be 10 ea 22 be e0 8d c7 be 8a 7c c0 be
       -0.2432953 -0.159096 -0.3897543 -0.37595016
000350 22 35 d6 be 48 de 4e be f3 ab d0 be ae 46 bc 3d
       -0.41837412 -0.20201981 -0.40756187 0.091931686
000360 e9 84 cd be 1f 3a 75 be c4 31 9c be 04 3f 43 be
       -0.40140465 -0.23947953 -0.30506718 -0.19067007
000370 84 7b dc be 37 12 dc bd 74 33 a8 be 72 47 ad be
       -0.43062985 -0.10745662 -0.32851756 -0.3384357
000380 e9 76 a1 be c5 51 27 be ca 92 8b be f4 0a 03 bf
       -0.31536034 -0.16339786 -0.2726043 -0.5118859
000390 40 66 ef bd 62 f9 54 be b5 22 0b bf d3 a1 b0 bc
       -0.116894245 -0.20798257 -0.54349834 -0.021561539
0003a0 8f 76 87 be bf fc bc be 9a 27 3f bd 89 c1 0f bd
       -0.2645764 -0.3691158 -0.046668626 -0.03509668
0003b0 af da 31 be 21 f8 5d be c2 4a a6 be 07 5b d8 be
       -0.17368577 -0.21676685 -0.3247891 -0.42256948
0003c0 49 c5 0e be 73 65 c9 be aa bc 26 be 2c 11 66 be
       -0.13942446 -0.39335212 -0.16282907 -0.22467488
0003d0 cc 32 82 be ac ae d8 be 90 7c c1 be 70 78 df be
       -0.2542938 -0.42320764 -0.37790346 -0.43646574
0003e0 68 33 b2 be b8 16 ac be 87 e8 06 be 18 d1 85 be
       -0.34804845 -0.33611083 -0.1317464 -0.26136088
0003f0 1f 11 67 be 9e d7 bd be 50 a1 f8 be 2f 23 ca be
       -0.22565125 -0.37078565 -0.48560572 -0.39479968

bn2.weight f4 [256]
000000 e4 74 21 3f 6e 7c ab 3e 78 18 d2 3e c7 59 5d 3f
       0.63068986 0.3349337 0.41034293 0.86465114
000010 a7 63 1c 3f c5 fe 3a 3f 3a b1 58 3f 2d 8b 51 3f
       0.6108956 0.73045 0.84645426 0.8185299
000020 d5 15 43 3f 75 a1 fe 3e e3 2d 20 3f ec be 67 3f
       0.7620519 0.49732557 0.6257002 0.905257
000030 f0 18 26 3f cd e7 69 3e c0 39 15 3f 13 1d 15 3f
       0.648818 0.22842331 0.58291245 0.5824749
000040 ac 17 34 3d 1b 67 30 3f 90 3f 32 3f 92 97 d8 3e
       0.043967888 0.68907326 0.6962824 0.4230314
000050 b4 39 2d 3f 0a bc 62 3f 77 fa b7 be 42 c0 7e 3e
       0.67666173 0.88568175 -0.35933277 0.24878028
000060 1a b8 24 3e 3a 67 66 3f f2 f0 48 3f 5e 2f c4 3e
       0.16085854 0.9000126 0.78492653 0.38317388
000070 11 7b 2a 3e fb 4f 7f 3f e4 c9 29 3f 3e 21 29 3f
       0.16648509 0.99731416 0.66323686 0.6606635
000080 17 33 94 3e 4c 93 0d 3f 62 ed 48 3f 98 03 cf 3e
       0.28945228 0.5530288 0.7848722 0.4043243
000090 c2 84 16 3f a6 a1 79 3f fc 37 4f 3f 32 ab 3e 3f
       0.5879632 0.9751228 0.809448 0.74479973
0000a0 8d 20 2a 3f ef 0a 4d 3f 4e 5f 0a 3f 86 78 15 bf
       0.6645592 0.8009481 0.54051673 -0.5838703
0000b0 7a 65 57 3d fb 34 50 3f ce 81 d8 3e 5f c8 29 3f
       0.05258701 0.8133084 0.42286533 0.6632137
0000c0 93 03 0d 3f 50 f8 19 3f b3 47 5b 3f 39 da 03 3f
       0.5508358 0.6014452 0.8565628 0.51504856
0000d0 49 a1 bc 3e e4 9c 83 3e 97 93 06 bf 5d c2 7c 3e
       0.368418 0.25705636 -0.52568954 0.24683519
0000e0 df 3d 82 3e 8c b3 3b 3f 40 b3 69 3f 51 07 3f 3f
       0.2543783 0.7332084 0.9128914 0.7462054
0000f0 e0 81 0a 3f 5a c6 f6 3e 73 1f a3 3e 04 df 84 3f
       0.54104424 0.48198205 0.3185993 1.0380559
000100 1c 2b 3a 3d c3 de 43 3e a8 f3 10 3f 8d fe e0 3e
       0.04545127 0.19127946 0.5662179 0.43944207
000110 70 a5 c9 be 5f 62 3e 3f e7 51 55 3f 5b b8 ba 3d
       -0.3938403 0.7436885 0.833281 0.09117194
000120 e4 d6 b8 be 4f 2e c9 3e 9c 93 12 3e ac 3c 07 3f
       -0.3610145 0.39293143 0.14314121 0.5282695
000130 07 43 5f 3f 60 a1 15 3f 10 63 92 3e 4e 3b 89 3e
       0.8721165 0.58449364 0.28591204 0.26803058
000140 28 e4 45 3f 0b 5b 40 3f 27 87 4b 3f e2 e7 cb 3e
       0.77301264 0.7513892 0.795031 0.3982535
000150 85 9c b8 3e 4c 14 40 3f 78 ea 01 bf d8 05 70 3f
       0.36056915 0.7503097 -0.50748396 0.93758917
000160 d5 a0 d1 3e 8b 4a 22 3f 66 41 41 3f f3 b5 d5 3e
       0.40943018 0.63394994 0.75490415 0.4174038
000170 2f d2 19 bf ca f2 33 3f 4c eb 42 3f bb cb c6 be
       -0.6008634 0.7029234 0.76140285 -0.3882731
000180 c2 5a bc 3e 52 5f fa 3e 69 78 ec 3e 2b b8 02 3f
       0.36787993 0.4890085 0.46185616 0.5106227
000190 5e 45 df 3e e2 6a 11 3f 2f 71 74 3f 21 c0 c0 3e
       0.4360761 0.56803715 0.95485204 0.37646583
0001a0 6e c1 07 3f df 94 64 3e 2d 21 20 3f 56 84 cc 3e
       0.53029525 0.22322415 0.6255062 0.39944714
0001b0 d2 a1 59 3f df 1b 20 3f 44 9c 68 3e 97 ad 1e 3f
       0.85012543 0.6254253 0.2271586 0.6198363
0001c0 62 72 67 3f 84 f4 47 3f 5b 78 44 3f 4c fd e4 3e
       0.9040891 0.78107476 0.7674615 0.447245
0001d0 a3 cd 4f 3f d4 df 0a 3f fd e5 0f bb 16 d2 ba 3e
       0.8117315 0.54247785 -0.0021957152 0.36488408
0001e0 9f c5 11 3f df 5a 74 3e e2 3f d2 3e 3c d1 db 3e
       0.5694217 0.2386279 0.41064364 0.4293307
0001f0 c3 94 54 3f e0 7b 1f 3f 26 5b 00 3f 87 13 26 3f
       0.8303949 0.62298393 0.5013908 0.64873546
000200 4e 92 c1 3e f6 be 0d 3f 9b 32 6e 3f 90 09 fa 3e
       0.37806934 0.5536951 0.9304597 0.4883542
000210 80 9f de 3e e5 c4 4c 3f 69 00 4a 3f f8 03 7d 3e
       0.43481064 0.7998794 0.78906876 0.24708545
000220 7d a4 04 3f 3e 0e 2f 3f 1d 6f 2d 3f 62 6d 07 be
       0.5181349 0.68381107 0.6774767 -0.1322532
000230 7f 7f 73 3e bb 4d 1c 3f 21 5b 2e 3f 86 67 07 3f
       0.23779105 0.6105611 0.681078 0.5289234
000240 ad 22 f0 3e 6e 4f 9c 3e 3f 05 25 3f 59 7e e5 3e
       0.46901456 0.3052935 0.6446113 0.44822958
000250 90 d0 5d 3f 3c 69 16 3f 8f 31 f3 3e a2 bf 07 3f
       0.86646366 0.58754325 0.47498748 0.53026783
000260 3b b7 1d 3f bc 59 cd be 04 08 e4 3e df 0f 32 3f
       0.6160771 -0.40107524 0.44537365 0.6955547
000270 b4 66 1e 3f 5a 76 10 3f 62 c1 ed 3e ca 71 26 3f
       0.6187546 0.5643059 0.46436602 0.6501738
000280 d1 6c e9 3d f5 5c ff 3e be 37 55 3f cf 7d f8 3e
       0.11397708 0.49875608 0.8328818 0.48533484
000290 75 04 51 3f 84 ff a6 3e db a4 4c 3f 47 04 10 3c
       0.81647426 0.32616818 0.7993905 0.008790082
0002a0 7f 8b dd 3e eb 15 15 3f 8b 04 b0 3e d9 c6 e5 3e
       0.4327049 0.5823657 0.34378466 0.4487827
0002b0 b1 82 40 3f 52 2d fe 3e f6 f0 8f 3e 3b 66 96 3d
       0.7519942 0.49643952 0.28113526 0.07343718
0002c0 82 35 26 3f a7 b2 16 3f f5 ce 09 3f e1 3d 56 3f
       0.64925396 0.5886635 0.53831416 0.8368817
0002d0 a8 9f 1b 3f 93 94 33 3f 0c 20 a0 3e 63 fa a9 3f
       0.6079049 0.7014858 0.3127445 1.3279537
0002e0 3d fe e9 3e 5c b9 0a 3f 23 9c dc 3e 85 de 42 3f
       0.4570178 0.54189086 0.43087873 0.7612079
0002f0 fc 94 19 3f 58 fb 00 3f 6c 80 6a 3f 3a 9b c2 3e
       0.5999296 0.5038352 0.91602206 0.38009053
000300 b4 8b 51 3f d6 0b 56 bd 94 76 2f 3f 3d 68 27 3f
       0.81853795 -0.05225738 0.6854031 0.6539343
000310 cb 9e 10 3f c7 38 1b 3f 51 08 bf bc ad 8b 08 3f
       0.564923 0.6063351 -0.023319395 0.5333813
000320 92 33 2d 3f 25 de 92 3f 94 06 fb 3e a3 61 69 3f
       0.67656815 1.1474043 0.49028456 0.91164607
000330 63 7e f8 3e 05 77 0b bf c9 d7 51 3e d9 46 4d 3f
       0.48533925 -0.54478484 0.20492472 0.8018623
000340 18 88 24 3f b8 2f 19 3f f7 ef 88 3f a1 bf 45 3f
       0.6427016 0.5983844 1.0698231 0.7724553
000350 74 25 ea 3e 02 83 da 3e ed 37 9f 3e 27 52 ef 3e
       0.457317 0.42678076 0.31097355 0.46742365
000360 6b 8a 2c 3f 69 88 42 3f bd b1 01 3f 0d 34 27 3f
       0.6739871 0.75989395 0.5066183 0.653138
000370 23 ad 9c 3f ff cb 67 3f 7f 0a 10 3f 7a 25 58 3f
       1.2240337 0.9054565 0.56266016 0.84432185
000380 a4 51 e2 3e 92 66 02 3f 1d 63 fd 3e 56 c8 3e 3f
       0.44202912 0.5093776 0.4948968 0.7452444
000390 e4 7e 5e 3e 06 6b 75 3f 97 c5 38 3f 60 e5 47 3f
       0.21728092 0.9586643 0.721765 0.78084373
0003a0 f6 0f 72 3f f5 d3 e1 3e 8e 97 d5 3e 5a 31 19 3f
       0.94555604 0.44107023 0.4171719 0.5984093
0003b0 8e f9 11 3f 41 05 89 3e 71 de 5b 3f e3 cc c5 3e
       0.57021415 0.2676182 0.85886294 0.3863288
0003c0 a0 34 d5 be 8d a2 2a 3f 85 a4 81 3f 45 c7 19 3f
       -0.41641712 0.6665428 1.0128332 0.60069686
0003d0 f6 91 49 bf 62 46 3a 3f 5f 49 0f 3f 3f d7 21 3f
       -0.78738344 0.72763646 0.5597133 0.63219064
0003e0 89 a5 15 3f 7f 85 7a 3f 21 f8 a4 3e 10 6f 05 3f
       0.5845571 0.9785995 0.32220557 0.5212259
0003f0 f7 dc 4e 3f a2 ad e0 3d da c8 0c 3f 1b 48 85 3f
       0.80805916 0.10970618 0.54993975 1.041263

bn2.bias f4 [256]
000000 6a 73 0d 3e 4b 59 e9 bb b6 e4 17 3e 2a d3 ac 3e
       0.13813558 -0.0071212403 0.1483334 0.33754855
000010 74 2b 8b bb 8d 34 99 3e 50 58 20 be ca 1b 08 be
       -0.0042471234 0.29922906 -0.15658689 -0.1329185
000020 4a 16 cb 3e 6a e6 e9 3d 65 ce 5d 3e 1a f3 92 3e
       0.39665443 0.11420901 0.21660765 0.28701097
000030 ca b1 23 3e 96 ed 8f 3e 05 cf 66 3e 3b 7e 26 3e
       0.1598579 0.2811095 0.22539909 0.1625909
000040 1f bc 0e be 15 0d e3 3d bd 09 49 3e 49 28 4b ba
       -0.1393895 0.110864796 0.19632621 -0.00077498384
000050 eb 4a b3 3e f7 ae c2 3e 45 7b cb be e8 3d 3e 3d
       0.35018095 0.38024113 -0.39742485 0.046445757
000060 83 8a 6c 3e ff 9b 05 3e ab b2 0d 3e d0 63 37 3e
       0.23099713 0.13047789 0.13837688 0.17909169
000070 82 6f 92 be 85 f8 96 3b 4b 86 14 3e 8f 4d 19 bd
       -0.286007 0.0046072626 0.14504354 -0.03742748
000080 c2 8f aa 3c 92 b4 70 3e 17 92 24 3c 0d c7 67 bd
       0.020820502 0.23506382 0.010044596 -0.056586314
000090 f3 dc 86 3d e7 2e cf 3e 5d c0 7b 3e f4 c7 40 3f
       0.065851115 0.4046547 0.245851 0.75305104
0000a0 d1 ea b4 bd ee f5 3b be bf 2c 56 3e 20 1e 24 be
       -0.0883385 -0.18355533 0.20915507 -0.16027117
0000b0 a8 62 35 bc 01 13 04 bc 92 42 fa b8 d2 5b 8a 3e
       -0.011070885 -0.0080611715 -0.00011933329 0.27023178
0000c0 fc c3 89 3e 9d b7 b0 3e 02 dd a4 3e 48 bb 96 3e
       0.26907337 0.34515086 0.32199866 0.2943976
0000d0 a8 86 63 3e 1b 99 c7 3d 2a 01 d1 bd ac cc f6 3d
       0.22219336 0.097459994 -0.102053 0.12050757
0000e0 53 56 6a bc 58 0e c3 3e 72 c6 3c 3f 3d df 6f 3e
       -0.014302808 0.3809688 0.73740304 0.23425002
0000f0 e9 ff a7 3e c2 3c 22 3f fa 94 3b be 67 69 07 3f
       0.3281243 0.6337396 -0.18318549 0.52895206
000100 5d a8 f4 3d 99 fb 25 3d f4 a2 2f 3e 4e 49 2a 3e
       0.11946175 0.040523145 0.17152005 0.16629526
000110 78 77 b3 bd be c5 b9 3e 32 8e c5 3e bc a2 6e bc
       -0.08763021 0.36283678 0.3858505 -0.014565166
000120 c6 f0 1c be 9d 17 e4 3d d5 09 a4 3d cb ec 3e 3e
       -0.15326223 0.111373164 0.08009688 0.18645017
000130 bc d2 a0 3e 81 e4 4a 3e 48 66 83 3e ef 2a d8 3c
       0.31410778 0.1981373 0.25663972 0.02638766
000140 b4 aa af 3e f0 cf 9f 3e 55 00 a1 3e a4 94 06 3e
       0.34309924 0.3121333 0.31445566 0.1314264
000150 2f bb 00 3e 83 f2 4b 3e 96 fa 83 be 43 c2 22 3c
       0.12571405 0.1991673 -0.2577712 0.009934011
000160 d5 1f b4 3e 01 ed d5 3d 3a 70 6c 3e fa 68 01 3b
       0.35180536 0.104455955 0.23089686 0.0019746409
000170 6d 4a 9c be d2 13 15 3c ff 80 1c 3f 5e ea 73 be
       -0.30525532 0.009098964 0.6113433 -0.23819873
000180 e4 09 ea 3e 20 4a 8a 3d 88 26 c3 bd c5 1b 9e 3e
       0.4571067 0.067524195 -0.09528834 0.3088056
000190 8d 3e 7a 3e 9e 59 ab 3d 8c 12 c1 3e 9c fa af 3d
       0.24437924 0.083667025 0.37709463 0.08592722
0001a0 d2 d5 f7 3d 51 7e 96 bc 3e 7b 16 3e b8 26 b3 3e
       0.1210133 -0.01837078 0.1469545 0.34990478
0001b0 79 c5 40 bc 15 a9 f8 3e b2 47 99 3c f5 ad 59 3e
       -0.011765831 0.485665 0.018710945 0.21257766
0001c0 ba ab 60 3e 36 60 32 3e 72 62 59 3e 2e 3b 29 3e
       0.21940508 0.17419514 0.2122896 0.16526482
0001d0 90 72 d1 3e da c3 78 3e 87 78 4f bc 8b 11 53 bc
       0.40907717 0.24293461 -0.012663013 -0.012882601
0001e0 cc 3f 97 3e 2d 6c af bb 02 9b 56 be 13 fa 83 3e
       0.2954086 -0.0053534717 -0.20957568 0.2577673
0001f0 ed ef 6c be 48 92 07 3e 35 82 20 3d b8 a4 22 3e
       -0.231384 0.13239396 0.039186675 0.15883148
000200 56 16 b1 3e 0d 82 c8 3d 89 67 96 3e 33 42 86 3d
       0.34587353 0.0979043 0.29375866 0.06555595
000210 8b c1 54 3d 67 f5 c6 3d 1f ab 7b 3e ed 7c cc 3d
       0.05194239 0.097147755 0.24576996 0.09984765
000220 c7 ca f4 bb 29 78 d2 3e 3a 65 11 3e 14 6d 4b ba
       -0.007470462 0.411073 0.14198771 -0.00077600894
000230 28 23 15 3c 09 df 81 3e c7 c3 5a 3e b4 54 a6 3d
       0.00910262 0.25365475 0.21363746 0.081216246
000240 dd 67 65 3e a5 dc 4c 3d 1f f1 5c 3e 99 da 5f 3e
       0.22402902 0.05001511 0.21576355 0.21860732
000250 17 b6 b1 3e d5 09 f3 3d c1 d7 ed 3d 7e de 83 bd
       0.34709236 0.1186711 0.116134174 -0.064389214
000260 c8 ae 25 3e 81 22 61 bd 6d e5 5a 3d 69 5c 7c 3e
       0.16179955 -0.054964546 0.053441454 0.24644627
000270 bb a3 fa 3e 28 a2 3c 3e bb 05 bb bd f1 8a be 3e
       0.4895304 0.18421233 -0.091319524 0.3721538
000280 ff 96 89 3d 8a b5 41 3e 28 5b f2 3e 77 87 b8 3e
       0.06718253 0.18916908 0.47335172 0.3604085
000290 19 28 ce 3e 65 e8 cf 3d 6f 40 f6 3d 38 82 2c 3c
       0.40264967 0.101517476 0.120240085 0.010529093
0002a0 14 a7 96 be 8f d4 f4 3e 46 81 20 3e ab cb 2c bc
       -0.29424345 0.4781842 0.15674314 -0.010546605
0002b0 9f dd b3 3e 15 31 18 3e c8 26 65 bd c2 90 47 bc
       0.3513002 0.14862473 -0.055945188 -0.012180509
0002c0 fb 1d a0 3d f2 45 37 3e f0 46 da 3d 4b a3 96 bb
       0.07818218 0.17897776 0.106580615 -0.0045971028
0002d0 04 c5 94 3e 5f 2e 92 3e 53 74 32 3b 3f 2b b9 bb
       0.2905656 0.28551003 0.002722998 -0.0056509073
0002e0 4d a4 da 3e 35 c5 cb 3e a7 92 62 3e fa c6 d2 3e
       0.42703477 0.39798895 0.22126256 0.41167432
0002f0 da 84 6a 3e 8e 65 86 bc 17 64 ff 3e 5c f1 38 bd
       0.22902241 -0.016405847 0.4988105 -0.045152053
000300 0c 1e bf 3e 03 6f 3e bd 7e 55 b3 3e 59 bc 04 3e
       0.3732761 -0.046492588 0.35026163 0.12962474
000310 02 8d cd 3e 72 2c 48 3e 23 09 04 3d a2 7e 00 3f
       0.40146643 0.19548205 0.032235276 0.50193226
000320 50 ec ce 3e ad 2f ee 3e d1 89 57 ba ca 8c d0 3e
       0.40414667 0.4652075 -0.00082221354 0.40732414
000330 45 97 8f 3e 2b 45 74 be 6a 6b 38 3c 9f 14 9a 3e
       0.28045097 -0.2385451 0.011256078 0.30093858
000340 21 6f dc 3d ce 76 76 bc db c8 0c 3f cb 4d 31 3e
       0.10763384 -0.015042974 0.5499398 0.17314832
000350 27 d4 8f 3e a3 f1 9e 3e 75 76 45 be 92 9d 48 3e
       0.28091547 0.3104373 -0.19283469 0.19591358
000360 77 9f 8a 3e fc e0 14 3f 29 7f fb 3d e4 19 84 bd
       0.27074787 0.581558 0.12280113 -0.06450251
000370 cd 4e 8f 3e 9b a9 b1 3e d2 d4 1b 3e 34 d6 ec 3e
       0.27989808 0.3469971 0.15217903 0.46257174
000380 15 f3 9e 3d 88 86 28 3e 26 58 db 3d 1b 1e 3c 3d
       0.07761208 0.1645757 0.10710172 0.04592715
000390 1c 30 5b 3e 7d 00 ae 3e 22 c6 97 3e f2 b1 8e 3e
       0.21405071 0.33984748 0.2964335 0.27870136
0003a0 0f 7f a4 3e 47 40 21 3c 96 94 a3 3e b1 77 92 3e
       0.32128188 0.009841985 0.319493 0.28606942
0003b0 6d 73 36 3e eb b6 46 39 0e 9e 5c 3e 82 ca 2d 3d
       0.17817469 0.00018950894 0.21544668 0.042429455
0003c0 71 4a c5 be 95 51 34 3e 11 a3 2d bb bc 74 17 bc
       -0.38533357 0.17609246 -0.00264949 -0.00924414
0003d0 ad 8f ee be 65 83 05 3e db 60 a4 3e 0c 34 95 3e
       -0.4659399 0.13038404 0.32105145 0.2914127
0003e0 ab 00 af 3d f5 2b 13 3f b1 31 b8 be d8 9a bb 3b
       0.08545049 0.5748895 -0.35975412 0.005725246
0003f0 ee f6 ab bb 8b a5 c3 bc c1 36 a6 3e a0 1a cc 3e
       -0.005247942 -0.023882648 0.3246365 0.39864063

bn2.running_mean f4 [256]
000000 34 57 b0 3d 04 00 00 00 c0 86 52 3e d0 37 b9 3d
       0.08610383 6e-45 0.20559216 0.090438485
000010 04 00 00 00 c6 5a c3 3d 6e ff d9 3e 51 dc ba 3e
       6e-45 0.09538798 0.4257769 0.36496213
000020 22 20 9c 3d de b7 45 3c 3e 3b 1d 3e 84 53 48 3d
       0.07623316 0.012067763 0.1535463 0.04890777
000030 93 06 02 3d 83 78 65 3c 5d 04 18 3d 52 06 04 3d
       0.03174455 0.014005783 0.037113536 0.03223259
000040 9e f8 31 3a 0e 2f 0a 3d 14 74 1c 3d 04 00 00 00
       0.0006789061 0.03373628 0.03819664 6e-45
000050 b8 3a 78 3d 7d c6 6e 3d 01 f1 4a 3d f8 53 ba 3d
       0.060602874 0.058294762 0.049546245 0.09098047
000060 d3 7b 73 3e 9c 58 44 3d 5d 5e 83 3d 75 a0 30 3e
       0.23777704 0.047936067 0.06414483 0.1724871
000070 04 00 00 00 04 00 00 00 6b 65 24 3f 5e b6 a4 3c
       6e-45 6e-45 0.6421725 0.02010649
000080 2f a5 16 3d f7 54 7a 3e 04 00 00 00 7c 01 ca 3d
       0.036778625 0.24446474 6e-45 0.09863564
000090 73 a0 66 3d dd 7c 37 3d f7 65 6a 3d 97 7f b7 3e
       0.05630536 0.044796813 0.057226148 0.3583953
0000a0 f0 0d 67 3d 04 00 00 00 77 54 a9 3c cc a5 59 3d
       0.056409776 6e-45 0.020670159 0.05313663
0000b0 04 00 00 00 04 00 00 00 62 f2 6c 3d f5 74 08 3e
       6e-45 6e-45 0.05784834 0.13325866
0000c0 77 8c d2 3d bc 4c b9 3b ba 0d 36 3d f0 7a bf 3d
       0.10280698 0.0056548994 0.044446684 0.0934962
0000d0 11 49 04 3d 10 1a b3 3e b3 1b d0 3c 4e a6 e2 3d
       0.032296244 0.34980822 0.025403833 0.11066876
0000e0 04 00 00 00 cc 5d 3b 3e cc 3c cb 3e e0 ba b6 3d
       6e-45 0.182975 0.39694822 0.08922362
0000f0 a1 a8 6e 3e 69 ff c7 3d fd 9a 01 3c de fe a7 3d
       0.23306514 0.097655125 0.007910487 0.08202909
000100 1f eb 36 3e 9f 22 0e 3e be 61 0f 3d e3 19 a5 3d
       0.17863129 0.13880394 0.035005324 0.08061578
000110 51 fb 91 3c 2c 5a d2 3c 35 b8 16 3d 04 00 00 00
       0.017820032 0.025677763 0.036796767 6e-45
000120 36 d1 4b 3e cd 76 21 3e dc 4f 92 3e 29 90 f0 3c
       0.19904026 0.15767975 0.28576553 0.029365616
000130 fa d4 61 3d 8a cb 22 3d c9 4a 5c 3e 97 23 a8 3c
       0.05513475 0.03974489 0.21512903 0.020524783
000140 6d 08 b2 3d 17 55 b1 3d aa 3b 84 3d 4f 07 ef 3d
       0.08693013 0.08658808 0.064566925 0.11671316
000150 96 4c f2 3c cd b8 a4 3d f3 5c ed 3c 04 00 00 00
       0.029577535 0.080430605 0.028974986 6e-45
000160 99 94 ed 3d 61 8d 24 3e 77 04 b4 3b a7 70 96 3d
       0.116006084 0.16069557 0.0054936963 0.073457055
000170 c1 84 98 3d 04 00 00 00 32 7e a1 3e e5 a7 15 3e
       0.07447196 6e-45 0.31541592 0.14614828
000180 c9 7e 09 3c e1 6e 24 3d 4f d0 a1 3d 45 27 f4 3d
       0.008392044 0.040144805 0.0790106 0.119215526
000190 3e 94 09 3d fe 34 97 3c d3 44 4d 3d cb ef 89 3d
       0.03358864 0.018457886 0.050114464 0.0673519
0001a0 c3 4b ec 3d 04 00 00 00 86 48 c7 3d 1d 9f 11 3f
       0.11537888 6e-45 0.097306296 0.5688341
0001b0 04 00 00 00 1d cb 82 3d 4c fb 19 3b b6 8d 66 3d
       6e-45 0.06386397 0.0023495732 0.05628749
0001c0 23 1c 86 3d ba f2 0d 3d 0c 96 3a 3d ec 50 a6 3e
       0.065483354 0.03465531 0.045553252 0.32483613
0001d0 6c 2f e4 3c 5a 6f d6 3d 88 b3 ca 3e a6 c4 07 3d
       0.027854644 0.104704574 0.39590096 0.033146523
0001e0 c5 02 4e 3e 04 00 00 00 b4 2d 1a 3d 4d 14 71 3e
       0.20118244 6e-45 0.037641242 0.235429
0001f0 07 f0 0a 3f 23 a7 af 3e be 60 28 3b 62 6b a4 3c
       0.542725 0.34307203 0.0025692428 0.020070735
000200 e1 b4 d9 3d 6c 34 2a 3c 60 ac 54 3e e6 48 94 3c
       0.10630203 0.010388475 0.20768881 0.018101167
000210 74 52 43 3d a4 af 1c 3d bb 2a a7 3c de 4f 03 3d
       0.047686055 0.03825344 0.020406118 0.03205859
000220 04 00 00 00 29 d4 09 3e 60 85 cb 3d c1 f6 46 3d
       6e-45 0.13459839 0.09937549 0.048575167
000230 04 00 00 00 d0 07 a0 3d 2a 1d b4 3d 7b 20 c7 3d
       6e-45 0.0781399 0.08794625 0.09722992
000240 9c 2b 01 3d a7 b3 ca 3e 59 59 d2 3c 42 d1 25 3e
       0.03153573 0.3959019 0.02567737 0.16193107
000250 85 1d 23 3d d7 9b 68 3c c7 40 d4 3c ac 4c ef 3c
       0.039823074 0.014197311 0.025909794 0.029211365
000260 f6 4e 9c 3e 32 fb 7a 3a 3f 63 f1 3b 51 e5 3b 3d
       0.30528992 0.0009574174 0.0073665674 0.04587299
000270 31 9b 19 3e 17 b9 1f 3d a7 af 10 3e 02 21 1b 3e
       0.15000607 0.038994875 0.14129506 0.1514931
000280 4c 3b a9 3e fe 4e ac 3e 8e bb 22 3e ea 2d 5f 3e
       0.33053052 0.33654016 0.15891859 0.21794859
000290 27 81 6f 3d a2 86 2d 3f 4e 3c de 3d 75 bb 44 3e
       0.05847278 0.6778356 0.10851346 0.19212134
0002a0 bd c0 cd 3c 13 1a b8 3c dd 06 a7 3e 04 00 00 00
       0.025116319 0.02247337 0.32622424 6e-45
0002b0 77 62 f2 3d e4 d8 df 3d 3e 85 86 3e e0 cc bd 3e
       0.11835187 0.109300405 0.2627353 0.3707037
0002c0 04 cc 78 3e fd c0 86 3d a8 e5 22 3e 04 00 00 00
       0.24296576 0.06579778 0.1590792 6e-45
0002d0 9c 73 5d 3c 7c 59 88 3d 04 00 00 00 b6 b3 c9 3d
       0.013516333 0.06657693 6e-45 0.0984873
0002e0 ba 82 80 3e 04 c9 9b 3d e8 a6 c2 3c 1d 1f 2d 3e
       0.25099736 0.076067 0.023761228 0.169064
0002f0 ba 70 66 3d a5 f3 0c 3e 92 81 f3 3d 04 00 00 00
       0.05625985 0.13764818 0.11889948 6e-45
000300 5b a6 f4 3c 0e 9a 27 3e aa 44 d0 3d 06 a4 83 3c
       0.02986448 0.16367361 0.10169347 0.016069423
000310 65 37 52 3d ef f6 d7 3d cb 7b 3a 3f 82 0e a8 3e
       0.05132236 0.10545146 0.72845143 0.3282357
000320 1f 78 9d 3e f8 92 0d 3e 04 00 00 00 b1 71 36 3e
       0.30755708 0.13825595 6e-45 0.17816807
000330 2a e4 e1 3d 8b ae 1e 3e 1e 18 c7 3c e8 b0 67 3d
       0.11029847 0.1549627 0.024303492 0.056565195
000340 36 34 c9 3d 04 00 00 00 c2 e8 8b 3d 25 a7 1d 3d
       0.098244116 6e-45 0.068315044 0.03848948
000350 13 c9 90 3e e5 f6 40 3d 2d 31 82 3e e0 fa b3 3e
       0.28278407 0.047110457 0.25428143 0.3515234
000360 15 09 34 3d 26 ee 80 3e eb fb 6a 3d 04 00 00 00
       0.043953974 0.25181693 0.057369154 6e-45
000370 c0 e9 aa 3d 76 c9 7c 3d 49 8d 22 3e 5a 49 1c 3d
       0.083453655 0.061715566 0.15874209 0.03815589
000380 5c 2c df 3c 5f c0 ab 3e a9 1a 85 3d e7 d5 cc 3d
       0.027242832 0.33545205 0.06499226 0.10001736
000390 d0 8b 17 3e 25 f9 71 3d ad 90 1e 3e 62 03 ce 3d
       0.14799428 0.059075493 0.15484877 0.10059239
0003a0 11 2d aa 3d 04 00 00 00 22 49 a2 3e 8f f8 ce 3d
       0.08309377 6e-45 0.3169642 0.101060025
0003b0 fc 9d a2 3e 04 00 00 00 24 fd ea 3c 35 14 4b 3d
       0.31761158 6e-45 0.02868516 0.049579818
0003c0 08 0a 29 3e 0a dc f8 3d 04 00 00 00 04 00 00 00
       0.16507733 0.12151344 6e-45 6e-45
0003d0 3d 2a 92 3d a5 68 2f 3d 1e a6 6f 3d 4c fa 47 3d
       0.071369626 0.042824406 0.05850803 0.048822686
0003e0 fe a6 21 3d 6b be 08 3e b2 1a 34 3e 04 00 00 00
       0.039465897 0.13353889 0.17588308 6e-45
0003f0 04 00 00 00 bc 53 74 3d 2a f1 33 3c 1b 95 df 3d
       6e-45 0.059650168 0.010982791 0.109171115

bn2.running_var f4 [256]
000000 c0 5d 4e 3d 04 00 00 00 b8 b6 d4 3d 04 13 60 3d
       0.050382376 6e-45 0.10386413 0.054705635
000010 04 00 00 00 83 e6 4b 3d c2 85 88 3e 28 39 5b 3e
       6e-45 0.04978038 0.2666455 0.21408522
000020 b9 6f 15 3d df 4a 83 3b 0f 4a ad 3d f3 57 8d 3c
       0.0364835 0.004006728 0.08461391 0.017253852
000030 22 6e 90 3c b7 d8 ac 3b 25 87 82 3c 6a cf 38 3c
       0.01763064 0.005274858 0.015933583 0.01127992
000040 96 9e c7 38 17 66 82 3c 81 94 80 3c 04 00 00 00
       9.5185984e-05 0.01591782 0.015695812 6e-45
000050 55 0b b8 3c dc d1 db 3c bc ed 06 3d ed 4e 1e 3d
       0.022466341 0.026833467 0.032941565 0.03864949
000060 e0 75 20 3e 17 4b b0 3c 31 ef 01 3d ed bf e0 3d
       0.15669966 0.02152018 0.03172225 0.10974107
000070 04 00 00 00 04 00 00 00 7e 35 be 3e 59 e8 01 3c
       6e-45 6e-45 0.37150186 0.007928931
000080 5e ce 73 3c c4 76 1c 3e 04 00 00 00 59 b6 21 3d
       0.014880745 0.1527968 6e-45 0.03948054
000090 6c 36 38 3d 4d 78 db 3c 1b 89 06 3d d3 25 74 3e
       0.044973776 0.026790762 0.032845598 0.23842554
0000a0 90 cd 02 3d 04 00 00 00 94 1b 31 3c df 96 c5 3c
       0.03193432 6e-45 0.010809798 0.024119793
0000b0 04 00 00 00 04 00 00 00 8d 23 22 3d b0 5a df 3d
       6e-45 6e-45 0.039584685 0.10905969
0000c0 9b de 78 3d a1 03 f4 3a 85 e2 be 3c 38 79 19 3d
       0.060759168 0.0018616804 0.023301372 0.03746912
0000d0 d9 14 46 3c ca 3d 63 3e d9 72 30 3c ff dd d0 3d
       0.012089931 0.2219154 0.010769569 0.101985924
0000e0 04 00 00 00 5b e5 cb 3d 4f 2e 3b 3e 6f 59 20 3d
       6e-45 0.099558555 0.18279384 0.03914779
0000f0 8b 78 e9 3d ba b6 4c 3d c9 13 0d 3b de c4 0c 3d
       0.11399945 0.04997895 0.0021526685 0.034367435
000100 4b f4 0d 3e 45 c5 07 3e 21 29 8a 3c b3 50 43 3d
       0.13862722 0.13258846 0.016865315 0.047684383
000110 3d cc bc 3b 89 f8 1f 3c 8c 73 ac 3c 04 00 00 00
       0.005761652 0.009763845 0.02105119 6e-45
000120 dd 2a 18 3e fe 98 bd 3d 8b ff fc 3d 2b e9 21 3c
       0.14860101 0.092576966 0.123534285 0.009882252
000130 b2 83 d8 3c 64 70 be 3c f4 cd 2f 3e 35 89 2f 3c
       0.026429985 0.023246951 0.17168409 0.010713865
000140 c6 9e 31 3d fb d5 63 3d 21 02 8c 3d 4a d1 96 3d
       0.04336431 0.05562399 0.068363436 0.073641375
000150 84 af 6c 3c d6 db a8 3d e2 93 6e 3c 04 00 00 00
       0.014446143 0.082450554 0.014561625 6e-45
000160 64 8b b3 3d d1 79 d1 3d 63 68 b6 3a cb 91 f8 3c
       0.08766821 0.10228313 0.0013916608 0.030342957
000170 35 56 12 3d 04 00 00 00 d4 33 3e 3e 5b 12 7c 3d
       0.035726745 6e-45 0.18574458 0.061540943
000180 a0 7b 23 3b 40 4b 56 3c 88 d2 dd 3c e1 2b 7d 3d
       0.0024945512 0.013079464 0.027077928 0.061809424
000190 71 92 57 3c ed 22 ce 3b dd d0 ac 3c 39 18 f7 3c
       0.013157473 0.0062907846 0.021095688 0.030162917
0001a0 24 c5 8c 3d 04 00 00 00 ec b6 98 3d b0 96 6f 3e
       0.06873539 6e-45 0.074567646 0.23397326
0001b0 04 00 00 00 b9 19 08 3d 27 bd d9 39 81 57 d6 3c
       6e-45 0.033227656 0.00041530395 0.026164772
0001c0 4a 43 5d 3d 03 77 46 3c 5c 60 b6 3c 3f 45 03 3e
       0.05401925 0.012113336 0.022262745 0.12819384
0001d0 42 ea 74 3c 71 23 38 3d 72 83 72 3e 91 40 59 3c
       0.01494843 0.044955675 0.23682955 0.013260023
0001e0 e3 8b fe 3d 04 00 00 00 3b bc 84 3c 78 5d e8 3d
       0.12429025 6e-45 0.016203037 0.11345953
0001f0 fa 5b 7c 3e 66 71 c4 3e 92 42 43 3a 05 9c 1b 3c
       0.24644461 0.38367766 0.00074485794 0.009497647
000200 5a 16 4a 3d 75 1b 5b 3b 32 64 b9 3d 14 63 eb 3b
       0.049337722 0.0033433114 0.09052314 0.007183442
000210 65 41 e6 3c f3 2c 4a 3c da aa fb 3b c1 bf 2d 3c
       0.028107354 0.012339818 0.007680279 0.0106048
000220 04 00 00 00 26 27 8d 3d 64 25 5c 3d 02 80 db 3c
       6e-45 0.068922326 0.053746596 0.026794437
000230 04 00 00 00 bc 8b 4a 3d 48 09 42 3d 05 d8 40 3d
       6e-45 0.049449667 0.047372133 0.047081012
000240 51 c1 87 3c e7 5f 31 3e a8 69 0a 3c 98 19 92 3d
       0.016571673 0.1732174 0.008448042 0.07133788
000250 10 31 77 3c 14 bc ad 3b f9 d1 8f 3c 6b fb 50 3c
       0.015087381 0.0053019617 0.017556177 0.012755255
000260 bc be 30 3e 82 5a 91 39 c3 40 ee 3a 13 4d ba 3c
       0.1726026 0.0002772399 0.001817726 0.02274183
000270 a5 05 13 3e 77 65 92 3c 9a be 98 3d 07 a4 8b 3d
       0.14357622 0.017870648 0.07458229 0.06818395
000280 90 dc ba 3e cf 6c 1d 3e 1c ec 8c 3d c6 21 b8 3d
       0.364964 0.15373538 0.06880972 0.08990817
000290 e5 5d 01 3d 37 b7 98 3e d6 0b 78 3d a6 31 07 3e
       0.031583685 0.29827282 0.060558163 0.13202533
0002a0 e4 b1 ec 3b e1 5e 29 3c be 51 b1 3e 04 00 00 00
       0.0072233547 0.010337562 0.34632677 6e-45
0002b0 cb 31 51 3d 94 8b 38 3d 52 72 1f 3e 4a 43 4d 3e
       0.051072877 0.045054987 0.15570953 0.200452
0002c0 9c 5d 04 3e 9a eb 80 3d fa be a9 3d 04 00 00 00
       0.12926334 0.062949374 0.08288379 6e-45
0002d0 f0 47 ab 3b b0 bb 0b 3d 04 00 00 00 20 92 61 3c
       0.0052270815 0.03411454 6e-45 0.013767749
0002e0 ce 43 1b 3e 14 35 59 3d cd 6a 1e 3c ab 69 ca 3d
       0.15162584 0.053029135 0.009669018 0.09883436
0002f0 a5 ec ca 3c c1 7b 88 3d dd 99 85 3d 04 00 00 00
       0.024771044 0.06664229 0.06523488 6e-45
000300 84 7b f4 3c 44 be a9 3d 81 74 2e 3d ab c6 cf 3b
       0.029844053 0.082882434 0.042591576 0.0063408217
000310 bc 76 d4 3c 49 19 3e 3d 0c dd f5 3e ca 37 07 3e
       0.025935523 0.046410833 0.48020208 0.13204876
000320 e2 2a 2b 3e d2 e6 82 3d 04 00 00 00 8e 23 ca 3d
       0.16715577 0.06391682 6e-45 0.09870063
000330 d0 8a 9c 3d 6f 2b c5 3d c3 5f 80 3c b5 b5 d5 3c
       0.07643664 0.09627425 0.015670663 0.026087621
000340 19 df 63 3d 04 00 00 00 08 63 98 3d b0 30 e9 3c
       0.055632684 6e-45 0.07440764 0.028465599
000350 5c a6 3e 3e 96 42 c1 3c dc 98 29 3e a9 3a 35 3e
       0.18618149 0.023591321 0.16562217 0.17698158
000360 9a ab a3 3c 29 53 08 3e 5c bf 51 3d 04 00 00 00
       0.019979287 0.13312973 0.051207885 6e-45
000370 bb 12 0c 3d 02 39 42 3d d0 c1 cd 3d 40 4e 8a 3c
       0.03419755 0.047417648 0.100467324 0.016883016
000380 29 fd 4f 3c bd fc 35 3e 39 e3 f5 3c be 7a 44 3d
       0.012694635 0.17772193 0.030015575 0.04796862
000390 45 29 a9 3d e2 46 08 3d 75 65 a4 3d 45 87 94 3d
       0.08259825 0.033270724 0.08027164 0.07252363
0003a0 67 e5 b0 3d 04 00 00 00 b2 84 3e 3e 07 7f 86 3d
       0.08637505 6e-45 0.18605307 0.06567197
0003b0 47 ec 8f 3e 04 00 00 00 3b 2c c5 3c 90 07 d0 3c
       0.28109953 6e-45 0.024068942 0.025394231
0003c0 f1 ee 1f 3e 8e 16 9d 3d 04 00 00 00 04 00 00 00
       0.15618493 0.076703176 6e-45 6e-45
0003d0 43 90 28 3d 23 95 11 3d d7 1f b3 3c 89 04 9e 3c
       0.041153204 0.03554262 0.021865768 0.019289272
0003e0 5f 06 5b 3c e7 55 ba 3d be 5c a3 3d 04 00 00 00
       0.013368218 0.09098416 0.079766735 6e-45
0003f0 04 00 00 00 e7 64 f5 3c 31 af 65 3b b0 9e a1 3d
       6e-45 0.02995534 0.003504705 0.07891595
