agent1_checkpoint_critic.pth (torch_old, 297485 bytes, 9 tensors)

fcs1.weight f4 [256, 24]
00000000: 213f b13d 2b86 c73e d741 acbd f225 8c3d
00000010: 8cff afbe 4f20 b5bd 2461 08be 5f39 f13c
00000020: fc7c f1bc 4b0e 163f f030 8fbd e512 8ebe
00000030: e962 64be f41d d23e 226f a1bd 654a 90be
00000040: 0467 2a3d 4979 1d3f 3045 083d f5e1 c8be
00000050: 9a14 c23d b781 9f3f 8f8a 743d 6c66 cabe
00000060: 5080 283e 8edc c93e 954c 043d 3696 f8be
00000070: 0e0d f5be dc85 1a3e 9a98 aa3d 8417 f7be
00000080: 680a 02bd 5d30 7ebd d564 3cbe 35ab 48be
00000090: af8b aabd 5248 bc3d 6e88 1cbe 1e35 50be
000000a0: 3024 00bd ee6d 64be 3ee8 e9be 3604 323e
000000b0: 96b2 913e 0ee7 d9be 0c4a c3be 7137 373e
000000c0: a9c1 813e 9187 c53c 7567 d0bc eaa1 e5bd
000000d0: 4f64 a7bd e787 523e 0575 a33c e675 5cbe
000000e0: 2fc8 bc3e 19c2 b13e eaca 25bd 7fde afbc
000000f0: b21e f3be 9648 31be a792 c53c e41b 02be
00000100: afa8 c13e fd5a 203f 131c 71bd 0c3b afbe
00000110: 8b06 57bf 907c 23bf 371a da3c 576a 89be
00000120: 5d18 8f3f 8f7b 0cbf 4437 8bbd be41 fa3e
00000130: 86f6 063e 1371 e23e c05d 70bd e47e dd3e
00000140: f8f9 313f 796b 0fbf 7ee0 acbd 8ebb d8bd
00000150: 3b31 c73c b9dc 0e3e 9780 28be 1c25 12bd
00000160: 53ed 0c3f 7f30 1abf 6d31 b03b 587f 033d
00000170: 7d5a 933d 8984 2a3e 6353 4fbd 3d64 4a3c
00000180: c5a4 b93e 3cf2 ccbe 7419 f53c 6c40 08bf
00000190: 30c0 873e 9cab 27bf 2699 133c 417b 05bf
000001a0: 3ef1 883e 453d 1cbf 699e 8cbd 7a6a c0bd
000001b0: 27be b53d 6635 373b 9f68 a6bd e835 79bd
000001c0: ef75 b03e d666 abbe e35e 873b 5554 3c3f
000001d0: 43e1 903e e79a f63e 3d4e 80bc 61c0 3d3f
000001e0: b7e2 dc3e 1db1 cebd 4b17 103c 941f 93be
000001f0: f761 08bd 4ad1 543d c387 46bd 3532 6ebe
00000200: 881e c73e b605 48be dd5d a2bd 9d75 b9bc
00000210: 3183 95bd b844 d83e 2542 5dbd 6119 bbbd
00000220: c6d3 a43e c657 f6be b352 6b3e 55da 103f
00000230: 9c9f 0bbe cc14 533f 63c7 693e 3f79 053f
00000240: 1e8f 833c bedd 01be 80eb e2bc 7d2a 123c
00000250: ff09 a3be 81c1 723e 0b0a ec3c 2024 b8bc
00000260: 5f5c 8f3c 6860 78bd 04f6 233d ec93 d3bc
00000270: 5bd7 eabe 0916 0b3f 1fa4 03bd 0143 943b
00000280: f53d 08bd 4b62 2d3e e62e 56bc 860d 663a
00000290: 06f1 653f 4b16 06bf 7dd6 a13c c968 15bc
000002a0: 6468 2a3e 2e93 34bf 38fe 553e ac73 183e
000002b0: 7e6f 9b3d 47c5 1fbe a3c7 643e 5c8a 353e
000002c0: 1544 353e f848 4abf c7db 763e 5afa b7be
000002d0: 9464 dfbd 335f 6a3e 2ea2 0c3e a0ad b8be
000002e0: cd40 323e cc25 83bf 1214 a33c 6d31 f7bd
000002f0: 11af 25be 27bf 5b3f 110e d23d 12b6 1cbd
00000300: 387a 993e 1b2b 20bf b5d3 573d ad55 3f3d
00000310: 7860 1b3f 92a4 d0be 5cdb 263c 299e 913c
00000320: 0801 3d3e 5418 4abf 01fe 92bd 9884 da3c
00000330: e82d b33e af5e 10bf 4987 80bd ae41 9f3c
00000340: acf3 893e f7ba 44bf a667 fd3c daee e9bd
00000350: d6d6 0c3c 472a a9bf 3be0 303d 7512 51be
00000360: e742 cb3e 44f3 183f e633 68be ba35 053f
00000370: 6747 c63d 2a3c 15bf 7e70 27be 7cd3 f03e
00000380: 46f6 053f 6fe7 543f 90a7 003d aa4a e13d
00000390: 2e24 8a3e 97e9 02bf 6712 423d 20d0 943d
000003a0: fef4 1b3f 9cf1 663f d28c 773b 0228 a73d
000003b0: 2eae 9c3e 9905 9c3d a857 303d 67d4 af3d
000003c0: eca4 9cbe 5213 10bf ea5b 11bc 43c4 8dbe
000003d0: 4d4e 3fbf 2db7 31bf 70c8 0f3d 1b11 78be
000003e0: 4b50 05be d74f 16bf 834e c7bd 069a 31bb
000003f0: d936 aebe d60a 08bf 1d67 d9bd 8087 903d
0.08654619 0.3896955 -0.084109955 0.06843175 -0.34374654 -0.08844053 -0.13318306 0.029446302
-0.029478543 0.5861556 -0.06991756 -0.2774879 -0.22303356 0.41038477 -0.07882525 -0.2818176
0.04160215 0.6151319 0.033269107 -0.39234892 0.09476586 1.2461461 0.059702452 -0.39531267
0.16455197 0.39426082 0.032299597 -0.48552102 -0.47861522 0.15090126 0.08329888 -0.48260128
-0.031748205 -0.06205784 -0.1839784 -0.1959656 -0.08327424 0.091934815 -0.15286419 -0.20332763
-0.03128451 -0.2230756 -0.45685 0.17384419 0.28456563 -0.42559093 -0.3814243 0.17892243
0.25343063 0.024112495 -0.025439957 -0.11212523 -0.08173429 0.20559655 0.01995326 -0.2152935
0.36871478 0.34718397 -0.040476717 -0.0214684 -0.47484356 -0.17312846 0.02411778 -0.12705952
0.37824008 0.6263884 -0.058864664 -0.34224737 -0.8399436 -0.6386194 0.026623828 -0.26838943
1.117931 -0.54876035 -0.067976505 0.48878282 0.13179979 0.44226894 -0.058683157 0.43260872
0.6952205 -0.56023365 -0.08441256 -0.10582648 0.024315467 0.13951387 -0.16455303 -0.03567992
0.5504963 -0.6023025 0.0053769858 0.032103866 0.07194994 0.1665212 -0.050616633 0.012353
0.36258522 -0.4002856 0.029919364 -0.532233 0.26513815 -0.6549623 0.009008681 -0.52141196
0.26746553 -0.6103099 -0.06866152 -0.09395309 0.08874159 0.0027955412 -0.08125424 -0.060842425
0.34464976 -0.33476895 0.0041311844 0.7356618 0.2829686 0.48165056 -0.015662307 0.7412167
0.4314172 -0.100923754 0.008794616 -0.2873503 -0.03329655 0.051957406 -0.048469316 -0.2326134
0.3889048 -0.19533429 -0.07928059 -0.02263909 -0.073004134 0.42239928 -0.05401816 -0.091357
0.3219282 -0.4811384 0.22980766 0.5658315 -0.13635105 0.8245361 0.22829966 0.5213813
0.016059455 -0.12682244 -0.027700186 0.008921263 -0.31843564 0.23706628 0.028813383 -0.022478163
0.0175001 -0.060638815 0.04002954 -0.02582737 -0.45867428 0.543305 -0.03213894 0.004524589
-0.03326221 0.16932027 -0.013072705 0.0008775819 0.898209 -0.52377766 0.019755596 -0.009119221
0.16641384 -0.7053708 0.20897758 0.14887875 0.07589625 -0.15602599 0.2234178 0.17728561
0.17701752 -0.7901759 0.24107276 -0.3593319 -0.10907856 0.22887878 0.13733742 -0.36069965
0.17407532 -1.024591 0.019907031 -0.12069974 -0.16180064 0.8583855 0.10256589 -0.038259573
0.29976058 -0.62565774 0.052692134 0.046712566 0.60694075 -0.40750557 0.010184135 0.017775612
0.18457425 -0.7894337 -0.07177354 0.026674554 0.3499596 -0.56394476 -0.062758036 0.019440498
0.2694372 -0.76847786 0.030933212 -0.114225104 0.008596143 -1.3216027 0.043182593 -0.20417197
0.3969948 0.59746194 -0.22676048 0.52035105 0.09681588 -0.5829493 -0.16351506 0.4703635
0.5232891 0.8316564 0.0314098 0.11000569 0.26980728 -0.5113768 0.04738083 0.07266259
0.60920703 0.90212417 0.0037773144 0.08161928 0.3060164 0.07618255 0.043052346 0.085854344
-0.30594575 -0.5627948 -0.008872012 -0.27688798 -0.7472885 -0.6942013 0.03510326 -0.24225275
-0.1301891 -0.58715576 -0.09731772 -0.0027099862 -0.3402622 -0.53141534 -0.106153704 0.070570946

fcs1.bias f4 [256]
00000000: 63f8 52bf bda3 d4be 37eb 97be 2c31 0d3e
00000010: a7eb 00bf 1235 7bbf 25e5 d9bf 863f dd3b
00000020: b77f d7be 5aca d4be 47f7 e6be bcc8 71bf
00000030: 0be3 b1be c5d1 32bf d07f 453d b1d6 1abd
00000040: 9360 aebf 06d6 eebe e7ba 81bf 2e35 ebbd
00000050: 5cc0 dabe 4ecc eb3e 7a42 debd 82ed 0e3e
00000060: 0a9a 84bf e9a2 c5be 75ee a8be 880d 63bf
00000070: 9301 29bf 8dca 30bf c682 33be b668 41bd
00000080: dbd5 eabe d79c afbe 5ce3 28bf 398a dabd
00000090: 4ede 3abf 4825 62bf 2c91 4cbf f99b e0be
000000a0: 5842 67bf e84b 53bf 3d71 8abf 21b8 96be
000000b0: 6475 17be f188 6abf f3a4 97be 884a 1fbf
000000c0: 6707 683e 01d0 2fbf 4bf5 6dbf ab15 a7bd
000000d0: 5239 62bf 3bb2 e4bf eab7 8dbe 03b5 c2be
000000e0: cf98 e9be 0c42 73be 0f7a c0be b360 04be
000000f0: 4595 46bf 634d 56bf bad5 cdbd cd27 35bf
00000100: c99c 48bf 9722 b8be eec9 d63e 19a0 51bf
00000110: 06fa 25bf f21b 88bf 0740 a3be 51cb 04bf
00000120: bb64 71be 5c36 48bd 59ab 38bf 7f65 40bf
00000130: 8a4a 323e 8c21 65bd e538 26bf da65 8fbe
00000140: f5c8 46bb 0728 bfbe db0c a4bf 005c 98be
00000150: 5c22 9cbe 3ce9 44bf c382 d63d e3cb 43be
00000160: 89b1 d0be 50de 84be 5fc4 1dbf e8ab d0be
00000170: 8f00 28bf 7565 3dbd 4e96 fdbe 0dce 44bf
00000180: cae3 ba3e f29e 7a3d 09b9 efbe 3b85 f5bd
00000190: ef76 03bf e2be a23c 8fe0 12be 8e70 bfbe
000001a0: 6ce8 d1be 6ad5 83bd 7c0c 923d 55a9 bebe
000001b0: 5cc5 cebe a26f 23be 0f37 81be 81fa 69be
000001c0: c877 0dbe fad0 98bf 29ba 13be 3d2a e63e
000001d0: 68d3 97bc 708a 04bf c7c5 59bf b60b 82bd
000001e0: 006f 0a3e 20dd 1abc 3f05 cb3c 671e a2bd
000001f0: 4efb 3abf 96c6 0fbf 6ae5 61bf 7328 74bf
00000200: 26f7 55bf b6b9 943e 8863 8dbf 8d7a 8bbf
00000210: 791e 01bf 648d 46bf 145f 63bd b9d6 cbbd
00000220: dd4d 01c0 df43 79bf 129c d23c 1a5f 12bf
00000230: 9b03 6e3e 6845 71bf 4c81 a0bf 249a a1be
00000240: 49c3 e53d 3763 3abe da30 64bf 0053 c2be
00000250: 772b babe 3ddc 7fbe 78d9 50bf 960e 66be
00000260: dd1b 1dbe ffc6 48be c0f1 503e 7369 53bf
00000270: 10d9 03bf 76f7 0fbf 9b7f d3be 9087 1a3d
00000280: 4d40 8dbe 8704 383d 8361 93be 0566 efbe
00000290: 8cb3 70bf ba65 1fbe 2031 4b3e 8131 dabe
000002a0: fe40 94be cfd0 95bd 8b2b 5d3e 000b 4fbf
000002b0: f04c 04bf f172 82be ed42 abbe 734c 80be
000002c0: 62f5 f3be 5d38 dcbe 67e1 72bf 32eb bdbd
000002d0: ee52 4fbf ae36 59bf 2170 9abf a140 ae3f
000002e0: 0a9d 4fbd 4ae3 8fbf e096 cebf 219a 36bf
000002f0: 1029 913b bb6e 403e d5c7 72bf 29fd a7be
00000300: c44a 9bbe 6598 b2bf fd17 77be 39b5 a1be
00000310: 452e 27bf 5ead c0be a9b2 c7be 84d4 94be
00000320: 340f 233d 78e5 94be ace4 acbd a3ef 13bf
00000330: 9068 62be dd6a 853e 396f 8bbe 1a42 2bbe
00000340: fce5 91bf 2be2 e23e acf2 1f3d dfe7 c9be
00000350: 4812 97be 7857 17bf 684f 1dbe 6827 8fbf
00000360: 5f9b 99be 7873 2fbf 8278 a8be bf4e 29be
00000370: ccd5 b2bd 7422 7fbe a721 d5bd d20c 4cbe
00000380: cd2f e8be 1b4b 1ebe cb1f afbe 85e4 29bf
00000390: f88e 00be f4a3 093e 700b b03d 9c2b 25bf
000003a0: fd20 54be ec7a acbe c9d6 87bc b3cf 19bf
000003b0: 264c a03d 7016 dabe d102 06bf 0d8a cfbe
000003c0: 87dd 65bf cbca 04bf 4169 cebc af15 bebe
000003d0: 4d81 9ebf f8ca 52be 953b a9be 499f 88bf
000003e0: ac67 1cbf 067e bbbd 9bec 70bf 13d8 30bf
000003f0: 3814 1cbe 2daa 37bf 41e3 44bf 9071 d7be
-0.8241026 -0.41531172 -0.29671642 0.13788289 -0.50359577 -0.98127854 -1.7023054 0.0067519573
-0.42089626 -0.41560632 -0.45110533 -0.9444692 -0.34743533 -0.6985133 0.048217595 -0.037802402
-1.3623222 -0.46647662 -1.0135163 -0.114847526 -0.42724884 0.4605431 -0.10852523 0.1395779
-1.0359509 -0.38600853 -0.32994428 -0.8869252 -0.6601803 -0.6905907 -0.17530355 -0.047219
-0.45866284 -0.34299347 -0.6597192 -0.10670895 -0.7299546 -0.88338137 -0.79909015 -0.43868998
-0.9033561 -0.825377 -1.0815808 -0.29437354 -0.14790875 -0.91615206 -0.29618034 -0.622231
0.22659074 -0.68676764 -0.9295241 -0.0815843 -0.88368714 -1.7866892 -0.27679378 -0.38028726
-0.45624396 -0.23755664 -0.37593123 -0.12927513 -0.7757152 -0.8371183 -0.10050531 -0.70763856
-0.78364235 -0.3596389 0.41950935 -0.81884915 -0.6483463 -1.0633528 -0.31884786 -0.51872736
-0.23573582 -0.048879966 -0.72136456 -0.7515487 0.17411247 -0.055940196 -0.64930564 -0.28007394
-0.0030332182 -0.37335226 -1.2816423 -0.2975769 -0.30494964 -0.7691839 0.104741596 -0.19120745
-0.4076045 -0.2595086 -0.61627764 -0.40756154 -0.6562585 -0.046239335 -0.49528736 -0.7687691
0.36501914 0.06118674 -0.46820858 -0.11988302 -0.51353353 0.01986641 -0.14343475 -0.3739056
-0.40997636 -0.0643719 0.071312875 -0.37238565 -0.40384948 -0.15960553 -0.2523732 -0.22849466
-0.13815224 -1.1938775 -0.14426483 0.449541 -0.018533424 -0.5177374 -0.8506741 -0.0634989
0.13518906 -0.009452134 0.024782775 -0.07915955 -0.7303971 -0.56162393 -0.88240683 -0.9537422
-0.83580244 0.29047936 -1.1046 -1.0896775 -0.5043712 -0.77559495 -0.055510595 -0.099530645
-2.0203774 -0.9736919 0.025709186 -0.57176363 0.23243563 -0.9424653 -1.2539458 -0.31562912
0.11218888 -0.1820191 -0.8913704 -0.3795395 -0.36361286 -0.24986358 -0.8158183 -0.22466502
-0.1534266 -0.19607161 0.2040472 -0.8258278 -0.51503086 -0.5623697 -0.41308293 0.03772694
-0.2758812 0.044926193 -0.28785333 -0.46757522 -0.94023967 -0.1556615 0.19842958 -0.42615893
-0.28955835 -0.07315218 0.21598642 -0.8087616 -0.516799 -0.25478318 -0.33449498 -0.25058326
-0.4764815 -0.43011752 -0.94875187 -0.092733756 -0.80985916 -0.8484906 -1.2065469 1.3613473
-0.050686873 -1.1241238 -1.6139793 -0.7132893 0.004429944 0.1879224 -0.9483617 -0.32810333
-0.3033048 -1.3952757 -0.24130245 -0.31583574 -0.65304977 -0.3763227 -0.39003494 -0.29068387
0.03980942 -0.2908132 -0.08442053 -0.5778753 -0.221102 0.26058093 -0.27233294 -0.16724434
-1.1398311 0.44313177 0.03904979 -0.39434716 -0.29506135 -0.5911784 -0.15362322 -1.1183901
-0.3000135 -0.68535566 -0.3290444 -0.16533946 -0.08732185 -0.24915487 -0.10406809 -0.19926766
-0.4534897 -0.15458338 -0.34203944 -0.6636432 -0.12554538 0.1344145 0.085959315 -0.6451967
-0.20715709 -0.33687532 -0.01658191 -0.6008255 0.07827024 -0.42595243 -0.5234805 -0.40535012
-0.8979115 -0.5187194 -0.025196673 -0.37125918 -1.238321 -0.20585239 -0.3305327 -1.067361
-0.6109569 -0.091548964 -0.9411103 -0.69079703 -0.15242088 -0.7174404 -0.7690926 -0.4207883

bns.weight f4 [256]
00000000: 848e 563f 3a9a dd3e 94e8 b13f 7954 623f
00000010: e79c 463f cd71 873f 4f4d 0540 7b22 fc3e
00000020: da22 b93f 51bc 273f e4dc 343f b5b1 253f
00000030: 3721 f63e 522a a63f 27c3 0640 b225 293f
00000040: ac19 b63f 64a2 913f 55c0 803f 24ea d9bd
00000050: 7e3d 26bf d9e3 2040 3995 643f 5f9e 1e40
00000060: b502 133f 6e1f 3a3f 2e14 b03e 48de 993f
00000070: 01f0 e83e 9ecb 8d3f 02c9 7e3f e794 c13f
00000080: c407 433f d056 863f 426b 34bf 824c a23f
00000090: e242 5e3f afb9 393f c0c4 0a3f 2811 833f
000000a0: be7b 86bf 5c8e 2d3f af10 b73f 59ce 403f
000000b0: a055 ab3f 651d 323f 3cd4 0a3f 3023 123f
000000c0: 495f 9b3f 711c f53e 4483 6b3f acb1 cd3a
000000d0: 12b6 143f 8550 843f 9307 873f be57 2f3f
000000e0: 9ffd 353f 7403 303f 80fd 8b3f f8a0 5d3f
000000f0: c44e 703f bd11 983f 31e1 413f edaa 853f
00000100: bef9 f93e d3c6 e93f 0de9 173f f045 043f
00000110: dcf4 3f3e a053 b93f 5a00 893f a82d 583f
00000120: b684 663f 4129 803f 40f7 a23e ae49 3e3f
00000130: c321 863e eaad d03e 5149 593f 0ce1 273f
00000140: 71ae 173f 5535 733f 567d ae3f e1af 2f3f
00000150: 4b34 413f 5f37 d53e dd03 503f e407 373f
00000160: 94b2 763f cfd5 593f 11f3 423f fb8b 7a3f
00000170: 860e 993e 09d1 483f d97a 843f d84d 353f
00000180: a01d 86be 5398 e53f 6a1f 663f d0fc 623f
00000190: 3d20 8f3f c617 963f 23dc 7b3f 2aab b43e
000001a0: 20bc 3a3f 88de 943f 0e3e e33e 8514 7d3f
000001b0: 0796 4a3f f10b 7a3f bc2d 793f 7fff 5d3f
000001c0: 9312 623e 51aa a73f 3239 723f 3169 e23f
000001d0: d7a5 ad3e 1995 673f 683d 523f 031b 8a3d
000001e0: e9f4 af3f 8d0b 803f c775 433f b9ec 743f
000001f0: 6c55 2c3f 87d2 993f d79f 393f d885 433f
00000200: d20a 4a3f af0b 1a3b 6f67 e63e ca26 873f
00000210: c11e 833f 6dfd c43f 6167 2d3f 62d1 203f
00000220: be54 f33e b1cc 2c3f 5543 593f 9b7f 2f3f
00000230: 5655 993f c99f 7b3f 0b6b 0b3f 0e83 1f3f
00000240: bb4c 843f cc23 0d3f 7a87 8b3d 5431 2d3f
00000250: 8cf0 eb3e 0dfa 0d3f c013 cd3f 2956 653f
00000260: 4acb 1a3f 7ac7 ab3f 0bad 9d3f e36c 32bf
00000270: be30 043f faab 363f 253c d13f 9154 1fbc
00000280: e848 683f 3639 853f e528 2e3f 1926 563e
00000290: ecf0 f43e 73ee bc3d 45bd 813f a684 343f
000002a0: fb58 803e d7e3 9c3f 4be9 bd3f d8b9 603f
000002b0: 5dd5 3e3f 79e1 763f 4aa7 693f 1a06 a4bd
000002c0: 3925 1a3f 3826 2b3e f381 263f 0e3d c73f
000002d0: 7487 4e3f 6e76 6c3f 60dd 2b3f a552 8039
000002e0: 8e91 c0bf f51f 0f3f 704e 553f 2fe8 253f
000002f0: 57f7 ab3f 297a aa3f 17e7 463e 7794 753e
00000300: d8d5 813f a7b1 8c3f 4073 733f 52e3 4b3d
00000310: b000 143f 96f6 053f 8b29 d03f 4a87 f0bd
00000320: 955d 903f ed37 fd3e 95d6 bf3e ed8a 723f
00000330: b785 1a3f ce56 763f ff42 5c3b 4951 163f
00000340: a9c1 8d3f bc2d 993f 6bd5 733f c4e2 2d3f
00000350: 3867 863f 0294 523f 153d c13f 6941 673f
00000360: a67e 053f 3cfb 643f c584 353f bbef 963e
00000370: 1df9 6b3f dd30 373f 566a 643e 431a 783f
00000380: 1752 e63e e75e 493f ca43 373f a8db 023f
00000390: a938 1e3f 60e5 1a3e 5591 de3f d3aa 9b3f
000003a0: 1ba2 853f afbd 913f 7458 793f 5d09 1b3f
000003b0: 1529 683f c799 753f 9c07 493f 6351 a33e
000003c0: f5cb 3f3f 75b3 1e40 d524 7b3f e94c 3d3f
000003d0: d089 6b3f cd1d 223f e9ae b73e 65ad 383f
000003e0: f528 84bf 7f17 af3f db40 183f f300 213f
000003f0: daf2 7c3b 1da5 893f fbb6 813f 5a73 263f
0.8381121 0.43281728 1.3899102 0.88410145 0.77583164 1.0581604 2.0828435 0.49245057
1.4463761 0.65521723 0.7064955 0.64724284 0.48072216 1.2981665 2.1056612 0.66073143
1.4226584 1.1377683 1.0058695 -0.10640362 -0.6493758 2.5139067 0.89290196 2.4784162
0.57426006 0.7270421 0.34390396 1.202096 0.45495608 1.1077764 0.99525464 1.5123566
0.76183724 1.0495243 -0.7047616 1.2679598 0.86820805 0.72548956 0.54206467 1.0239611
-1.0506513 0.6779535 1.4301966 0.7531486 1.3385506 0.695761 0.54230094 0.5708494
1.2138454 0.47873262 0.9199717 0.0015693209 0.5809032 1.0337073 1.0549186 0.6849326
0.7109012 0.6875527 1.0936737 0.86573744 0.93870187 1.1880413 0.7573424 1.0442787
0.4882335 1.8263801 0.5933998 0.51669216 0.1874575 1.4478645 1.0703232 0.84444666
0.9004625 1.001259 0.31829262 0.74331176 0.26197633 0.40757686 0.84877497 0.6557777
0.5925055 0.95003253 1.3632 0.68627745 0.7547042 0.41643807 0.81255895 0.71496415
0.9636624 0.8509187 0.7615214 0.97869843 0.29893893 0.7844396 1.034999 0.70821905
-0.26194477 1.7937111 0.89891684 0.8866701 1.1181713 1.1726005 0.98382777 0.35286838
0.72943306 1.1630411 0.4438328 0.98859435 0.79135174 0.9767447 0.9733541 0.8671798
0.22077398 1.3098851 0.94618523 1.7688352 0.33915588 0.9046188 0.8212495 0.06743433
1.3746616 1.0003525 0.7635159 0.9567371 0.67317843 1.2017373 0.7250952 0.76376104
0.7892276 0.00235055 0.4500079 1.0558712 1.024376 1.538984 0.6773587 0.6281949
0.4752559 0.67499834 0.84868366 0.68554085 1.1979167 0.9829069 0.5446021 0.6230935
1.0335916 0.55132747 0.068129495 0.67653394 0.4608196 0.5545967 1.6021652 0.89584595
0.60466444 1.342025 1.2318434 -0.696974 0.51636875 0.71356165 1.634648 -0.009724752
0.90736246 1.0408084 0.6803115 0.2091297 0.4784006 0.09225168 1.0135885 0.70514905
0.25067887 1.2257031 1.483682 0.87783575 0.74544317 0.96437794 0.9127089 -0.08008976
0.6021305 0.16713798 0.65042037 1.5565507 0.80675435 0.9236821 0.67134666 0.00024475637
-1.504442 0.5590814 0.8332281 0.6480741 1.3434857 1.331853 0.19424091 0.23982416
1.0143385 1.0991715 0.9509773 0.049777336 0.5781355 0.52329385 1.6262678 -0.11744554
1.1278559 0.4945673 0.374684 0.94743234 0.6036028 0.96226203 0.0033609269 0.5871778
1.1074725 1.1967082 0.95247525 0.6792414 1.050025 0.8225709 1.5096766 0.9033418
0.52146375 0.89445853 0.70905715 0.29479775 0.9217699 0.71558934 0.22306189 0.9691507
0.44984505 0.78660434 0.7158781 0.5111642 0.61805207 0.15126562 1.7388102 1.2161506
1.0440096 1.1386012 0.97400594 0.6056116 0.90687686 0.9593777 0.78527236 0.3189803
0.7492059 2.4797032 0.98103076 0.7394548 0.9200716 0.6332672 0.35875633 0.7213958
-1.0324999 1.3679045 0.5947396 0.62892073 0.00385969 1.0753514 1.0133966 0.6501976

bns.bias f4 [256]
00000000: 776b ec3e 91b3 4f3e 9b89 503d 2293 f83d
00000010: 8a9f 6d3e 1d58 c63e c6b9 b4be 3ff0 9a3e
00000020: b871 9d3e e2a3 883d c951 d63d 11fc 0f3e
00000030: 218c ab3c 8136 803f 615e 0e3f 172f 36be
00000040: 9350 77be 9045 693e 954e d93e 1ac7 02bf
00000050: 4ba4 32be a24d 173f 89c7 933d 2573 4ebc
00000060: e5c1 5ebd eb52 42bc 71b5 293d 66e1 533d
00000070: e108 fdbd 8357 65be e521 a73e b5c8 053f
00000080: 8874 5c3e 5490 0b3f 0591 5abe e0c5 c63e
00000090: b683 ae3e 28c0 13be 3f98 943e 74f9 733e
000000a0: 742a 81be a0ed c63d a591 bcbd 6bb5 cd3e
000000b0: dadd df3e 8356 513e 07db ad3d 0d4c b03e
000000c0: 4712 413e cd32 103d 4b9f f03e e285 33bc
000000d0: bda0 803e 91bb b73d 60fc d53d 4285 b53d
000000e0: b8f9 ccbd dc34 113f ed24 ae3e c638 1d3e
000000f0: 8e97 d03b 631e 703e 2a93 33be 8d0b 453e
00000100: 8acd 003e 4803 16bd 8fcb c63d 0fbd 7dbe
00000110: be5a 1cbf a12c 373e 9edc d93e c698 303e
00000120: ed3b 9c3e 954f af3e 489d 6cbd fd63 b53e
00000130: 6a8c b33e 666d efbd 76c9 0bbe 22dd 0a3e
00000140: 8442 c63e 5b99 a23e 8c1b 083f 7bb4 b83e
00000150: 0cbb 8c3e 43ee 23bd 839c 993d f388 ae3d
00000160: ece3 3b3e 592d 393e a0d7 b23d 2533 0cbf
00000170: 69ab 1dbf 9a87 453c 5f7b c63e 21f0 8a3e
00000180: 6de6 103f fa4b a93e 830e 043e 9469 923e
00000190: 8117 813e c532 6b3e 445c 203f c5a2 c93e
000001a0: cfac 923e 5faf c53e 4928 883c cc3e f13e
000001b0: 73de c33e cb16 f93e 6bad 873e e27a a53e
000001c0: 0fcc d0be 6cb0 c1bc ff1a 543e ba2f b33e
000001d0: b491 b3be 9787 5c3d 5c96 0c3f 5541 0e3f
000001e0: 00a9 ae3e 4ffb 383e d949 ad3e f0f2 6d3e
000001f0: 58d6 24be 26a7 473e 15a8 213e e5d2 c03e
00000200: 5571 cb3d cd1d d139 66d0 16bd 392d da3c
00000210: 365e b43e b812 da3e c0c0 e93d fba6 803e
00000220: 0303 7ebe cc0d 8f3d 57e9 853e dd62 aabd
00000230: d1bd 893e 57b1 6c3e 4f6f 90be 6329 bb3e
00000240: ce7d 5c3e b8ae 8a3d 960b 82bb 7607 4c3e
00000250: e72f d73d 78eb 5b3e fcd1 e63c 5a20 003f
00000260: d96f ec3d e24e fb3e 0157 813e 803f cbbd
00000270: 515d 443e 7150 033e 4a36 843f 8b2d a7be
00000280: 2c48 4f3e f390 c93e 7179 e03e 8460 0dbe
00000290: f8e6 233d 4622 1bbc 7e92 a3be 99dd a63d
000002a0: 343d a73e 17ea 073f 7d69 813e c338 cb3e
000002b0: b5d8 823e 0724 043e e8e2 fc3d 91ff 0b3f
000002c0: 1093 5abc a80a 81be 3903 ccbe 5b4c 6c3f
000002d0: 1b65 913e 09d0 d83e bc06 e8bd 026d 7fbe
000002e0: 321b bcbe 74da 013e 0e52 eabe d7ca d93e
000002f0: 9ac6 0a3e 214b da3e 355e 153c 1ba5 cabe
00000300: 7544 b43e 11fb 763e cfef 523e 0ff5 d73e
00000310: 5e3a 663e 4468 893e f4df a13e 7bfc 9a3e
00000320: fc20 083e 85f1 c1be 6586 8b3e b82f aabd
00000330: 4212 3b3e 578b 87be 01b8 9a3a 08d0 e33d
00000340: 544a efbe bb73 b13e 262f 77be 97fd 383e
00000350: b404 893e c8ca 993e d774 e83e 7d44 f2bd
00000360: 4600 213f 663c 363f 4e9b 6dbd 22fa e4be
00000370: ae40 bf3d c504 6e3e 2d2f b3be 6711 1b3e
00000380: ece9 0bbe a071 b63e 559d 473e e6ea 9d3e
00000390: f643 a23e 2bf3 0a3f 4c5d e03e 6324 fe3e
000003a0: f896 833e e90f 893e 6783 b23e 5e98 13bc
000003b0: 1920 983e 9ac9 623d ad9e 873e a0ac 0bbd
000003c0: 01f7 993e c7ef 1c3f 3bba 893d 426c 213d
000003d0: 9470 583e 09c1 3f3e c0a1 87bd 8164 ae3e
000003e0: b0e8 a2bd f238 943e a105 843e 3655 113d
000003f0: 050e 66bb 078e 56be 9d55 5c3e b740 523d
0.4617574 0.20283343 0.05091248 0.12137438 0.2320539 0.387391 -0.35297984 0.30261418
0.30750823 0.06671883 0.10464818 0.14061 0.020940842 1.0016633 0.5561276 -0.17791401
-0.2415183 0.22780442 0.42442766 -0.51085055 -0.17445485 0.59102833 0.07215793 -0.012600695
-0.05438413 -0.0118605895 0.0414328 0.05172863 -0.12355209 -0.22396664 0.32643047 0.5225938
0.21528828 0.545171 -0.21344383 0.38822842 0.34084862 -0.1442877 0.29022405 0.23825628
-0.25227702 0.09713292 -0.09207467 0.40177473 0.43723947 0.20443158 0.08489042 0.34433022
0.18854629 0.035204697 0.4699653 -0.010957213 0.25122634 0.08971322 0.10448527 0.088633075
-0.100085676 0.5672128 0.34012547 0.15353689 0.006365723 0.23449092 -0.17536607 0.19242688
0.12578407 -0.036624223 0.097067945 -0.24779151 -0.6107596 0.17888118 0.4255113 0.17245778
0.3051447 0.34240404 -0.057767183 0.35427848 0.35068065 -0.11690788 -0.1365107 0.13560918
0.38722622 0.31757626 0.53167033 0.36075196 0.27486455 -0.040022146 0.07500555 0.08522215
0.18348664 0.18083705 0.087325335 -0.5476554 -0.61589676 0.012056256 0.38766 0.2713633
0.566016 0.33065778 0.12896161 0.28596175 0.25213245 0.22968586 0.62640786 0.39381996
0.28647467 0.3861036 0.016620772 0.47118223 0.38255653 0.48650202 0.26499495 0.32320315
-0.40780684 -0.023643695 0.20713423 0.3499735 -0.350721 0.053840246 0.5491693 0.5556844
0.34113312 0.18064617 0.33845404 0.23237205 -0.1609739 0.19497356 0.15786774 0.376609
0.09933726 0.0003988579 -0.036819838 0.026632892 0.35228127 0.42592406 0.11413717 0.25127396
-0.24805836 0.069850534 0.26154587 -0.08319638 0.2690263 0.23114525 -0.28209922 0.36555013
0.21532366 0.06771606 -0.0039686663 0.19924721 0.105071835 0.21476543 0.0281763 0.50049365
0.11544771 0.4908362 0.2526169 -0.09924221 0.19176222 0.12823655 1.0329068 -0.32651934
0.20242375 0.393684 0.43842652 -0.13806349 0.04001519 -0.009468621 -0.31947702 0.08147735
0.32663882 0.5309157 0.25275794 0.39691743 0.2555596 0.12904368 0.123479664 0.5468684
-0.0133407265 -0.25203443 -0.3984621 0.9230401 0.2839745 0.42346218 -0.113294095 -0.24943927
-0.36739498 0.1268099 -0.45765728 0.42537567 0.13552323 0.42635444 0.009116699 -0.3957909
0.3520848 0.24119212 0.20599292 0.42179152 0.22483203 0.2683736 0.31616175 0.30270752
0.13293833 -0.37879577 0.27250972 -0.08309883 0.18268684 -0.26473495 0.0011804105 0.11123663
-0.46736395 0.34658608 -0.2413908 0.18065487 0.267614 0.30037522 0.45401642 -0.11829469
0.6289104 0.7118591 -0.05800944 -0.44722086 0.093385085 0.23244007 -0.3499693 0.15143357
-0.13663453 0.35633564 0.19493611 0.30843276 0.31692475 0.54277295 0.4382118 0.49637136
0.25701118 0.2676995 0.34865877 -0.009008495 0.2971199 0.055368043 0.26488248 -0.034100175
0.30071262 0.6130337 0.06724974 0.039409883 0.21136695 0.18725981 -0.06622648 0.34061053
-0.07954538 0.28949696 0.25785545 0.035481654 -0.003510357 -0.20952617 0.21517034 0.051331248

bns.running_mean f4 [256]
00000000: f1e4 9940 4061 9a40 88f1 173f cc79 e53d
00000010: 0d69 463f 11ec 0240 2d1f ac3e 5371 b940
00000020: 66e6 573e c298 603e 3b29 0f40 0686 b03e
00000030: 86b2 f23f b819 6740 885c fb3d 1f65 5e3e
00000040: 73b4 0f40 37f4 993e a13d c73f 1d12 8640
00000050: 0bdd 803e 988c 2d3f 7450 6a3e 7e44 043e
00000060: 17a3 d43f 852b 703f 0e15 d73f de96 8a3f
00000070: 2602 0f41 ce29 ef3e 5430 2a40 6204 243f
00000080: d012 ac3f 8618 b83f 37bd c33e ee18 ad3e
00000090: 7ae5 e33f e611 0f3f 4d8c 4440 cdb6 9c3f
000000a0: 020b 593f b612 e83d 7c45 273f aa3c 0c40
000000b0: 2c10 653f bbd5 b440 8c44 443e 78fe b040
000000c0: d3e0 113e ba49 0040 6fdc 4540 89fe 2a41
000000d0: 00cd 1a40 3ee3 9741 24ea cd3e b674 fa3d
000000e0: a507 d23f 3dcc 4b40 9619 813f deb3 683e
000000f0: 64ae cc3f 73c5 293f af0c c53f 131e 0a3f
00000100: e6b9 ab40 83eb 393f b89c d63d 57ca f03f
00000110: 6657 0140 a4f5 a43e 4fba df3f d644 2b40
00000120: e013 513e 1a77 f83f 3b20 cf40 6b95 9d40
00000130: 91f2 a640 bb84 4f40 deff c03e 2c2f ab3f
00000140: 372d 4440 6905 303f 1899 8f3f 4e1e 1540
00000150: a7c3 3940 542a 9740 04ab 3a3d 2b2e 5140
00000160: 5b5e c43e d363 9c3e 7c6a b13f f609 ff41
00000170: 2836 223f 8406 f440 40a2 d13f 71f1 823f
00000180: feb3 1541 939c 0f3e 48f4 4b3f 067a 393f
00000190: 45ac 3b3f fcd1 8b3e da19 4940 fb44 d140
000001a0: b18d 5940 e5cc 4240 4d2c 8440 cf5d 6040
000001b0: c17c 3440 9a5c 8f3f 6f47 e93f 55db 0b40
000001c0: 8727 1d40 1e5b 3d3f 608b a33e b1b3 2b3e
000001d0: 6315 793f fc2a 113f faac 2d40 2331 8340
000001e0: cfca 5e3e ef0e 393f b25c 153f 5b83 f53e
000001f0: 02a8 fd3f 2b50 5840 af6e 2e40 dbe3 3f40
00000200: 83f0 273f 2be0 9641 3ffc 9e40 96af 113f
00000210: 8fd0 d03e 7564 973e a2bb 9e3e 270f 3c40
00000220: 8e99 2841 00d0 4640 9d39 413f dd3f a140
00000230: b20b a63e be1f 233f 7a6d 623f 61e8 b640
00000240: 8ac8 da3e b837 1f3e 0400 0000 3232 763f
00000250: 5fa7 0940 1945 1f41 1554 043f e7e8 ba3f
00000260: 4403 633e 37e5 4a3e 2215 2e3f 4564 123e
00000270: 09cf 7d40 1907 1240 0795 e63f 57bb e840
00000280: 946c 1c3f 31ba 8b3f 9775 f440 1208 e03f
00000290: 2cc5 063d 0400 0000 0b58 293f 8de9 fd3d
000002a0: 539b 9a40 20d8 c03f d803 9c3e 6e43 0840
000002b0: a0c7 933f 29e1 993e 8fc2 0f3e ea43 8f40
000002c0: 99ff c93f 0bc8 4140 f10b b33f 640c c73f
000002d0: 732c de3f 6e00 b03f dc20 2740 baec 9141
000002e0: f580 663e c0eb d33f 165a 753f fd31 b740
000002f0: 5244 943e 8183 113f 4e80 2241 5d51 7f40
00000300: f49c b43e 0b52 7b3f f732 e43d 4c84 3040
00000310: 8d43 a040 06ea 1940 9e76 323f 79d6 dd3f
00000320: 7797 223f 696b 513f 5fff b640 2074 2640
00000330: d4ae 2040 6860 353f ea8c d441 286c a43f
00000340: ab37 683e ae3c fd3e c357 7a3f acac cc3f
00000350: a0fa 4d3f 525c 9d40 f3d0 d43e d191 0d3f
00000360: 3fd1 0c41 9d7f e03f 3e13 033f b4e1 643f
00000370: f48d 6f3f 75f5 323f 26d8 1f40 da3c 513e
00000380: 285a 7b40 1d46 be40 bdd1 f23e 3df7 c340
00000390: dc76 8e40 f39f 9740 25e3 0e3e 407d a840
000003a0: f01e c63e 6d41 c13e 5b52 ca3f 8761 933f
000003b0: d284 ef3f 5a61 283f b2c6 803f 540f b440
000003c0: 71dc 7c3f 455f 4840 ddcf 483f 1b98 943f
000003d0: 6558 a640 dc0a d740 243c b640 00ab 8e40
000003e0: 3272 643e f676 e23e 74e7 e540 d052 d43f
000003f0: 942f 0b41 55bd 8f40 dc9d e23e 301e cd40
4.809197 4.8243713 0.5935292 0.112048715 0.77504045 2.0456583 0.33617535 5.7950835
0.21083984 0.21933272 2.2368915 0.34477252 1.8960731 3.6109447 0.12273508 0.21718262
2.2453887 0.30069134 1.5565683 4.189711 0.25168642 0.67792654 0.22882253 0.12916753
1.6612271 0.93816406 1.68033 1.0827291 8.9380245 0.46711582 2.6591997 0.6406919
1.3443241 1.4382484 0.38230297 0.33808082 1.7804406 0.55886686 3.0710633 1.2243286
0.8478242 0.11331694 0.653404 2.1912026 0.894778 5.65109 0.19166774 5.531063
0.1424592 2.0045 3.0915792 10.687142 2.4187622 18.985958 0.40217698 0.12229292
1.6408583 3.1843407 1.0085933 0.22724864 1.599072 0.6631691 1.5394496 0.5395214
5.3664427 0.7262499 0.104791105 1.8811749 2.0209594 0.3221866 1.7478732 2.6760764
0.20417738 1.9411347 6.4726844 4.9244895 5.21711 3.2424762 0.3769521 1.3373771
3.0652597 0.68758255 1.1218596 2.3299747 2.9025667 4.723917 0.04557325 3.2684429
0.38353238 0.3054491 1.3860621 31.879864 0.63363886 7.6257954 1.637764 1.0229932
9.356443 0.14024572 0.7966962 0.7245182 0.7330974 0.27308643 3.1422029 6.5396705
3.3992732 3.0437558 4.130408 3.5057256 2.8201144 1.1200135 1.8224925 2.185262
2.4555376 0.7396716 0.31942272 0.16767766 0.9729826 0.56706214 2.7136827 4.099748
0.21757053 0.7228841 0.58344567 0.4795178 1.9816897 3.379893 2.7255056 2.9982822
0.65601367 18.859457 4.9682918 0.5690855 0.40784118 0.2956883 0.31002527 2.9384248
10.537489 3.1064453 0.75478536 5.039046 0.32430798 0.6372031 0.884483 5.7158666
0.42731124 0.15548599 6e-45 0.9617034 2.1508405 9.95437 0.516908 1.4602326
0.22169214 0.19814001 0.68000996 0.14296062 3.9657614 2.2816832 1.801423 7.2728686
0.6110318 1.0916196 7.639354 1.7502463 0.03290288 6e-45 0.6614997 0.12398062
4.8314605 1.5065956 0.30471683 2.1291156 1.1545296 0.30054596 0.14039062 4.4770403
1.5781127 3.0278347 1.3988019 1.5550656 1.7357315 1.3750131 2.6113806 18.24059
0.2251013 1.655632 0.95840585 5.724852 0.28958374 0.56841284 10.156324 3.989341
0.35275996 0.9817206 0.11142533 2.7580748 5.008246 2.4049087 0.69712245 1.7331077
0.63512367 0.8180452 5.718673 2.6008377 2.5106707 0.7085023 26.568806 1.2845507
0.22677486 0.49460357 0.97790164 1.5990195 0.8046055 4.9175196 0.41565666 0.55300623
8.801085 1.7538944 0.51201236 0.89406896 0.9357598 0.6990579 2.4975677 0.2043337
3.9273777 5.9460588 0.47425643 6.1239305 4.452009 4.738275 0.13953836 5.2652893
0.38695478 0.37745228 1.5806383 1.1514138 1.8712409 0.65773547 1.0060637 5.626871
0.98773867 3.1308148 0.78442174 1.1608919 5.1982903 6.7200756 5.6948414 4.458374
0.22309187 0.44231385 7.1845036 1.6587772 8.699116 4.491862 0.44261062 6.409935

bns.running_var f4 [256]
00000000: d340 d041 6493 a542 e3b5 5a40 362b 043f
00000010: 52cb c440 a021 a841 374f 983e 9413 9642
00000020: 65e6 a93f 1b48 e13f 4e86 6641 7066 0540
00000030: c145 2b41 541a 0641 f9b8 893f bc55 8d3f
00000040: 6416 2140 c225 3540 316b a740 fb7e 6f42
00000050: c33f 0540 7b12 033f 78de c03f 555c 283f
00000060: c417 3941 e898 d840 bead 7d41 0252 c240
00000070: b884 d342 1b65 1240 c232 0842 aafa 0940
00000080: 6045 3e41 e454 0e41 e583 2040 9c00 e03f
00000090: e9b3 bc41 2b97 3c40 0253 1a42 0154 6841
000000a0: 13b7 2841 556a 313f 8f09 683f 8b6f 9e41
000000b0: 8a79 0641 6c32 ab42 b02a bc3f 3665 4542
000000c0: 181c 7b3f 44e6 7541 5807 a341 b589 2443
000000d0: 039c 3441 b1ff c841 2a89 1a40 ff0f 483f
000000e0: faed 9741 bb78 9041 0a9e 1441 059a ef3f
000000f0: b7b3 0641 795c 6840 db98 1241 a868 8a40
00000100: 9649 4542 ac95 743f 3ffd 103f 1fc6 f440
00000110: 8f39 ff41 1cee 723f b708 8c41 f165 d041
00000120: e553 ad3f c393 c541 c439 6b42 b8b1 8042
00000130: c399 b941 857e ff41 bcb3 d03f b329 6941
00000140: e7b3 0b42 00a9 ac40 4f4b 8b40 6a50 d741
00000150: f420 f741 c443 7142 4227 8f3e 138c 2442
00000160: f701 5d40 04e1 1340 00c3 0441 6810 9e42
00000170: 3280 cf40 faf1 1a42 935b 7f41 d049 a740
00000180: 10c0 c342 f7ef 8c3f da8e d940 fc72 6740
00000190: 4979 b140 6fa4 ab3f be9c bd41 04eb 8d42
000001a0: 145a 3842 081f 5d42 3e51 4e42 da6f 4142
000001b0: ecc5 0442 149e b740 7730 b441 ce11 d941
000001c0: 5131 0642 d313 6040 1747 1f40 9d48 613f
000001d0: a2e8 2741 99a6 7240 4e9f 1441 7166 4a42
000001e0: c1e0 bb3f ebb0 cf40 4e04 7c40 4bc0 4640
000001f0: 5932 9741 00b1 a041 f26a 9341 8097 e541
00000200: 881f 5340 b5e6 a742 f541 2a42 4960 5e40
00000210: 05d6 0240 b13c a23f 99c9 4040 1978 f441
00000220: 5b79 2942 3eac 0742 6318 9b40 2c48 1942
00000230: ac24 0540 a165 ec3f a31f 8340 3a06 9d42
00000240: 0370 3740 5294 a03f 0400 0000 9e94 0841
00000250: 0bb9 b141 16a1 0243 6098 4a3f b8fc d940
00000260: fd1f e73f 23d8 933f fd10 8c40 35aa 793f
00000270: 7f27 4942 94f4 9f41 7ddb 7340 4f3c f542
00000280: 3fc9 aa40 de55 3041 ea7c 0343 628c 1c41
00000290: c270 183e 0400 0000 bb0d 4d40 149b 483f
000002a0: 7df2 7b42 1fa0 f640 0520 1040 7f97 7141
000002b0: 2158 4c41 3779 0940 df7a 183f bb80 9742
000002c0: da9b 5c41 3b9f 6042 6e76 ac40 e011 9a40
000002d0: 62e4 9041 791b 9040 8352 a341 7cd6 9342
000002e0: e9d6 9d3f 1d91 8e41 8e85 0140 c8ef b542
000002f0: 4b69 ee3f c39f 5b40 1b55 7542 aa06 5942
00000300: ef3c 0340 5141 4a40 211c 6b3f 367b b941
00000310: f238 a842 f466 7e41 7ac0 6b40 627d dc41
00000320: 3019 9840 367d a740 ad5b 1d42 2670 c841
00000330: 42c9 b641 f189 8740 a94c 8f42 9ba8 1241
00000340: d3a5 af3e 22e1 1340 ba1d 9240 2663 7741
00000350: f288 a840 d50c 9742 47fb 1440 5989 4940
00000360: 67a1 1842 6ed1 9e40 9538 8340 e37a e740
00000370: f7a5 0041 7e36 cf40 e5d0 2942 d71c ab3f
00000380: 3312 1442 cc1a ec42 9ef4 9640 9536 9442
00000390: 081f 9342 abe3 8642 d143 583f 3b46 a940
000003a0: bee4 1040 0f81 4140 a909 6a41 4751 0f41
000003b0: d79b cb41 9945 7740 df25 2a41 e4ad 0342
000003c0: b3e7 e940 79e0 fc3f 5451 d040 1b76 eb40
000003d0: 53ea 3942 a5ac 5d42 edba 8f42 be90 7441
000003e0: cf4b b73f 01e1 3d40 f453 ae42 bc03 8941
000003f0: e5b8 1743 07d3 0f42 8599 1940 2ed6 bc42
26.031652 82.78787 3.4173515 0.51628435 6.1498194 21.016418 0.29747936 75.03824
1.3273436 1.760013 14.407789 2.0843773 10.70453 8.381428 1.0759574 1.1041789
2.5169916 2.8304296 5.231835 59.874004 2.0820167 0.51200074 1.5067892 0.6576589
11.568302 6.7686653 15.854918 6.0725107 105.75922 2.287421 34.04957 2.1559243
11.891937 8.895725 2.5080502 1.7500186 23.587847 2.9467266 38.581062 14.520509
10.544696 0.69302875 0.90639585 19.804464 8.404673 85.59848 1.4700527 49.34884
0.9808974 15.368717 20.378586 164.53792 11.288089 25.12485 2.4146218 0.7814941
18.9912 18.05895 9.288584 1.8718878 8.418876 3.630644 9.162318 4.3252754
49.32186 0.9554088 0.5663642 7.6491847 31.903105 0.94894576 17.504255 26.049776
1.3541228 24.69715 58.80641 64.34711 23.200079 31.936777 1.630485 14.57268
34.925686 5.39563 4.352943 26.914265 30.89109 60.316177 0.2795964 41.13679
3.453245 2.3106089 8.297607 79.03204 6.484399 38.736305 15.959857 5.2277603
97.87512 1.1010731 6.798688 3.616393 5.5460553 1.3409556 23.701534 70.959015
46.087967 55.280304 51.579338 48.35923 33.193283 5.7380466 22.523664 27.133694
33.54816 3.50121 2.488714 0.88001424 10.494295 3.7914183 9.288893 50.60004
1.4677964 6.4903464 3.9377627 3.1054866 18.899584 20.086426 18.42722 28.698975
3.2987995 83.9506 42.56441 3.4746268 2.0443127 1.2674772 3.0123045 30.558641
42.36851 33.918205 4.846727 38.32048 2.0803633 1.8468515 4.097612 78.51216
2.8662117 1.2545264 6e-45 8.5362835 22.215353 130.62924 0.79138756 6.8120995
1.8056637 1.1550335 4.377074 0.9752534 50.28857 19.994423 3.8102715 122.61779
5.337066 11.020964 131.48795 9.784273 0.14886764 6e-45 3.203963 0.7836163
62.986805 7.707046 2.2519543 15.099486 12.771516 2.1480234 0.59562486 75.75143
13.78805 56.1555 5.3894567 4.814682 18.111515 4.5033536 20.415289 73.918915
1.233121 17.820856 2.0237765 90.96832 1.8625883 3.431626 61.33311 54.256508
2.050594 3.1602366 0.91839796 23.185162 84.11122 15.900135 3.6836228 27.561222
4.7530746 5.2340345 39.339527 25.05476 22.84827 4.2355886 71.64973 9.166163
0.343062 2.310616 4.5661287 15.461706 5.266717 75.52506 2.3278368 3.149008
38.15762 4.963065 4.100657 7.233751 8.040519 6.475402 42.454 1.3368176
37.017773 118.05234 4.7173605 74.106606 73.56061 67.444664 0.8447848 5.289823
2.2639613 3.023502 14.627358 8.957343 25.451094 3.863623 10.634246 32.919815
7.3095336 1.9756004 6.5099277 7.358167 46.478832 55.4186 71.86509 15.285337
1.432001 2.9668581 87.16397 17.126823 151.72224 35.95608 2.399995 94.41832

fc2.weight f4 [256, 258]
00000000: 8235 4d39 d2b6 bdbc 64ad 0b3d b588 8a3d
00000010: b621 dc3c 0d9f 3dbe 07e6 303f b13a 203e
00000020: 04fe 14bf ad93 9dbe 5357 7ebd 5028 6bbe
00000030: fd0e 13be 68cf 103d 6702 6abd d66a 823d
00000040: a9c6 b83e 2b43 0bbf 9d9b 1bbe 03be 8fbc
00000050: 9499 4d3d 43d7 8abe 908f cfbd 018d ce3e
00000060: 01e7 1a3e c34e d33d f282 db3c 609d 1cbe
00000070: d937 973c ff1c 2fbf 9699 893d 799c 9d3d
00000080: b8aa 673d a2af c6bc d5ce 0f3e 8c2f a3bd
00000090: 8628 933d e8e0 c73e d6cd da3d be4a 72bf
000000a0: 00a4 9ebe da78 7b3d 6ac8 a93e 9d48 07bf
000000b0: 5209 b23c c348 3e3e 4792 f6be 0de1 823d
000000c0: 8db2 5a3e 4b5b 113e 9705 5e3c def9 d4bc
000000d0: 34d5 683e aadd 123d d9e0 98be fd9a 53be
000000e0: bdcf 3d3d 08a7 84bd 790c e9be 7184 1e3e
000000f0: b1ef 8ebe 238a 45be b9c8 4ebe dcb5 073e
00000100: db9f bfbd b268 4cbf f966 7c3d d104 463d
00000110: 090b eebd 35db a3be c416 203e d8eb 883d
00000120: 5b5a 543e 1043 5ebc 026c 0dbe 7176 6c3d
00000130: 5156 d83d 490a 50be 97d2 063e cf81 0e3e
00000140: 7a62 c3bc a2d6 2fbe 2fe9 633e 5aec b8be
00000150: 6579 9fbe 3666 aabb f04f e03e de4f b1be
00000160: 953c 8a3d 9d95 6b3e 98a1 fdbd e5e0 efbd
00000170: 06d5 2ebe 530b 55be f5ff 84bd 93ca c43d
00000180: c6c2 e53d 08b5 f1bd 3e8b 39be 0786 f23e
00000190: 3b55 0dbd c50e c2bd f2a1 11be d591 dcbd
000001a0: 5454 bfbd e12f d0bc 592d 09be 1a5e c7bc
000001b0: 301b 633e 2fc4 c9bc 834b 60bf 536a 96be
000001c0: 6d42 cbbd f77f 32bb c6ac 583e 8369 b43d
000001d0: 808b d8bd 86a1 d53c 49e1 ad3d 5a08 753d
000001e0: 26b6 8dbe fc9c ac3e 07bb 74be 3663 58bf
000001f0: 8e29 3f3e 16a5 4fbe a25f 4fbb cd5d 02be
00000200: a07e 21be daa4 2c3d 9c4c 0a3e e00e 8fbb
00000210: f015 9dbd 7ded 703e 3ee4 643c fd58 04be
00000220: a985 133d 362a ffbd f800 82be f171 56bc
00000230: cfb1 093e c18e 0dbf 2958 f1bd 007d 133e
00000240: 1f49 1cbf 8808 863e 4a3b 2d3b 5c14 f7be
00000250: 5037 abbc 3c06 10be 9c8c a4be c026 88bb
00000260: 16af 1fbe b9a7 1abf 3012 19be d5b0 b83e
00000270: 3de8 9b3e 157a 49be edcf 6abd 013d 99bd
00000280: 0a71 7f3e d5ef c53e 37de 5cbd bb94 90bd
00000290: f5dc 01be 9826 113e ecf3 6cbe 3b17 1cbe
000002a0: fd43 4d3b 292d 323e 7cb0 bb3d 3428 d23d
000002b0: 3c79 50be 8c11 183e 7af1 d13d 5be2 053d
000002c0: 9d9b efbe 3f63 bcbd 5d8d c3bd 65a3 0bbe
000002d0: 55f3 1cbe 06ad e8be 5c91 2a3e 254e 11bd
000002e0: 9937 97be b76f 5dbd 2014 083f 3ca4 0abe
000002f0: 3be5 c3bc c25c ab3e 6a79 70bd aaa2 b43d
00000300: a10d b43e 393f e03c 6f58 c5be 1f35 763d
00000310: 4836 77bd bfe7 333d 877d 37be 4475 f63d
00000320: a1d6 7b3e b5d1 1abe ec84 b83d 462e edbd
00000330: 170d d0bd d476 cbbd d83d e73d 91fa 463c
00000340: 5a04 f43e e013 dfbe 0923 c9be 1170 dbbe
00000350: ad15 1bbe e44d d8be 0206 12be 0331 cfbe
00000360: e2ed 843d 0abd 043e 3a1f 093d b997 06be
00000370: 69a1 a3be cf60 fbbe 9626 90bd 8703 323e
00000380: 1706 40bd ee49 b5be 7fe9 073e abd6 b43b
00000390: d2f6 ac3d e51c 8f3d 319d bfbd 5e70 9abd
000003a0: 51a2 18be 01bf 1fbe 6ace 0ebe c2b7 06bf
000003b0: 8131 513e 33a2 35bf 566f ac3d f218 b8bd
000003c0: 5a74 bbbd 46dc 67be b58c df3d da58 7fbe
000003d0: 10e7 d13c 0fe6 263e 8a9f 03be fd9b 903e
000003e0: ebff 663e b993 17bf c890 8fbe c704 a9bd
000003f0: 4880 d7bc bf91 3b3d 1694 a33e e07e 913e
0.00019570257 -0.023158465 0.034100905 0.06764356 0.026871543 -0.18517704 0.69100994 0.15647389
-0.582001 -0.3077673 -0.062094998 -0.22964597 -0.14361186 0.035354048 -0.057131197 0.063680336
0.36089066 -0.54399365 -0.1519608 -0.01754666 0.05019529 -0.27117357 -0.10134804 0.40341952
0.15127183 0.10317757 0.026795838 -0.15294409 0.018459247 -0.6840362 0.06718747 0.076958604
0.056559294 -0.02425367 0.14043744 -0.07968053 0.071854636 0.39038777 0.10683791 -0.946453
-0.30984497 0.06139455 0.33160716 -0.52845174 0.02173296 0.18582444 -0.48158476 0.06390581
0.21357174 0.14194982 0.013551137 -0.025998052 0.2273758 0.035855927 -0.29859045 -0.20664592
0.046340693 -0.06477171 -0.45517328 0.1548021 -0.27917245 -0.19290976 -0.20193757 0.13252968
-0.09356662 -0.7984725 0.06162164 0.048344437 -0.116231985 -0.3200318 0.15633684 0.066856086
0.20737593 -0.013565794 -0.13810733 0.057730142 0.105633385 -0.20316423 0.13166271 0.13916706
-0.023850668 -0.1717172 0.22256921 -0.36117822 -0.31147304 -0.005200173 0.43810987 -0.34631246
0.06749836 0.23006292 -0.12384337 -0.11712817 -0.1707345 -0.20805101 -0.064941324 0.096089505
0.11218791 -0.11802107 -0.18119523 0.4736788 -0.03450511 -0.09475473 -0.14221933 -0.10770003
-0.09342256 -0.025413455 -0.13396205 -0.024336863 0.2217834 -0.02462968 -0.8761522 -0.29377994
-0.09924779 -0.0027236918 0.21159658 0.08809187 -0.105734825 0.026077997 0.08490235 0.059822418
-0.2767803 0.3371352 -0.2389947 -0.84526384 0.18668196 -0.20277819 -0.0031642695 -0.12731095
-0.1577096 0.042149402 0.13505787 -0.004365787 -0.076702 0.23528095 0.013970433 -0.12924571
0.03601614 -0.12459223 -0.25391364 -0.013088689 0.13446735 -0.5529595 -0.11784393 0.14403152
-0.61049074 0.26178384 0.0026433044 -0.4825772 -0.020900398 -0.14064878 -0.32138526 -0.00415501
-0.15594134 -0.60412174 -0.14948344 0.36072412 0.3045062 -0.19675477 -0.0573272 -0.07482339
0.24945465 0.3865954 -0.053922858 -0.07059618 -0.12681945 0.14174879 -0.23139924 -0.15243237
0.0031321042 0.1740004 0.09164521 0.102615744 -0.20358747 0.14850444 0.10251136 0.032686573
-0.4679841 -0.09198617 -0.09548447 -0.13636549 -0.15327199 -0.45444506 0.16657013 -0.035474915
-0.29534605 -0.054061618 0.5315571 -0.13539213 -0.023913017 0.33469206 -0.05870954 0.08820088
0.35166648 0.027373897 -0.38544032 0.060109254 -0.0603545 0.043922182 -0.17918979 0.120340854
0.24593593 -0.1511906 0.09009728 -0.115810916 -0.10158747 -0.09934774 0.11291093 0.012144701
0.4765957 -0.4356985 -0.39284542 -0.42858937 -0.15144987 -0.42246926 -0.14260104 -0.4046708
0.06490685 0.12962738 0.033477046 -0.13143815 -0.31959084 -0.49097297 -0.0703861 0.17384158
-0.046880808 -0.35407966 0.13272665 0.0055187545 0.08445515 0.06987933 -0.09356154 -0.075409636
-0.14905669 -0.15600206 -0.13945928 -0.5262414 0.2042904 -0.7095062 0.08419673 -0.08989133
-0.09153052 -0.22642621 0.109155096 -0.24936238 0.025622874 0.16298698 -0.12853828 0.2824401
0.22558562 -0.5920978 -0.28040147 -0.08252864 -0.026306286 0.04579329 0.31948918 0.2841711

fc2.bias f4 [256]
00000000: 7a1d fd3d 9c80 a6be 8217 b6bb 0e06 efbe
00000010: b338 52be fc14 2c3c 6235 39be f240 a2be
00000020: 550a 113d f371 c0be 4ffe f1bd b7d5 be3c
00000030: 9a0e 81be 51db 13be aff1 93bc e3f4 11be
00000040: ff18 4fbe 3881 1fbe 4c4c 8fbe dcb6 1b3d
00000050: a388 2fbe 6fd3 7bbe 9f2b 4dbe 76db 1ebe
00000060: 5673 91be 438d 0bbe f4b0 893c 8840 d4bd
00000070: ec09 cbbd 2de7 b2be 8941 28be 2d29 cfbe
00000080: fad2 ddbd cc18 cebd 4c7b 6cbe 3830 8cbe
00000090: ad17 193c 5937 8f3c 0177 13be 7462 d2be
000000a0: e54c 06be b3bc 94be c81e 38be ae26 a1be
000000b0: 8c33 863d 33f1 f0be f24b a8bd 6169 923d
000000c0: bd45 cebe 6823 16be 299c 4fbe 2674 47bd
000000d0: 7d62 e8be 4d83 00be 9198 fbbc ce01 39be
000000e0: 3dc4 f6bd 9e3c 5dbe 56fe 8fbe a8a0 24be
000000f0: d78f b7bd 2236 edbd b31c 0fbe 2dd6 49be
00000100: 8aa6 1abd 8c5d 10be 586a 26be 65c8 1e3d
00000110: 9851 37be a0e3 48be b08c 83bd 8faa 37be
00000120: 2d5b 8a3e 10e5 65be aab7 35be e888 24be
00000130: 76b9 fdbd c735 7cbe bb78 54bd 9b99 babd
00000140: 03a9 9fbe 1a79 24be d9d5 aebe c6e5 82be
00000150: 9f82 82be 807b eebd f102 c23c 39ed 4bbe
00000160: 0157 e2bc 45f3 953c 3acb 9bbe 8eb7 25be
00000170: 4337 4ebe 9bc6 f5bc 9855 50be d2fb 16be
00000180: 8176 a9be e11b 9ebd cfd2 2bbe 0433 27be
00000190: e749 4dbe 380f bf3b 2755 0abe 0cd6 80bd
000001a0: a898 84be f6a5 86be 1b95 41be f5c8 86bd
000001b0: f641 b5bd 554b 1ebe 3ba3 18be ecf5 53be
000001c0: 1d28 cabe 2993 8ebe ab32 43bd 70c1 c3be
000001d0: d32b 71be 1a4d b1be a553 4dbe 4214 50be
000001e0: c664 8e3e 6882 92bd f002 94be 8caa 853d
000001f0: 1ade 09bc a784 b5be 94d6 5dbe 8c23 92bd
00000200: 50db 193e 2210 c7be c08e 0abf 0b79 0dbe
00000210: b96c 86be 40a0 6dbd 4296 b43a 10dc 03be
00000220: 2bb5 863e 5bf9 9abe b8fc 3abe cb9b 8fbe
00000230: de7b 85be b720 8abd 9077 bbbe 5906 76be
00000240: 978c 14bf beec 47be fc1e aebe e19a dbbb
00000250: 6c49 23be 6617 0abe f3ba 3bbd 6cbc f9bd
00000260: fbd1 92be 563a 72be 580f a0be f339 91be
00000270: 3c78 80be 8368 55be 1be9 c13c ddd1 a63d
00000280: 7799 a4be e537 b0bd c780 3cbc 93a0 77be
00000290: 1d06 0fbe 6824 86be 406f 39be 1793 2bbe
000002a0: 6d98 acbd 9b30 cbbe 4cec 05be 9046 10be
000002b0: 6cb2 1dbe ef1d d4bc df99 5a3e 3116 56be
000002c0: e602 3fbe 03a6 11be 1631 90be 31f6 4bbe
000002d0: bd45 77be b0db adbe 8891 3abe 30b5 39be
000002e0: 35ec a3be dab1 4dbe 1857 9fbe f120 3a3e
000002f0: ff8e 5e3e de39 89be e35f c1bd 2cfc 84be
00000300: bf1f a2be f218 b8be bcb0 30be a9cc 4fbe
00000310: 2365 77be b8c4 27be 343d 6dbd 72df 96be
00000320: a249 2dbe ed56 febd f9d3 f8be b954 383f
00000330: 813c a0be 75bb ebbd 09ef eebd effe aa3e
00000340: 1ee4 cdbd 1c4e d5bd 314f 72bd e17d 7bbe
00000350: b73e 90be e9a2 e53d b920 70be 7ccc 4cbe
00000360: feda 053d 4d7a 87be 8341 f539 de27 76be
00000370: b7f1 8dbe cfbd f8bd 041b 24bd 379f 12be
00000380: b113 a9be 8173 8cbe b7c2 b6be 6828 ddbd
00000390: 5c5a 7dbe 58f8 d2be 7920 97be cd52 483e
000003a0: 9317 d8be 119e 073d 02e1 9ebe cc63 67be
000003b0: ff45 2ebe 8b33 32be 6b0a aa3d 2765 69be
000003c0: fd0c fdbd c9fb 1cbe 0fd8 7fbe d034 adbe
000003d0: 36a4 5dbe 66b4 373e 8b1f 253d a507 75be
000003e0: 65d5 a1be a043 32bd 6f64 b1be 8587 033d
000003f0: c3cf 30be 6ebf 31be 81d4 6abe 95b0 93be
0.12359138 -0.32519996 -0.0055570016 -0.46684307 -0.20529442 0.01050305 -0.1808677 -0.31690174
0.035410244 -0.37586936 -0.11816084 0.023295267 -0.25206453 -0.14439131 -0.01805958 -0.14253573
-0.20224379 -0.15576637 -0.27987897 0.038016185 -0.17141967 -0.24592374 -0.20036171 -0.15513405
-0.28408307 -0.13628106 0.01680801 -0.10363871 -0.09914002 -0.34941998 -0.1643125 -0.40461102
-0.10831256 -0.100633234 -0.23093909 -0.27380538 0.009344024 0.017482447 -0.14400865 -0.4109074
-0.1311527 -0.29050216 -0.17980492 -0.31474823 0.065528005 -0.4705902 -0.082176104 0.07149006
-0.4028758 -0.14661944 -0.20274414 -0.048694752 -0.4538764 -0.12550087 -0.030712398 -0.18067095
-0.12049148 -0.21605155 -0.2812373 -0.1607691 -0.08962982 -0.11582591 -0.13975792 -0.19710608
-0.03775648 -0.14098185 -0.16251504 0.03876533 -0.1790222 -0.19618082 -0.064233184 -0.17936157
0.27022687 -0.22450662 -0.17745844 -0.1606785 -0.123888895 -0.2462989 -0.05187295 -0.09111329
-0.31183633 -0.16061822 -0.34147528 -0.25565928 -0.2549028 -0.116446495 0.023683043 -0.19914712
-0.027629377 0.018304477 -0.30428487 -0.16183302 -0.20138268 -0.030001929 -0.20345151 -0.147445
-0.33098224 -0.07720161 -0.16779636 -0.16328055 -0.20047723 0.0058306716 -0.13509046 -0.06290826
-0.25897717 -0.26298493 -0.18904535 -0.06581298 -0.08850472 -0.15458424 -0.14906017 -0.2069928
-0.3948373 -0.2784665 -0.047655743 -0.3823352 -0.23551874 -0.34629136 -0.20051439 -0.20320228
0.2781126 -0.07153779 -0.2890849 0.0652667 -0.00841477 -0.35452768 -0.21663886 -0.07135686
0.15025067 -0.38879496 -0.5412407 -0.13815705 -0.26254824 -0.058014154 0.001377769 -0.12876916
0.26310095 -0.30268368 -0.18260467 -0.28048548 -0.26071066 -0.06744521 -0.36614656 -0.24025859
-0.58027023 -0.19523904 -0.34008014 -0.0067018126 -0.15945977 -0.13485488 -0.045832586 -0.12194142
-0.28675827 -0.23655066 -0.31261706 -0.28364524 -0.25091732 -0.2084065 0.023670724 0.08145497
-0.32148334 -0.08604411 -0.011505312 -0.24182348 -0.13967176 -0.2619965 -0.18108845 -0.16755329
-0.084275104 -0.3968552 -0.13078421 -0.14089417 -0.15400094 -0.02589318 0.2134776 -0.20906903
-0.1865345 -0.14223485 -0.2816245 -0.19918133 -0.24147697 -0.3395667 -0.18219578 -0.18135524
-0.3201615 -0.20087376 -0.31121135 0.18176629 0.21734236 -0.26801962 -0.09442117 -0.25973642
-0.31664845 -0.35956532 -0.17254919 -0.20292915 -0.24159674 -0.16383636 -0.057919696 -0.2946735
-0.1692262 -0.124189235 -0.48599222 0.72004277 -0.3129616 -0.11510364 -0.11666686 0.33397624
-0.100532755 -0.10415289 -0.059157554 -0.24559738 -0.28172848 0.11212713 -0.23449983 -0.1999988
0.03267955 -0.26460496 0.00046778852 -0.24038646 -0.27723476 -0.12145578 -0.040064827 -0.14318548
-0.33022836 -0.27431872 -0.3569543 -0.107987225 -0.247415 -0.41205096 -0.29516962 0.19562836
-0.42205486 0.03310973 -0.31031042 -0.22596663 -0.17018889 -0.17402475 0.08302768 -0.22792493
-0.12355993 -0.15330423 -0.24984764 -0.33829355 -0.21644673 0.1793991 0.040313285 -0.23928697
-0.3160812 -0.043521523 -0.34646937 0.032111663 -0.17266755 -0.17358181 -0.22932626 -0.2884566
