agent1_checkpoint_actor.pth (torch_old, 301908 bytes, 18 tensors)

bn1.weight f4 [24]
00000000: 67d1 da3e c948 ad3e 049a dc3e ddfc 2cbd
00000010: c593 6a3f f800 5a3f 5c51 d43e 4637 1a3f
00000020: 25fe a33e d0b1 1f3e c661 f73e e88f 853e
00000030: 6ca2 27be 32d0 abbc 4666 943e aa6d b13e
00000040: e997 ed3e 60a0 a53e fc07 9a3e 34d6 80bb
00000050: 504e 9a3f 7899 8a3f 8211 0c3f f685 4d3f
0.42737886 0.33844593 0.43086255 -0.042233337 0.9163173 0.8515773 0.41468322 0.6024059
0.32029834 0.15595174 0.48316783 0.26086354 -0.16370553 -0.020973299 0.28984278 0.3465398
0.4640496 0.3234892 0.30084217 -0.003931785 1.2055149 1.0828085 0.54714215 0.80282533

bn1.bias f4 [24]
00000000: e53a 463e da3e 333d c5ec d03e ff97 5fbe
00000010: cb70 30be fc0b 0ebc 8200 6dbe 38b8 aabe
00000020: 3d64 0b3e 20ae 40bd 8ed5 a33c 7686 2fbe
00000030: ed66 fcbe a9f2 1c3e 5084 7ebd 1b6d b6bc
00000040: 7121 8d3c 18cf 37be baa7 79be 866a dabb
00000050: 2c7e 40be b04e 7e3e dd2f 993e df26 3bbe
0.19358404 0.04376111 0.4080564 -0.21835326 -0.17230527 -0.0086698495 -0.23144725 -0.33343673
0.13612457 -0.04704106 0.019999292 -0.17141137 -0.49297276 0.15326943 -0.0621379 -0.022268822
0.01722786 -0.17950094 -0.24380389 -0.0066655306 -0.18798131 0.24834704 0.2991933 -0.18276547

bn1.running_mean f4 [24]
00000000: 8c95 01c1 1955 20bf fff6 913f 58c6 363c
00000010: 4caf 59bd 5d88 6d40 fff6 913f 58c6 363c
00000020: fc67 02c1 089f 20bf 2bf9 c43f 65b5 c83b
00000030: 221b 3ebd 4baa 6d40 2bf9 c43f 65b5 c83b
00000040: 213c 03c1 6565 21bf 2c07 bd3f e14d 39bd
00000050: e618 33bd c819 6d40 2c07 bd3f e14d 39bd
-8.09901 -0.6262985 1.1403502 0.011155687 -0.05314569 3.711448 1.1403502 0.011155687
-8.150387 -0.6274266 1.538854 0.0061251395 -0.046412595 3.7135189 1.538854 0.0061251395
-8.20218 -0.6304534 1.4767814 -0.045240287 -0.043724917 3.7046986 1.4767814 -0.045240287

bn1.running_var f4 [24]
00000000: f873 1841 0618 8c3f 9a0b b043 3a1b 5841
00000010: 0914 fc41 7507 2540 9a0b b043 3a1b 5841
00000020: 95fc 1041 8f94 8c3f 0735 b443 9ca4 5941
00000030: dfaa 0142 2590 2740 0735 b443 9ca4 5941
00000040: 192d 0841 c587 8c3f cb41 b543 f23c 5f41
00000050: 8182 0542 7f53 2f40 cb41 b543 f23c 5f41
9.528313 1.0944831 352.09064 13.506647 31.509783 2.5785801 352.09064 13.506647
9.061666 1.0982836 360.41428 13.602688 32.416866 2.618173 360.41428 13.602688
8.51101 1.0978934 362.514 13.952379 33.377445 2.7394712 362.514 13.952379

fc1.weight f4 [256, 24]
00000000: 49ae 673d f458 9f3b 2cef 04be 7315 c43d
00000010: af5b 463d 525d 5abd f48c 2c3d 01f7 1bbc
00000020: 0368 68bc 97e7 e43c 9e88 713c d4ad ce3d
00000030: 1e58 353e f1d6 3bbe 8abb bd3d 984f 90bd
00000040: 0dbf 1abc efe1 d83c 3607 b13d 5dd7 ba3d
00000050: 7bcf 88bc b206 963c 372f aebd d265 e03c
00000060: 0878 1cbf c0a8 193e 028e e6bd a337 643e
00000070: 5329 9d3e 7331 443f 0133 a5bd 291a ec3e
00000080: d237 e5be 796d c33d 280a c63d 4798 c5bc
00000090: 763e 663d 2472 85bd 9ee3 783c 209c 76bd
000000a0: 45a4 01bf 1da6 993d 621e 27be 36aa fc3c
000000b0: 6975 083d ba28 703e 1ddd 7dbe 4925 a2bd
000000c0: dbb6 503e b982 533e d64c f73c 6842 eb3d
000000d0: 8052 813e 93b8 903e d377 8b3d b6a6 39bc
000000e0: 0948 bd3e c38f 163e 81d7 9e3d 26cb 85be
000000f0: 3257 213e 9f07 83be 117b 163e d446 9fbe
00000100: c935 0c3f ed4d 573e ee24 f13d e683 adbd
00000110: 2772 ca3e a156 f03e 6b9c 623c f371 713e
00000120: 7042 cd3d 0d62 5a3e 43ff 0ebe 6ae6 f2bd
00000130: 0d8c abbd d5a9 83be 1110 d2be 6e06 47bf
00000140: da42 033e c27a 9f3b da61 f7bd 875f 30bb
00000150: 92a1 f7bd 38b7 0ebd 6864 00be 71e6 203d
00000160: 5477 3b3e c235 253e a649 f4be d6ca 21be
00000170: 74c2 8f3d bf0b 403d e10d a8be 5396 f5be
00000180: e653 0abf 5c85 263e 2b37 293d 83cb 043e
00000190: ca7c 0a3f 01c7 bebe 032d 663e d411 4d3e
000001a0: e325 acbe 7ef2 803e 6dba 8a3e 4e2d 93bc
000001b0: b3bb c53d 36ad 05be b2b5 5f3e f78b 05be
000001c0: 95eb 4bbc 40ec cc3e b571 0b3f 2f4e cfbc
000001d0: 67e2 44be a680 3e3e fe04 b33e d820 62be
000001e0: 3530 5dbe a2fc ec3b acdb 913d 8ab9 10bf
000001f0: 738a e1bc b615 993c c68a d2be 83ee ebbd
00000200: 7e10 7cbe 2c89 643d 5a3f cebd 9131 80bd
00000210: 767d 0dbf 661b 323f cb8a 16be 3ccc 853d
00000220: 314c e0be e4dd ac3d 3e8d 34be fd98 9abe
00000230: 8383 b63d 747f dd3e 1c49 823e df0e 0b3e
00000240: a65b 2dbe da0a a2be da08 043e 8c9e f73d
00000250: e927 ea3c 0875 983c 3753 093d 8c34 d53e
00000260: f345 8bbe 413c 3bbe 2432 61bf 766a 8b3d
00000270: eb2c 35bb a398 9d3d bbea 63bf bc59 2d3e
00000280: 549b 9fbe 36aa a9be 9671 0ebf 1488 9abd
00000290: f7b6 183d 2a7e b0bd be3e e0be 7522 76be
000002a0: 22c9 afbe 2420 6abe ff49 01bf 70c4 5d3e
000002b0: 2c8e 503e 256a 29bf e627 c7be bbfb 06be
000002c0: c3c5 b2be d0a8 93be ee5b 88be 26bc 52bd
000002d0: 616e e03d d46b 04be 047c 55be 637b eebd
000002e0: 9bb0 51be 04a1 abbe 7d4f ce3c 3f37 c83d
000002f0: 7ad4 5ebe 3de1 13bd 21d8 6ebe 36a5 4dbe
00000300: c573 733d c1cc 0c3d 6cda f4bd 2602 573e
00000310: efb9 b33c 8331 9e3b e19d 033d d92a d43d
00000320: 4742 983d 694b ad3c 1cd1 4f3d cd16 363e
00000330: 3492 893e bf3b 53be 7023 5b3d 9689 f33b
00000340: ec53 b63c 5786 de3c a58e 353e 74d2 1a3e
00000350: 0b5b 973c 7d35 0cbd 3647 3fbd 300b 853c
00000360: 5768 debe 2ecd 283d 46b4 febe dcd9 883d
00000370: bc6f 8ebc bf91 34be 326c d6be b3d9 733d
00000380: 56b3 85bf 1239 f43c 8319 cbbe 1c42 b2be
00000390: 49a2 9a3d f186 58bd 23e5 8ebe e4be 98be
000003a0: 1300 11bf 23f5 6b3d 9530 b63e 8e93 44bd
000003b0: ad75 8cbd 3685 973d fc52 b83e 72e9 79bc
000003c0: 475f 88bd a9be 28be 8fb2 4dbd 84c9 a63e
000003d0: 14db ecbd b7ca b3bd f130 c13d cfa0 463e
000003e0: d4fa 1c3d f070 e83b 03c9 0a3d 6380 bd3d
000003f0: 23d5 503e 6bee a2be 4dfc 243d 8f0c 3b3d
0.056562696 0.004862899 -0.12981862 0.095744036 0.04842728 -0.053311653 0.04212661 -0.00951934
-0.014184955 0.027942462 0.014742045 0.10091749 0.17709395 -0.18343712 0.09264286 -0.07046431
-0.009444964 0.026474921 0.086439535 0.091231085 -0.016700497 0.01831374 -0.08505099 0.027392302
-0.61120653 0.1500578 -0.112575546 0.22286849 0.3069559 0.76637954 -0.08066369 0.4611371
-0.4476915 0.095423646 0.09669906 -0.024120463 0.05621191 -0.06515911 0.015190987 -0.060207486
-0.5064128 0.07502387 -0.16320184 0.030842882 0.033315096 0.23453036 -0.2479138 -0.07917268
0.20382254 0.20655335 0.030188005 0.11487275 0.25258255 0.2826582 0.06809964 -0.011331251
0.3696902 0.14703278 0.07755948 -0.26131552 0.15755919 -0.25591752 0.14695384 -0.31108725
0.5476957 0.2102582 0.11774622 -0.08472423 0.39540216 0.46941093 0.013831238 0.23578624
0.100224376 0.21326466 -0.13964562 -0.11860354 -0.08376322 -0.2571551 -0.41027883 -0.77744186
0.1281847 0.004866929 -0.120792106 -0.0026912407 -0.12091364 -0.0348427 -0.12538302 0.039282266
0.18307239 0.16133788 -0.4771244 -0.15800032 0.07019511 0.046886202 -0.3282309 -0.4796625
-0.5403427 0.1626181 0.041312378 0.12968259 0.54096663 -0.37261203 0.22478108 0.20026332
-0.33622655 0.25185007 0.27095357 -0.017965939 0.096549414 -0.13054356 0.21846655 -0.13041674
-0.012446304 0.40023994 0.5447038 -0.025305836 -0.1922699 0.18603763 0.34964746 -0.22082841
-0.21600421 0.0072322646 0.07121977 -0.5653311 -0.027531838 0.01868711 -0.411215 -0.11520102
-0.24615666 0.05579488 -0.10070677 -0.06259454 -0.55269563 0.69573057 -0.14701383 0.06533095
-0.4380813 0.0844076 -0.17632005 -0.30194846 0.089118026 0.43261302 0.25446403 0.13579892
-0.16929492 -0.31648904 0.12894002 0.12090787 0.028583484 0.018610492 0.033526625 0.41641653
-0.27201805 -0.18284704 -0.87967134 0.06807415 -0.0027645181 0.07695129 -0.89030045 0.16928762
-0.31173193 -0.33137673 -0.5564207 -0.07545486 0.037283864 -0.08617814 -0.43797868 -0.24036582
-0.3433314 -0.22863823 -0.50503534 0.21656966 0.20366734 -0.6617759 -0.38897628 -0.13181965
-0.34916505 -0.2883973 -0.26632637 -0.051448964 0.10958553 -0.12931758 -0.2084809 -0.11644628
-0.20477526 -0.33521283 0.025184387 0.09776162 -0.21760741 -0.036103476 -0.23324634 -0.20082554
0.05943658 0.034374956 -0.11955723 0.20996913 0.021939246 0.0048276796 0.032132987 0.10359735
0.074345164 0.021154122 0.05073653 0.17782135 0.26869357 -0.2062826 0.053500593 0.007432173
0.022256814 0.027163668 0.17730196 0.15119344 0.01847603 -0.034230698 -0.04669877 0.016240686
-0.4343898 0.0412113 -0.49746913 0.066821784 -0.017387263 -0.17633723 -0.4187942 0.059533786
-1.0445354 0.02981237 -0.396679 -0.34816062 0.07550485 -0.052863065 -0.27909192 -0.29833138
-0.5664074 0.057606827 0.3558394 -0.04799228 -0.068583824 0.07398455 0.36000812 -0.015253412
-0.06658798 -0.16478981 -0.050219115 0.3257562 -0.11565223 -0.08778899 0.09433163 0.19397281
0.038325146 0.0070935413 0.033883106 0.092530034 0.20393805 -0.31822523 0.040279675 0.045666274

fc1.bias f4 [256]
00000000: 33b8 dbbd c2ea b0be 829c edbd f08c 083e
00000010: 21cc 54be 5fc7 303f f8e0 1fbd 495f 9cbe
00000020: c9c6 65be 3e5b bbbd 27c0 bdbe d963 babe
00000030: e835 64be 657e afbe 429a 113e f978 1a3d
00000040: 91e2 0ebf 8f1d 3abe 820a e2be 6fb3 d7be
00000050: d47c ccbe c07c dabe 84b2 e3be f104 5cbe
00000060: 3f3f 2dbd 9f3c 90be 1aca 76be 8e8d 41be
00000070: b5e7 6abe c307 9ebe c551 c7be 2cac 91be
00000080: 3f35 6abe 63fe 9fbe e1fb 4dbe ad01 36be
00000090: 3d5d bdbe 6fcb babe 9f53 0bbf 25b8 10bf
000000a0: 5a49 1fbe 4047 c9be d7ee f0be 77ed 70be
000000b0: 956a 5bbe 7090 54be 1433 80be 3a28 8fbe
000000c0: 567d 03bf b5a3 e9bd 82b8 babe 9929 893d
000000d0: bf8d 75be de8e 87bd 2136 8ebe 4b2b c2be
000000e0: 2bed 4fbe 04f1 efbd 4a89 44be 5fe6 c3be
000000f0: 6c48 0cbe 1349 fcbd da4c 88be 5ff6 823d
00000100: 5468 07bf 9965 8cbd 1e2f 4cbe 66eb 99bd
00000110: 224a dcbe 4407 92be df23 4bbe d65d e1be
00000120: 3326 02be b217 7bbe b19d 50be dd60 123f
00000130: 4cc3 70be 49b0 e2be ad4b 4dbe e37f 12be
00000140: 311f 95be 7695 0e3e c215 3e3d 040d a8be
00000150: 10f0 a7be 3b74 81be 44ee 94be fc57 e5be
00000160: aa53 c7be a85f 65be 4eaf b63e 436d 5bbe
00000170: 4bab c03d b454 88be eb95 d7be 4c6a 50be
00000180: a78b 99be a01b 98be f771 66be dd48 b6bd
00000190: 10ee 77be dffc 90be abf8 2f3d aa93 c5be
000001a0: 72a2 bcbc 6706 95be 7a58 8cbe c63c 2cbe
000001b0: d25c a1be 785f b8be 2561 cfbe 8022 3a3e
000001c0: b01d dfbc 8935 e3bd 2a75 ecbe f51b 6d3b
000001d0: 3cb1 b1be 968c a4be d2eb c7be a399 74be
000001e0: b558 3fbe 1e5c 77be c595 64be 828e aebe
000001f0: 2182 08bd fcfa abbe d2e9 b7be 9ee9 f0bc
00000200: da96 253e 30c1 c2be 0852 4d3c b6a5 3cbe
00000210: 1c48 32bd 382d dbbe 1474 7bbe ae19 f33d
00000220: 11c9 15be dd28 cabe e844 65bd 3197 87be
00000230: 9fe4 9fbe dee9 95be bfa2 02bf a533 83be
00000240: d97f 88be 8f0f 163e 8e1d 25be 9144 65be
00000250: 08a3 c3be 949a d1be bb65 e7be 38ff afbe
00000260: 96ff aabe 930d dd3c 8e90 55be e0ac fabd
00000270: 0a4c d7be 9e46 40be 72a1 a4be 7428 a4be
00000280: b8eb d0bd a570 8ebe 0245 d9ba f1f1 1bbf
00000290: 8879 a5be 6948 1ebe 6b1c ef3d 4c03 a5be
000002a0: ca1b 8abe d90c 73be 66fc 02be 26c6 4abe
000002b0: 0af1 bcbe 2aa7 a8bb 4670 bb3d 3ebb b5bd
000002c0: ceb3 ef3e 0213 9abe 0f51 f5bd add5 5cbe
000002d0: 6949 453e 3c25 3abd 48c8 1ebe 1973 1e3e
000002e0: de2e b6be a2a5 91be dd30 34be a6c0 7dbe
000002f0: aa36 d8bc e504 ddbd d0e9 6ebd 2fad 6cbd
00000300: 842f 6fbe d7c1 2abe 17b7 9ebe ee8b a6be
00000310: 10d6 03be 3cd3 33be 2d69 273f ef47 5dbe
00000320: 835e 23bd 42b2 6abe 3fc1 4c3d e396 2abe
00000330: b7bb 53be 4d36 94be f838 8a3b 3763 f1bd
00000340: 2dfb 44be ada7 35be 322e 79be 1180 b33c
00000350: 39b2 9abe 9239 75bd 991f 3abe c5cd b4be
00000360: 02ec debd 5746 ccbe be3f 89be e203 8cbe
00000370: f423 acbe 039e 8bbe 2fc1 753e 25a7 dabe
00000380: 4154 52be c6ec 34be 5007 adbe f30b 54be
00000390: 4686 64bd b09b a83d f9bc bcbe 3fcf d7bd
000003a0: e5b7 dabd 7432 87be 1dba 52be 6edb e9bd
000003b0: 5eaf 52be df48 5fbe df8a 51be d680 4ebe
000003c0: 2706 75be 1083 70be 163f 9dbe c2de 84be
000003d0: 5cda 2dbe 9814 293c 5e37 bcbe 5934 aabe
000003e0: d3e7 5dbe d840 56be 919c d8be 1916 d7be
000003f0: 6578 11be b1a7 613d 1fde ccbe 8fb9 2b3e
-0.107284926 -0.34554106 -0.11602117 0.13335013 -0.20780994 0.69054216 -0.039032906 -0.30541447
-0.22439112 -0.091482624 -0.37060663 -0.36404303 -0.22286189 -0.3427612 0.14219001 0.037713025
-0.5581446 -0.18175338 -0.44148642 -0.42129084 -0.39938986 -0.42673302 -0.44472134 -0.2148626
-0.042296644 -0.2817125 -0.24100533 -0.18901655 -0.22939952 -0.30865297 -0.38929573 -0.2845167
-0.22871874 -0.3124877 -0.20115615 -0.17774077 -0.36985198 -0.36483333 -0.5442447 -0.5653098
-0.15555325 -0.39312172 -0.4705722 -0.23528086 -0.21427377 -0.20758224 -0.2503897 -0.27960378
-0.5136312 -0.11408178 -0.36468893 0.06697387 -0.23979853 -0.06619047 -0.27775672 -0.37923655
-0.20305316 -0.11715892 -0.19192997 -0.38261697 -0.13699502 -0.12318625 -0.26621133 0.06394648
-0.5289357 -0.06855316 -0.19939849 -0.07515602 -0.4302531 -0.28521168 -0.19837902 -0.44016904
-0.12709884 -0.24520758 -0.20372654 0.5717905 -0.23512 -0.4427512 -0.200484 -0.14306597
-0.2912536 0.13924202 0.04640747 -0.3282243 -0.3280034 -0.2528399 -0.29088032 -0.4479369
-0.38931018 -0.22399771 0.35680622 -0.21428399 0.094076715 -0.26627123 -0.42106566 -0.20353049
-0.2998936 -0.29708576 -0.22504412 -0.08900616 -0.24211907 -0.28317925 0.042961758 -0.3858922
-0.023026679 -0.29106447 -0.27411252 -0.16820058 -0.3151613 -0.36010337 -0.40503803 0.18177223
-0.027235836 -0.110941954 -0.4618314 0.0036179994 -0.34705532 -0.3213851 -0.39047104 -0.23886733
-0.18686183 -0.24156234 -0.22322758 -0.340931 -0.033327226 -0.33589923 -0.35920578 -0.029408272
0.16170827 -0.38038015 0.012531765 -0.18422589 -0.0435258 -0.42807937 -0.24555999 0.118701324
-0.14627482 -0.394843 -0.055973917 -0.26482537 -0.31229112 -0.2927999 -0.5102958 -0.2562534
-0.2666004 0.14654373 -0.16124555 -0.22389437 -0.3821032 -0.40938246 -0.45194802 -0.34374404
-0.33398122 0.026984012 -0.20855924 -0.122400045 -0.420502 -0.18776938 -0.32154423 -0.32062113
-0.1020121 -0.27820316 -0.0016576352 -0.6091605 -0.32319283 -0.1545731 0.11675342 -0.32229078
-0.26974326 -0.2373537 -0.12791595 -0.1980215 -0.36902648 -0.0051468806 0.09152274 -0.08873604
0.46816868 -0.30092627 -0.11978351 -0.21565886 0.19266285 -0.045445666 -0.15506089 0.15473594
-0.35582632 -0.2844668 -0.17596765 -0.24780521 -0.026393253 -0.10791949 -0.05832845 -0.05778235
-0.2335797 -0.16675507 -0.3099906 -0.32528633 -0.12874627 -0.17561048 0.6539486 -0.21609472
-0.039885055 -0.22919562 0.04998898 -0.16659121 -0.20677076 -0.28947678 0.004218217 -0.11786502
-0.19236441 -0.17739744 -0.24334028 0.021911653 -0.30214098 -0.059869356 -0.18176116 -0.3531324
-0.10884859 -0.39897415 -0.26806444 -0.27346712 -0.3362118 -0.2726899 0.23999475 -0.42705646
-0.20539953 -0.17668447 -0.33794641 -0.20707683 -0.055792116 0.0823282 -0.36862925 -0.10537576
-0.10679606 -0.2640568 -0.20578809 -0.11418806 -0.2057471 -0.21805142 -0.20463131 -0.20166335
-0.23928128 -0.23487496 -0.30712193 -0.259512 -0.16977829 0.010319851 -0.36760992 -0.33243063
-0.21670465 -0.20923173 -0.4230695 -0.42009047 -0.14206083 0.055091564 -0.40013215 0.16770004

bn2.weight f4 [256]
00000000: 13ce 163f d658 1d3f 3939 ef3e ca43 d03d
00000010: 46c4 413f 5b4a ee3a 617b 623f c3d5 103f
00000020: 77ea 233f aa6b 053f a751 893e 5b7d 553f
00000030: 4498 233e 0d29 183f 2cb5 de3e cc54 013f
00000040: 0415 493f 534f 733e de00 423f f385 2b3f
00000050: d761 3d3f 3319 833f 8199 dc3e 3956 1e3e
00000060: c7ff 813e 80c6 2e3f 96ec 573f fcb5 083f
00000070: 0a8e 133e 53e4 643f b6f1 7b3f 133a 403f
00000080: 8b7c 163f 900a 393f 8fa1 483f c4b3 eabe
00000090: f0f7 593f 7193 873f 6376 403f 7772 293f
000000a0: 72d0 233f 6ee1 513f a804 273f 9f36 223f
000000b0: eb6a 963c b9ca 3a3f 0ca9 e73e e538 573f
000000c0: 6a2b 1c3f 6b98 e33e 86fb 533f 7e6d 1e3f
000000d0: deab 23bf 045f ff3e 3a02 593f 8a6a 7d3f
000000e0: cc7b 883e fd23 d23e 73e9 e43e e3f1 2c3f
000000f0: 1712 1f3f 161e 7e3e e308 2a3f f793 3c3f
00000100: fa26 553f f650 143f 64a6 4f3f 8bc8 4d3f
00000110: c606 19bf 193c 4c3f 8f61 7d3f 9da5 7d3e
00000120: 95bb 0c3f 8780 db3d 901b ea3e 938a e53b
00000130: 7fad 413f 175d 283f 8ade 363f 385b bbbc
00000140: be19 733f 8272 803e 459a 463f a1a9 5c3f
00000150: f262 323f b786 233f 4e73 123f 6e42 223f
00000160: aa47 073f 2a9a 683f 58d3 5b3e aeb4 3a3f
00000170: b803 e63e 3f81 f93e e3c4 043f 13e6 2abf
00000180: ca3d b03e f6fd 4e3f 2376 323e 284b f43e
00000190: 50ce f53e bc8b 473f 55d6 ee3e 4182 393f
000001a0: 5b24 223f 494a 4c3e 7a98 323f 0e92 503f
000001b0: 1bcc 743f 9973 58bf 30ac 323f 37c4 043f
000001c0: 50da 1c3f 8d7c 2b3f a574 1b3f da00 203f
000001d0: 75d9 543f 43fb ee3e eb32 fc3e 9517 583f
000001e0: 99a5 4e3f bad5 be3e 6895 473e af6e 133f
000001f0: 35a4 bd3f 1aa5 233f a76e a43e c767 f9be
00000200: 5335 4fbc e602 b03e e3d0 223f 720e 6c3e
00000210: 5b22 ce3e 184d 773f 4b58 573f 043b aebd
00000220: 7ad8 1c3f ab13 333f b1e5 113f c1d6 103f
00000230: 9c00 103f c612 f73e 0a70 413f 0c13 173f
00000240: cd7a 333f 0862 e93e db4d 323f 935d a33e
00000250: 3a24 233f 1b81 673e 0752 223f 9f84 0d3f
00000260: 533d 063f 98a5 753d fa0b 253f d192 4d3f
00000270: 4e78 f23e 7390 c83e 8203 0f3f 4887 f63e
00000280: b2de 1f3f 002c 883d f082 c33e d4cb 0e3f
00000290: 412d 7f3f 8cdd 113f 9f64 203f b117 043e
000002a0: da76 3f3f 0af6 4f3f 6b3d 073f 6fd9 2f3e
000002b0: 14a3 323f 3377 133f 7914 933f 9155 6a3e
000002c0: 0df4 b13c 6cd0 0b3f 88b8 7d3f 0656 123f
000002d0: c035 cb3e 7cb9 113f 0a6c a23e 713c c73e
000002e0: ece7 ff3e cc51 4e3f 3815 b93e 7838 1c3f
000002f0: bbfd f83e 5f5e 2d3f 9f58 703f 9d44 a43e
00000300: 1ab8 3cbf cd96 113f b053 fc3e 4faa b2be
00000310: e691 d33e b195 c23e 1323 1bbd bb26 243f
00000320: d451 f13e bbac 7d3f ed8d 29bb f735 113f
00000330: caf9 233f 5261 4a3f a534 be3e 6083 3f3f
00000340: 0a12 4c3f 9b97 ea3e 48fa 003f dfad 253f
00000350: 0d39 fe3e 305e ee3e 090f 4a3f 48bf 543f
00000360: a31c 213f 622c 413f e054 2e3f c0b1 1e3f
00000370: adc9 3a3f 733e 083f d4d1 993e 3f87 513f
00000380: b145 5d3f cdaf 143f 837d 193f 4e35 173f
00000390: b6f3 ba3e e4b2 8b3f ff23 393f 23ff 193f
000003a0: d2ac 2b3f f26e 2a3f 70c0 0b3f 65a1 433f
000003b0: 79a6 403f d620 283f 8511 253f b671 4c3f
000003c0: ef32 53bf 6867 133f 3df9 7b3f b8fd 193f
000003d0: ce5c ba3d ebb8 213f bb84 253f a07a 7e3f
000003e0: bf4a 2d3c 2080 0e3f 0f3d 0f3f 61e7 633f
000003f0: 00dc 3b3f f044 303f 24f2 5b3f e6fa 223f
0.58908194 0.6146368 0.46723345 0.1016918 0.75690114 0.0018180119 0.8846951 0.56576174
0.6402964 0.5211741 0.26820108 0.833944 0.15976053 0.5943764 0.43497598 0.50520015
0.7854769 0.23760729 0.75782573 0.67001265 0.73977417 1.0242065 0.43085864 0.15462579
0.25390455 0.68271637 0.84345376 0.53402686 0.14409652 0.89410895 0.98415697 0.75088614
0.5878379 0.7228174 0.7837152 -0.45840275 0.8514395 1.059187 0.75180644 0.66190284
0.6398994 0.81984603 0.6524148 0.63364595 0.01836153 0.7296558 0.4524616 0.8407119
0.61003745 0.44452223 0.8280567 0.6188582 -0.63934124 0.4987718 0.8476902 0.9899069
0.2665695 0.41043082 0.44709358 0.6755659 0.6213698 0.24816164 0.6641981 0.73663276
0.832626 0.57936037 0.81113267 0.8038413 -0.5977596 0.797792 0.9897699 0.24770208
0.5497373 0.10717874 0.45724154 0.0070050447 0.7565536 0.65767044 0.7143332 -0.022870645
0.94961154 0.25087363 0.77579147 0.86196333 0.6968223 0.63877434 0.5720719 0.63382614
0.52843726 0.90860236 0.2146734 0.72931945 0.44924712 0.4873142 0.51862925 -0.66757315
0.3442214 0.80856264 0.17427878 0.4771359 0.48008966 0.7794759 0.46647897 0.72464377
0.63336724 0.19950213 0.6976391 0.8147286 0.9562394 -0.8455139 0.6979399 0.518619
0.6127062 0.66986924 0.6072486 0.625013 0.83144313 0.46676072 0.49257597 0.84410983
0.8072143 0.37272435 0.19490588 0.57590765 1.4815737 0.639238 0.3211567 -0.48711988
-0.012646991 0.3437721 0.63599986 0.23052385 0.40260586 0.9660201 0.841191 -0.0850735
0.6126782 0.69951886 0.56991106 0.5657769 0.5625093 0.4825651 0.75561583 0.5901344
0.70109254 0.45582604 0.6965005 0.3190733 0.6372715 0.22607844 0.63406414 0.5528049
0.52437323 0.059972376 0.644714 0.8030215 0.4735741 0.39172706 0.5586473 0.48150086
0.6244918 0.06649017 0.38185835 0.5577977 0.99678427 0.5697868 0.62653536 0.12899663
0.7479073 0.812348 0.5282809 0.17172788 0.6978009 0.5760376 1.1490623 0.22884203
0.021722818 0.546149 0.991097 0.5716251 0.39689445 0.5692365 0.31723052 0.389133
0.4998163 0.8059356 0.36149 0.61023664 0.4863108 0.67722124 0.93885225 0.32083598
-0.73718417 0.5687073 0.49282598 -0.3489556 0.4132225 0.3800483 -0.037875246 0.641216
0.47132742 0.9909169 -0.0025871948 0.5672297 0.6405302 0.7905475 0.3714954 0.7480984
0.79715025 0.4581879 0.503819 0.6471843 0.496529 0.46556234 0.7892919 0.8310437
0.6293432 0.7545835 0.6809826 0.61989975 0.7296398 0.5322029 0.300429 0.81846994
0.86434466 0.5808075 0.5995714 0.5906571 0.36514062 1.0913968 0.7232055 0.6015493
0.6706058 0.6657554 0.5459051 0.76418144 0.7525402 0.65675104 0.6447986 0.7986101
-0.82499593 0.5757966 0.9842718 0.6015277 0.09099732 0.6317279 0.64655656 0.9940586
0.010576903 0.55664253 0.55952543 0.8902493 0.7338257 0.6885519 0.8591635 0.6366409

bn2.bias f4 [256]
00000000: 6582 b939 bad5 de3d 0f96 0a3e 22a8 fd3c
00000010: f70e be3e 9f17 a93b 17a2 0e3d 988e 1c3e
00000020: 4dd8 0d3b b996 8dbd 35f7 9d3b ef90 583e
00000030: ede7 07bc 9792 b73d 166c 723e a1cd 913e
00000040: 2028 bb3e ad29 86bb 36ca a03e 43cc 653e
00000050: 29f8 833e 026d ce3e c6b8 1fbd 4af2 2b3b
00000060: 939b 183f eed8 873e abda b03e 23ec 863e
00000070: 66d3 dbba 14c2 5f3b 4088 493e 2ffe d13e
00000080: 5bc3 e33d 5add a23d d94e 8a38 1ee6 e3bd
00000090: c37d 243e a7f0 f83e cefb 6e3e 0fc2 2f3e
000000a0: 15d0 83bd 4882 5b3e fb06 c03d e356 393e
000000b0: fee7 6abc 031d a93e 29da 52bd f4e3 523e
000000c0: d865 5c3e 449c ea3d 1483 633e 1f05 c43e
000000d0: 8204 b1bd 3caa 00be 8822 c13e 37a2 c43e
000000e0: c3c8 4e3c a204 623e 54af 0e3e 6812 363e
000000f0: 3ec4 943e 9384 35bd 71c0 813e dccb a63e
00000100: b9b8 c93e 18c6 3a3e 49b4 1d3b 1d16 703e
00000110: 7d5d 4bbe 563f 5c3e 5efd fd3e 607c bfbd
00000120: 8d77 b43e 48b5 173c dc10 d03c f62c 543b
00000130: 723b 773e 1db1 143e a166 183e 80da 50bc
00000140: 9923 f03d ba0b 243d df06 e13e 70cb 743e
00000150: 7c87 2d3e bdfe db3e 7822 d13d 6b59 883e
00000160: 14b4 e23e b0a2 8ebc a1d4 1cbd 4f2b a73e
00000170: 491c c13e ec6d 813d df50 06be 5e4e 18bf
00000180: 00c1 6bbe 0393 4a3e ea48 043b ae32 58bd
00000190: c281 6b3d 6308 0a3e 490f 24be fe20 443e
000001a0: 8745 b23e 5206 a93b 73e9 fc3a df39 5a3e
000001b0: b34f 043c 44b1 dfbe 759a 6a3e 0820 bb3d
000001c0: e305 8a3e 0d8a 06be b8ad 4f3d 7681 5a3e
000001d0: c7f5 5c3e b527 efbd 8bca 983d db09 b83e
000001e0: 277b 863e 932c 183c 4091 1cbb 9f14 b83d
000001f0: 08ed e53e fb65 093e 021a 26bc 210e 2cbe
00000200: 751e 12ba 35dd ae3b aeb0 373e 45cd b53b
00000210: bf2c 673d 08a8 883e 32da e43d fee7 3b3e
00000220: 0f84 793e fc45 273e 95e7 ad3e 6b24 7fbb
00000230: 647f 57be 448c 53be d1f1 193e 34a4 8e3e
00000240: db68 b9bd a823 a33e de85 923e 9078 f13c
00000250: 147b 3a3e ba5c 15be d100 db3d 5b0b 023e
00000260: a56d b13c 14c9 c63d 35dc ce3e b571 9c3e
00000270: 8f5d e83d e7a7 103e dc55 b53d 283b 8fbe
00000280: bbdf 8f3e b303 0c3c 54a8 06bd 0d81 853e
00000290: 71bd c13e aa4a bc3d 67f9 b53c c38d 793e
000002a0: 1f77 be3d 2aab 823a 2f2c 823e a623 0e3e
000002b0: 5af5 953e 6d7e a03e 2019 7b3e 3396 ad3d
000002c0: 43c1 fcbb 4c65 963e ca42 1c3f bb6a 203e
000002d0: dc2e b13e 5441 913e 65bd 053d 488c b53d
000002e0: cf7f 063e 2515 143c f197 8abb e34c 563e
000002f0: c93e 6a3e 541a 3abe b2cc f73c 8e19 4e3e
00000300: f859 d6be 860a c4bd 14ce be3e 6c50 33bc
00000310: 8401 4b3e cc41 0a3c 4526 163e 44ef 19bb
00000320: a3cd 883d c9ee 1e3e 487b 4f3c 76d9 9936
00000330: a42f 563e e72f 3abd df36 0b3d 9257 4c3e
00000340: 51be 913e 31a7 ee3d e3f0 9d3e 6d53 b4bd
00000350: 9a86 82b8 a26d fc3d f018 8e3e c6bc 743e
00000360: f08b e93e 395d 4d3e 24fd f03e 0282 1a3e
00000370: 163b 5f3e 09ae 093b 0b0f 1d3d 6f30 dd3e
00000380: b7fb cf3e 2488 673b f814 9c3d d14e 62bd
00000390: 00f4 093e 11b8 a83c 2f2e 363e 0c67 3c3e
000003a0: 0e6a 683e 2ed3 823e e2cc b63e 23bd 863e
000003b0: 6fd8 b83e f8ee 213e 714c 333e c16e 693e
000003c0: 73a0 0fbf 43fd a5bb 1cb0 363e 480b 9bbc
000003d0: 168b a43d 0cca 293d 0910 653d 6ed8 f73e
000003e0: 2796 bdbc f41c 283b b28d f93e eb0e 0c3f
000003f0: 6272 453e d9f8 d63d 1269 8d3e 6b88 793e
0.000353831 0.10880609 0.13533805 0.030963961 0.37120792 0.0051602866 0.03482255 0.1528877
0.0021643818 -0.06913514 0.004820729 0.21149038 -0.0082950415 0.08963507 0.23674044 0.28477195
0.3655405 -0.0040943236 0.31404275 0.22441201 0.2577527 0.4031754 -0.038994573 0.0026236945
0.5961239 0.26532692 0.3454183 0.26352033 -0.0016771376 0.003414278 0.19680882 0.4101424
0.111212455 0.07952376 6.595039e-05 -0.11127876 0.160636 0.48621103 0.23338243 0.17163871
-0.06436173 0.21436417 0.093763314 0.18099551 -0.014337538 0.33029947 -0.051477585 0.2059477
0.21523225 0.114555866 0.22217971 0.38285157 -0.08643438 -0.1256494 0.37721658 0.3840501
0.0126211075 0.2207208 0.1393407 0.17780459 0.2905597 -0.044315886 0.25342134 0.32577407
0.39398745 0.1823963 0.0024063757 0.23445936 -0.19859882 0.21508536 0.49607366 -0.093498945
0.3524746 0.009259529 0.025398664 0.0032375432 0.2414377 0.14520688 0.148829 -0.012747407
0.1172554 0.040050246 0.43950555 0.2390573 0.16946214 0.42967787 0.102116525 0.2663072
0.44278014 -0.01741156 -0.038288716 0.3265023 0.37716892 0.06319794 -0.13116787 -0.5949458
-0.23022842 0.19782643 0.0020185062 -0.052782707 0.057496794 0.13479762 -0.16021456 0.1915321
0.3481867 0.005158224 0.0019295648 0.21311139 0.008075642 -0.4368993 0.22910483 0.09136969
0.26957616 -0.131386 0.05070278 0.21338448 0.21578132 -0.116774954 0.07460507 0.3594502
0.26265833 0.009287971 -0.0023890287 0.08988308 0.44907403 0.13417809 -0.010138037 -0.16802265
-0.00055739965 0.0053364285 0.17938492 0.0055481517 0.056439158 0.26690698 0.1117443 0.18350217
0.24366783 0.1633529 0.33965746 -0.003893162 -0.2104469 -0.20658976 0.15033652 0.27859652
-0.09053203 0.3186314 0.28617758 0.029476434 0.18211013 -0.14586154 0.10693515 0.12699644
0.021658728 0.09706321 0.4040238 0.30555502 0.1134597 0.1412655 0.08854267 -0.2797482
0.2810038 0.008545804 -0.032875374 0.2607502 0.37839845 0.091939285 0.02221365 0.24370484
0.09300064 0.0009969224 0.25424334 0.13880786 0.2928875 0.31346455 0.24521303 0.08475914
-0.0077134683 0.29374158 0.6103941 0.15665714 0.34606063 0.28370154 0.032651324 0.08864647
0.13134693 0.009038244 -0.0042295386 0.20927767 0.22875513 -0.18174106 0.030248974 0.20126936
-0.41865516 -0.0957232 0.372666 -0.010944467 0.19824797 0.008438539 0.14663036 -0.002348856
0.06679847 0.15520777 0.01266367 4.585071e-06 0.20916611 -0.04545584 0.033987876 0.1995528
0.28465512 0.11652983 0.30847844 -0.08804975 -6.2239546e-05 0.12325598 0.277534 0.23900136
0.45614576 0.20055093 0.4706813 0.15088657 0.21799883 0.0021008274 0.038344424 0.43201014
0.4062173 0.003532895 0.07621187 -0.055250946 0.13471985 0.020595582 0.17791055 0.18398684
0.22696707 0.25551742 0.35703188 0.26316175 0.36102626 0.15813816 0.17509629 0.22796156
-0.561042 -0.0050655915 0.17840618 -0.018926278 0.08034341 0.041452453 0.055923495 0.4840731
-0.023142887 0.0025652023 0.48740917 0.54710263 0.19281915 0.10496683 0.27619225 0.24368446

bn2.running_mean f4 [256]
00000000: 0400 0000 6985 1e3e 0648 8a3e 3095 3e3f
00000010: a177 a63d 1c49 bd3f 5b0a 993e f72f bc3d
00000020: 0400 0000 17b4 643e 0400 0000 c94c f63c
00000030: 0400 0000 fc19 183d feae 163f 48f7 4d3e
00000040: 4a5c a33c 0400 0000 7da9 b33d 9baa 013d
00000050: 92f3 353d 0e33 fc3c b1cf 7a3c 0400 0000
00000060: 3aed 703e e66b 073d 6261 043e 60c0 093e
00000070: 0400 0000 0400 0000 76c6 0f3d 5ca9 c03d
00000080: 6a5f c73c 206e 8f3d 0400 0000 c394 9f3d
00000090: 6c1b 093d 0f45 5d3d b7e5 303d a5e2 3d3d
000000a0: 47a1 923e 6a99 923d 8770 ad3d 3ba7 363d
000000b0: 0400 0000 2958 f43d 64d6 623d eafd 743e
000000c0: 06bf d43c 4e02 8c3e a291 513e 4f32 6b3e
000000d0: 102f 8b3c 7ade 833e ee6b 123e b931 023d
000000e0: 0400 0000 f3e0 b73e 4b4b 8c3e 6970 d53c
000000f0: 8d16 363e 3467 ba3e 3e45 ae3d 7d0c 3b3e
00000100: 3dd6 623d 8724 623e 0400 0000 4330 373e
00000110: 0091 6a3c 79ef 1e3d feb5 2e3e 0400 0000
00000120: 449c 023d 0400 0000 5aa2 1e3d 3693 8e3f
00000130: 6a86 973d 7e65 af3d c1d8 e33d 0400 0000
00000140: fc34 a53d f660 063f 7553 353e 866c 803d
00000150: 0490 213d d728 0b3e 6090 513e 17c7 5a3d
00000160: 1f58 9f3c 0400 0000 54d2 4d3f d841 6a3d
00000170: 1a32 923e 0400 0000 1650 2a3d 5eb8 a43c
00000180: 21c4 163e 6b04 2b3d 0400 0000 3080 133e
00000190: 8bae b73d bbf7 133e b7d6 8a3e ee3f ae3c
000001a0: 891a 123e 0400 0000 0400 0000 7121 6a3d
000001b0: 0400 0000 f4db a03c 070c f73c a90d c93e
000001c0: b93e 283e cadc 3c3e 2632 143d d6fc 013e
000001d0: 93a0 543d d86a 8d3d 900a 053d 055e 7d3d
000001e0: 42ad 783d 0400 0000 0400 0000 4229 f83b
000001f0: b261 d83d d50c d73c b240 af3d 7ab5 2f3e
00000200: a075 083f 0400 0000 7b49 303e 0400 0000
00000210: 4d52 623e cc8d 103d bb01 c03d 6875 923e
00000220: 7fb7 b43e f4e2 7d3c 82b2 e73d 0400 0000
00000230: add6 ab3d 9466 603c 7440 a73c 1a4e 453d
00000240: 722f e03d b277 263f 4ac6 953d 0400 0000
00000250: 995d 1b3d ba27 133c 1c07 ec3c 5536 b93d
00000260: 65fb 383d 6e36 9e3e 6958 a53d 6ff2 c53d
00000270: 0daa 5a3d 700c e93c eb2a 8f3d 6a03 8f3c
00000280: 1439 e83d 0400 0000 1c4b d73e d47b 9d3c
00000290: 6586 cf3d 8940 853e a3b0 963e 0400 0000
000002a0: 0e06 143d 0400 0000 6412 243d 0400 0000
000002b0: c51f 4d3e b92f 7d3e 20e8 123e e9ab 133f
000002c0: 5251 6f3f 2599 123d a635 6e3d f2d2 e83d
000002d0: 632e 253f cf68 243e 0400 0000 2ed5 023f
000002e0: fe16 713d 0400 0000 0400 0000 895d 503d
000002f0: b4c5 a03e 7f35 483e 13f0 d13d f63e 2c3f
00000300: 9c83 8f3d e56a 713e 5d99 b33c 0400 0000
00000310: 9346 623e 0400 0000 8490 8c3f 0400 0000
00000320: 921f 733e 17f0 4d3e 07d2 183f 0400 0000
00000330: 9c4b 0d3e 7932 013e b868 3b3e a399 8b3d
00000340: ac80 1e3d 1241 083e d7eb df3d 6447 413e
00000350: 0400 0000 717a de3e 8ee9 a13d 333c 2a3d
00000360: f218 b03e d2ac 3a3d 9a1a ba3d 461d dc3c
00000370: f284 633e 8c62 053d d217 483f 4b1e d13d
00000380: 8ef4 e53d 0400 0000 dd6a ca3d 8cca 933e
00000390: 7bdb 113d fd96 363e c2dd b03d 2f11 163e
000003a0: 874a c23d dce8 ae3d adea 783e 809d 973c
000003b0: 5a9e aa3d 73e4 383d 802c 6b3e 3173 013e
000003c0: 79be ac3d 0400 0000 fc52 893d 0400 0000
000003d0: ccbf 993e 15ae d03d fe0b 093d 6641 0b3e
000003e0: 0400 0000 0400 0000 f8e7 2b3c 99ec 3e3d
000003f0: b3e3 413e 2ee9 8a3e 9f12 773d e2cb b93e
6e-45 0.1548058 0.27008075 0.7444639 0.08128286 1.4787936 0.29890713 0.09188836
6e-45 0.22334324 6e-45 0.03006591 6e-45 0.037134156 0.58860767 0.20113862
0.019941468 6e-45 0.08772562 0.031656843 0.04442174 0.030786064 0.015308307 6e-45
0.23527995 0.033061884 0.12927774 0.13452291 6e-45 6e-45 0.035101376 0.09407303
0.02433749 0.070034266 6e-45 0.07792046 0.033473417 0.054020938 0.043187823 0.046358723
0.2863867 0.07158168 0.084687285 0.044593077 6e-45 0.11930878 0.05538024 0.23924986
0.025969993 0.27345508 0.20465711 0.2296841 0.016990215 0.25755674 0.14298984 0.0317857
6e-45 0.3591381 0.27401194 0.026054578 0.1778204 0.36406863 0.08509301 0.18266483
0.055380095 0.22084247 6e-45 0.17889504 0.014316797 0.038802598 0.17061612 6e-45
0.031887308 6e-45 0.03872905 1.1138675 0.07398684 0.0856428 0.11125327 6e-45
0.080667466 0.524917 0.17707618 0.06270699 0.039443985 0.13589798 0.20465231 0.053412523
0.0194512 6e-45 0.8039906 0.0571917 0.2855385 6e-45 0.041580282 0.020107444
0.14723255 0.04175226 6e-45 0.14404368 0.08968838 0.1444997 0.2711694 0.021270718
0.14267935 6e-45 6e-45 0.0571608 6e-45 0.019636132 0.030157102 0.39268234
0.16430177 0.184436 0.036180638 0.12694106 0.051910948 0.069051445 0.032480776 0.061857242
0.060712107 6e-45 6e-45 0.0075732777 0.10565509 0.026251236 0.085572615 0.17159072
0.5330448 6e-45 0.1721553 6e-45 0.22101708 0.035291478 0.0937533 0.286052
0.35296246 0.015496004 0.113133445 6e-45 0.083905555 0.0136963315 0.020416476 0.048170187
0.109465495 0.6502639 0.07313211 6e-45 0.03793106 0.0089816395 0.028811984 0.09043566
0.045161624 0.30900902 0.080735035 0.09665381 0.05338483 0.028448313 0.06990608 0.017457683
0.11339012 6e-45 0.4204949 0.019224085 0.101330556 0.260258 0.29431638 6e-45
0.036138587 6e-45 0.0400566 6e-45 0.2003165 0.24725236 0.14346361 0.5768419
0.9348346 0.03579058 0.058156632 0.113683596 0.64523906 0.16055606 6e-45 0.51106536
0.058859818 6e-45 6e-45 0.050870452 0.31400836 0.19551657 0.10250869 0.6728357
0.07007524 0.23575933 0.021923715 6e-45 0.22097234 6e-45 1.0981603 6e-45
0.23742512 0.20111118 0.59695476 6e-45 0.13798374 0.1261691 0.18301666 0.06816413
0.03869693 0.13306072 0.10933655 0.1887489 6e-45 0.4345279 0.07905875 0.041561317
0.34394032 0.04557497 0.09087105 0.026869427 0.22218683 0.032564685 0.78161347 0.10210856
0.11228286 6e-45 0.09883664 0.28865469 0.035609704 0.17831035 0.08636047 0.14654993
0.09486871 0.08540508 0.24308272 0.018507719 0.083309844 0.04513974 0.22966194 0.12641598
0.08434767 6e-45 0.06705281 6e-45 0.30029142 0.101894535 0.033458702 0.13599166
6e-45 6e-45 0.010492317 0.046612356 0.18934517 0.27131027 0.060320493 0.36288363

bn2.running_var f4 [256]
00000000: 0400 0000 2acb ac3d 2985 283e 7272 f33e
00000010: 4dd4 2b3d 5e97 f03e 64b3 503e 8d7a 763d
00000020: 0400 0000 a0f0 ce3d 0400 0000 c016 563c
00000030: 0400 0000 2657 bd3c 05cd c23e 14bd c03d
00000040: df01 d03b 0400 0000 50d8 733d 23ff 6a3c
00000050: 2676 c83c 9c03 763c 091e 013c 0400 0000
00000060: 1411 413e eee0 e13c 7f13 e73d 7e90 8b3d
00000070: 0400 0000 0400 0000 4d4b fc3c 3d0b 8d3d
00000080: 1824 5d3c 3d61 f63c 0400 0000 883c 493d
00000090: 0ee1 ce3c 7df2 d03c b556 983c 946d e43c
000000a0: 5606 493e 77ca 7b3d 15eb 253d f842 b73c
000000b0: 0400 0000 52a5 7b3d 72eb 9d3c c2a5 043e
000000c0: 5a3a 5a3c f78c 303e ee0d 2d3e 1a08 2e3e
000000d0: c8ed 183c c227 243e 1b6b f33d 3be3 403c
000000e0: 0400 0000 ced2 803e e398 173e 311a 313c
000000f0: ff04 be3d 6391 863e b6b2 273d a385 0c3e
00000100: 8cae e23c 5f0e 293e 0400 0000 d393 e93d
00000110: 054d bc3b e152 943c 6a2c ce3d 0400 0000
00000120: f3cf 283c 0400 0000 f077 8f3c 870b cd3e
00000130: f9c1 443d 12e5 7a3d aeda 893d 0400 0000
00000140: 5bb5 3a3d eaa1 cf3e 94fb 023e 90b0 bd3c
00000150: a872 d33c 440f e63d 3e44 ee3d 5695 f03c
00000160: a37a cc3b 0400 0000 2b10 ab3e 4a8c dc3c
00000170: 3245 0e3e 0400 0000 6ab4 9e3c 176c 073c
00000180: d5f5 b83d 668f de3c 0400 0000 266e bd3d
00000190: 1b1f 5d3d 70cd 9a3d 2114 473e 3a7a 073c
000001a0: c749 803d 0400 0000 0400 0000 3f8a e53c
000001b0: 0400 0000 403d 2c3c 8cd7 623c 257d 633e
000001c0: b6ef 0e3e 41a0 b93d 6a89 a33c 46bd 973d
000001d0: 07a4 093d 6290 d73c 59b3 8d3c 38a4 e63c
000001e0: 6ef8 1f3d 0400 0000 0400 0000 3d2b ba3a
000001f0: 6c99 bb3c 61e5 833c 5209 223d 80a6 9f3d
00000200: f458 d13e 0400 0000 8dbe c13d 0400 0000
00000210: 9d0c 013e 66c5 4a3c 6490 4e3d 9a38 263e
00000220: 2f7f 773e 76f9 e33b c871 7f3d 0400 0000
00000230: 0303 963d adb3 9a3b 57d8 7a3c b966 dc3c
00000240: c491 8a3d 0e8f f23e 416a 403d 0400 0000
00000250: e400 933c 6fe2 2e3b 0f3e 403c 2a84 983d
00000260: 4e33 ba3c f99a 8a3e efeb 3c3d e7c6 563d
00000270: 77df 043d c613 543c bd1a 223d d83d c43b
00000280: 0f98 733d 0400 0000 2de2 803e 7482 1b3c
00000290: 8b4a ba3d 27a1 963e 4f85 353e 0400 0000
000002a0: 7660 823c 0400 0000 217f a33c 0400 0000
000002b0: 3411 203e 0882 6d3e 0b1f 473d dd7f cc3e
000002c0: 2916 b63e 985f 613c d656 713c f8ea 883d
000002d0: a6dd f13e c4e6 ca3d 0400 0000 cecf bd3e
000002e0: 37cf 1c3d 0400 0000 0400 0000 4f69 be3c
000002f0: a515 8a3e 0abb da3d 4515 e03c 6113 213f
00000300: fa44 d73c 495b 883e 6b9d 323c 0400 0000
00000310: 1e3c 173e 0400 0000 3e60 323f 0400 0000
00000320: 92ab 313e 451b 2c3e f6af 3c3f 0400 0000
00000330: 4b7f d73d c621 893d aea9 f83d dd1a 133d
00000340: b2d1 443c 0aa3 7c3d a504 893d 6409 ff3d
00000350: 0400 0000 f064 a23e 79c1 513d b966 f63c
00000360: 7cb4 5e3e 511d e03c 43ed 183d b862 fe3b
00000370: 95bb 2b3e edea 6e3c a702 013f 36e4 573d
00000380: 3309 3b3d 0400 0000 bf54 8a3d fcd4 513e
00000390: 1dba 573c 4513 f43d d9e5 823d a307 bb3d
000003a0: d761 613d ea3b 303d 8937 163e 16dd 9a3b
000003b0: a440 2a3d 359c be3c 8276 343e e7d0 c43d
000003c0: 2b04 153d 0400 0000 4ff6 ad3c 0400 0000
000003d0: 39ea 733e 17ce be3c 6333 4a3c a10a a03d
000003e0: 0400 0000 0400 0000 7663 3f3b e288 b63c
000003f0: f2c7 8e3d a9e6 533e bef2 123d dea9 f23d
6e-45 0.08437188 0.16457047 0.47548252 0.041950513 0.46990484 0.20380932 0.060175467
6e-45 0.10104489 6e-45 0.013066947 6e-45 0.023112845 0.38047042 0.09411064
0.0063478793 6e-45 0.059532464 0.014343056 0.0244704 0.015015509 0.007880696 6e-45
0.18854171 0.027573075 0.112830155 0.06814669 6e-45 6e-45 0.030797625 0.06886909
0.013497375 0.030075664 6e-45 0.049129993 0.025253799 0.025506252 0.018596033 0.027884282
0.19631323 0.061472382 0.040507395 0.0223708 6e-45 0.06143696 0.019277308 0.12953857
0.013319576 0.17241274 0.16899845 0.16995278 0.009334035 0.16030791 0.11885663 0.011772926
6e-45 0.2516083 0.14804415 0.010809467 0.09278297 0.26282796 0.040941916 0.13722853
0.027671121 0.16509388 6e-45 0.11405148 0.005746486 0.018105926 0.10067065 6e-45
0.010303485 6e-45 0.017513245 0.40047857 0.04803655 0.061253615 0.06731163 6e-45
0.04558311 0.40553218 0.12791282 0.02315548 0.025811508 0.112333804 0.1163411 0.029368084
0.0062402054 6e-45 0.33410773 0.026922364 0.13893583 6e-45 0.019373138 0.008265517
0.09031264 0.027167987 6e-45 0.09249525 0.053984743 0.07558715 0.19441272 0.008268887
0.06264072 6e-45 6e-45 0.028020022 6e-45 0.01051265 0.013845336 0.22215708
0.1395863 0.09063769 0.019962985 0.07409148 0.033603694 0.026313964 0.017297434 0.028154477
0.03905528 6e-45 6e-45 0.001420356 0.022900306 0.016100587 0.03955967 0.07795429
0.40888178 6e-45 0.09460173 6e-45 0.12602468 0.012376165 0.05043067 0.1623253
0.2416961 0.0069572283 0.06236437 6e-45 0.07324793 0.004721126 0.0153103685 0.02690445
0.06766084 0.47374767 0.04697633 6e-45 0.01794476 0.0026685258 0.011733546 0.07447083
0.022729542 0.2707136 0.04612344 0.05243578 0.032439675 0.0129441675 0.03957628 0.0059888177
0.059471186 6e-45 0.25172558 0.009491552 0.09096249 0.29419824 0.17726634 6e-45
0.015915137 6e-45 0.01995808 6e-45 0.15631562 0.23194134 0.04861359 0.39941302
0.35563782 0.0137557015 0.014730176 0.06685442 0.47239417 0.09907296 6e-45 0.37072605
0.038283553 6e-45 6e-45 0.023243574 0.26969638 0.10680206 0.027353892 0.62920195
0.026278008 0.26632145 0.010901789 6e-45 0.14769027 6e-45 0.69678104 6e-45
0.17350605 0.16807278 0.73705995 6e-45 0.10522326 0.06695895 0.12141739 0.03591429
0.012012886 0.061678924 0.06690339 0.12452963 6e-45 0.31717634 0.0512099 0.030078279
0.21748537 0.02735773 0.037335645 0.007763233 0.16770776 0.014582378 0.5039467 0.052707873
0.04566307 6e-45 0.06754445 0.20491403 0.013166931 0.11917738 0.06391496 0.09132316
0.055024948 0.04302589 0.14669622 0.0047260625 0.041565552 0.023267845 0.17623332 0.096101575
0.036380928 6e-45 0.021235613 6e-45 0.23819818 0.02329163 0.012341353 0.07814527
6e-45 6e-45 0.002920357 0.022282068 0.0697173 0.20693459 0.03587603 0.11848806

fc2.weight f4 [256, 256]
00000000: 5e74 2e3e a5f6 42be 7204 2bbe 98bd 153e
00000010: ce15 4e3e 2499 ecbc 94e2 6fbd 7aad 003c
00000020: 1688 d0bc df88 cdbd a88a 48be 446d dcbe
00000030: aee7 1cbe 7d3a 20be 9314 033e 5847 8dbd
00000040: 1b7d 193d c57c 673e 6b6c 013f 863c 523e
00000050: 7ee4 453e 244e 59be d5ae 1e3e 19ae 5fbe
00000060: a53d 99be 0a7b 3bbe e589 bf3e a6df 28bd
00000070: 7c01 8abe 9d6e b4bd 1592 15bf 5059 afbc
00000080: 8685 d53d c4bc 303d 4f1e a4be 945b 963e
00000090: a4a3 20be e74f bd3e e2bc 71be c870 f2be
000000a0: c873 b2be c7d9 cdbe b39b 5d3e 5734 08bd
000000b0: 7b6f 26be dc11 963e 0738 27be d8a9 1bbe
000000c0: dbb4 04bf 4c8e ccbd ced5 83bc 5ede 3e3e
000000d0: a3bb ccbe d2e2 2cbb fc9c 573d c536 0d3f
000000e0: b748 a8be 1b25 55be f9c4 083e 87a6 b73e
000000f0: ee6f e93d 2336 2e3e 8a43 3b3e 320b 853e
00000100: c219 bc3d c248 0a3e 2e13 1b3d 8fd3 22bd
00000110: c569 83bd 5276 b43e b25f 393e 729b 4b3d
00000120: dd0c 3dbe 60af 5dbe f287 ea3e fb13 e3bc
00000130: 0df0 2cbf 8524 28bf 6dac 9d3d 9a38 1dbe
00000140: 2544 74be cb5f 973e 1443 1dbc 54e4 ecbe
00000150: 18e1 593e 0e17 003f e183 b3be e118 c8be
00000160: 5d45 833d 1ecb 2abe 8b86 823e eb70 e93e
00000170: 8fed 8e3e 5c3f 593e efb8 583c 1328 13bf
00000180: 4e67 05be 2f9a 62be feaf eebd 737c 0c3e
00000190: 0a84 44be e4f3 23b8 0312 8d3d 7444 37be
000001a0: 279e b23e 35df 11be 5164 013e 82a7 ba3e
000001b0: 5a94 39be 7a98 63bf ea9a 19bf 16d2 6c3d
000001c0: 70ab 5fbd e363 0dbe b1fa 843e 9247 fbbd
000001d0: 07eb fb3d eb11 30be 7833 babe b419 39be
000001e0: 644f 1bbf 59ff 63be a515 20bd be38 b7bd
000001f0: 7615 083d a819 0fbe bcdc 9a3e a362 853d
00000200: d876 823e ba7c fbbc 6e3f d13d 86e2 57be
00000210: 0f6b 98bd 6fef ac3e 50fb 38be dfd3 cb3d
00000220: 12c7 bb3c 5bf8 d1be d78c a73d 8409 b53d
00000230: 1a74 bebd 186b c4be 4f12 2bbf 873a 9b3d
00000240: 0c5b d3be efd7 3dbd d8cc 0abe 9039 883e
00000250: a0d3 cdbe b4bf 13be e621 19be 5bdc 6ebe
00000260: 1cdf e13c 7c01 813e efe5 df3b 3739 edbd
00000270: 12a4 1d3e 2be7 183b 1d91 aebe d0a6 8b38
00000280: 2ccd 9bbe 0745 6cbe dff5 0bbe 58b2 e83e
00000290: 8663 48be daa6 963e 252d b53c a42a 723d
000002a0: d68b b9bd ee73 383d 1a48 dcbe 548a 193e
000002b0: 47f0 9bbe ac0e d33e 4d8b 1e3e 4b98 553e
000002c0: 2998 303e a03f 2dbf 320b 803e 82e7 d93d
000002d0: 9a5f 643d 7339 c5be 8270 2a3e 5670 213e
000002e0: f48f 8b3e 5832 c5bc f461 60bd d8dd c6be
000002f0: 9e74 0cbe d379 423e f450 e1ba 454a 983e
00000300: a39f 1d3d 56ce 1cbd 7f36 d7be 9b39 4cbe
00000310: 5383 43be 6fb0 a0bd 3c97 7a3e 8464 f3bc
00000320: b923 37bc 2d1d 683e ca0a ce3d cfee 683d
00000330: 7a7b a53d 8f60 103e 2c94 6c3d 9850 923d
00000340: 5602 27be 7a4c febd 717c db3c 6d47 30be
00000350: 356d d8bd b0cc b4bc 4cf1 c8be e83c 07bd
00000360: 01b8 fb3b f777 70be 4383 d2bd cc4e 393e
00000370: fa0e 8abd 35c8 8cbe 6407 533c a369 0d3f
00000380: 9136 80be e10d 48be 09cd b239 a868 2c3e
00000390: 8bae ac3e d644 35bb e98f 713e 96a0 dcbe
000003a0: 55e2 873e 2a2b 78bb 4313 103e 6dd7 2ebe
000003b0: b131 0cbe e093 e2be 1792 b23e 8104 eebc
000003c0: eb6f 05bd c9c6 863d f351 a23e 7172 16be
000003d0: d87d f63d 4ef6 6f3e 10ee 9b3e bbf1 223e
000003e0: 4504 33be 89f0 84bd 9ce1 dabc 8c46 8fbe
000003f0: 3fb3 e7bd 08b4 813d a239 093e 80de 573e
0.17036578 -0.190394 -0.16700915 0.14623106 0.20125505 -0.028881617 -0.05856569 0.00785386
-0.025455516 -0.10035872 -0.19584143 -0.43052113 -0.15322754 -0.15647312 0.12800817 -0.06898373
0.037472825 0.2260619 0.5055606 0.205309 0.19325444 -0.21221215 0.1549638 -0.21843757
-0.29929844 -0.18308654 0.37409893 -0.041228913 -0.26954257 -0.0881016 -0.5842603 -0.021404892
0.10425858 0.04314877 -0.32054374 0.29366744 -0.15687424 0.36975023 -0.2360721 -0.4735167
-0.3485396 -0.40205213 0.21641426 -0.03325304 -0.16253464 0.293105 -0.16329966 -0.15201509
-0.51838464 -0.099880785 -0.016093161 0.18639514 -0.39986905 -0.0026380313 0.052639946 0.55161697
-0.32867977 -0.20814936 0.13356389 0.35869238 0.11398302 0.17012839 0.18287483 0.25985104
0.091846004 0.13504317 0.037860088 -0.03975254 -0.06416658 0.3524652 0.18102911 0.04970879
-0.18461938 -0.21648932 0.45806843 -0.027719488 -0.6755379 -0.65680724 0.07698903 -0.15353623
-0.2385412 0.29565272 -0.009598512 -0.4626795 0.21277273 0.5003518 -0.35061553 -0.3908148
0.06409714 -0.16679046 0.25493273 0.45593962 0.27915618 0.21215576 0.013227685 -0.57483023
-0.13027689 -0.22129129 -0.116546616 0.13719349 -0.19190994 -3.908937e-05 0.06888201 -0.17897207
0.34886286 -0.14245303 0.12635924 0.36455923 -0.18122998 -0.88904536 -0.60002005 0.05781754
-0.054606855 -0.13807635 0.25972512 -0.1226951 0.12300687 -0.17194335 -0.36367393 -0.18076211
-0.60668015 -0.22265376 -0.03908314 -0.089463696 0.03322359 -0.13974631 0.30246532 0.06512954
0.25481296 -0.030699123 0.102171764 -0.21082506 -0.07442295 0.33776423 -0.18064618 0.099525206
0.022922073 -0.41009793 0.0818116 0.088397056 -0.09299488 -0.38362956 -0.6682481 0.075795226
-0.412804 -0.04634851 -0.13554704 0.26606417 -0.4020052 -0.14428598 -0.14954337 -0.23326246
0.027572207 0.25196445 0.00683283 -0.115831785 0.15394619 0.0023331146 -0.34095088 6.659108e-05
-0.3042997 -0.23073207 -0.13668011 0.45448565 -0.19569215 0.29424173 0.022116253 0.059122697
-0.09059875 0.045032434 -0.4302376 0.14994174 -0.30456755 0.4122213 0.15482827 0.20858876
0.17245544 -0.6767521 0.2500854 0.1063986 0.055755235 -0.38520393 0.16644481 0.15765509
0.27258265 -0.024071857 -0.054780915 -0.38841128 -0.13716361 0.18991785 -0.0017190264 0.29744163
0.03848232 -0.038282715 -0.42033765 -0.1994385 -0.19093065 -0.07846152 0.24471754 -0.029711016
-0.011177951 0.2266738 0.100606516 0.05686837 0.08080192 0.14099334 0.057758495 0.07144278
-0.16309485 -0.124169305 0.026792737 -0.17214747 -0.105677046 -0.022070259 -0.39246595 -0.03301707
0.007681847 -0.23483263 -0.102789424 0.18096465 -0.06741138 -0.27496496 0.01288018 0.55239314
-0.2504163 -0.19536544 0.0003410357 0.16836798 0.33726916 -0.0027659438 0.23590054 -0.43091267
0.26539865 -0.0037867525 0.14069848 -0.17074366 -0.13690831 -0.44253445 0.34877083 -0.029054882
-0.032577436 0.06580884 0.31703147 -0.14692093 0.120357215 0.23433802 0.30455065 0.15912525
-0.17482097 -0.06491191 -0.026718907 -0.2798351 -0.11313485 0.06333166 0.13400891 0.21080971
