checkpoint_actor.pth (torch_old, 524663 bytes, 6 tensors)

fc1.weight f4 [400, 24]
0	0xbca459c0	-0.020062327
1	0xbc47a1fc	-0.012184616
2	0x3aba25e7	0.001420197
3	0xbd86763b	-0.065655194
4	0xbce5f7b6	-0.02807222
5	0xbd2f5a27	-0.042810585
6	0xbcfe055f	-0.03100842
7	0xbc8066f9	-0.015674101
8	0xbca4ed06	-0.020132553
9	0xbc3ce4b5	-0.011529137
10	0x3c789603	0.015172484
11	0xbd4321ff	-0.047639843
12	0x3c03d7fb	0.008047099
13	0x3c2675a0	0.01015988
14	0x3c94d225	0.018166611
15	0xbced93f3	-0.029001212
16	0xbd480714	-0.048834875
17	0xbd0c2dbb	-0.0342233
18	0x3d32c6fd	0.0436468
19	0x3c988993	0.018620288
20	0x3d9c5054	0.07632509
21	0xbcaccfe1	-0.021095218
22	0xba81f7b8	-0.0009915745
23	0xbd4a6d8a	-0.04942087
24	0x3cc816b0	0.02442488
25	0xbc8b5ec1	-0.017012956
26	0xbbd9f70b	-0.0066517643
27	0xbbbab216	-0.005697499
28	0x3d030bcc	0.031993672
29	0x3d182535	0.03714486
30	0x3cb1e61d	0.021716172
31	0x3d25b6cb	0.040457528
32	0x3cac2aaf	0.021016447
33	0x3c8f25fb	0.017474165
34	0xbd0f68e8	-0.035012156
35	0x3c9600a4	0.018310852
36	0x3c4ac68d	0.01237644
37	0xbd79ba32	-0.060968585
38	0x3a234774	0.0006228604
39	0x3c141c95	0.009040018
40	0xbcfb8919	-0.030705022
41	0x3c001fa8	0.007820047
42	0xbd141c8f	-0.036160048
43	0x3c710d98	0.014712714
44	0x3da699b4	0.08134785
45	0x3d1fbb67	0.03899708
46	0x3c6c8d41	0.014437974
47	0xbb98628b	-0.004650419
48	0xbcb61f7c	-0.02223181
49	0xbd5fd3d7	-0.054645386
50	0xbcc79cc6	-0.024366748
51	0x3b73d16e	0.0037203687
52	0x3d69f0d2	0.05711443
53	0xbdb4b8a3	-0.08824279
54	0xbc2d24c7	-0.01056785
55	0x3c56d271	0.013111697
56	0x3cb3ac0e	0.021932628
57	0x3c0974aa	0.008389631
58	0x3d72d3b4	0.059283927
59	0xbd5636b4	-0.052298263
60	0x3d3fda9a	0.046839334
61	0xbd9e3f21	-0.07726885
62	0xbc9c3b8c	-0.019071363
63	0xbd18b641	-0.037283186
64	0xbc52b8e4	-0.012861464
65	0x3d00ac56	0.031414352
66	0x3c4fbee9	0.012679794
67	0x3bdf91df	0.006822809
68	0x3d32b95e	0.04363381
69	0xbdd416a7	-0.10355883
70	0x3d3c3c85	0.045956153
71	0xbd0687e0	-0.032844424
72	0xbb513441	-0.0031922015
73	0x3b882110	0.004154332
74	0xbcdd4dab	-0.027014574
75	0xbca33612	-0.019923244
76	0xbd62183e	-0.0551989
77	0xbc0bac07	-0.008524901
78	0xbca3ff1e	-0.02001911
79	0xbc800ea1	-0.015631976
80	0x3c80db32	0.01572952
81	0x3cd603d5	0.026124874
82	0xbcbfd6ff	-0.023417948
83	0xbd0250db	-0.03181539
84	0x3cf03868	0.029323772
85	0x3d97225b	0.073796
86	0x3cad243e	0.021135446
87	0xbc0d5f4d	-0.0086286785
88	0xbba67666	-0.005080032
89	0xbd50cd46	-0.050977014
90	0x3d182c6c	0.03715174
91	0x3cd516f2	0.026011918
92	0x3d37ee84	0.0449052
93	0x3d2b697f	0.041848656
94	0x3d44c5e0	0.04804027
95	0x3c746355	0.014916261
96	0xbcf6a9de	-0.030110296
97	0x3ccc3f6c	0.024932586
98	0x3d8a9035	0.067657866
99	0xbd650537	-0.055913176
100	0xbcd52eb9	-0.026023256
101	0x3d41ec70	0.047344625
102	0x3cbf431e	0.023347434
103	0xbbcd453b	-0.0062643564
104	0xbc97c186	-0.018524896
105	0x3c73b16e	0.0148738455
106	0xbd0d2671	-0.03446049
107	0xbc3dc2e3	-0.011582109
108	0x3c66af17	0.014079831
109	0xbd762366	-0.060092352
110	0xbd1eefdd	-0.03880297
111	0xbd5e3e14	-0.05425842
112	0x3d56e5d6	0.052465282
113	0xbba077bb	-0.0048970855
114	0xbcd3d168	-0.025856689
115	0xbcc1500c	-0.02359774
116	0x3b989acd	0.0046571256
117	0xbb95151c	-0.0045496356
118	0xbd5e8ad4	-0.054331616
119	0xbd583b07	-0.052790668
120	0xbd10dc42	-0.035366304
121	0xbd303587	-0.043019798
122	0xbd012c9c	-0.031536683
123	0x3cbf28e6	0.023334932
124	0x3dac312b	0.084078155
125	0x3c9fbaef	0.019498317
126	0xbd13cc48	-0.03608349
127	0xbd1e51bc	-0.038652167
128	0xbd2592ab	-0.040423077
129	0xbd1ad3d1	-0.03779966
130	0x3d08f0eb	0.033432882
131	0x3d8614e8	0.06546956
132	0x3d8ff7a4	0.070296556
133	0xbd0cb944	-0.03435637
134	0xbc46b710	-0.012128606
135	0x3d713d1c	0.05889617
136	0xbd655e07	-0.055997875
137	0xbc6c501d	-0.014423397
138	0xbd0889d2	-0.03333456
139	0x3d9feae0	0.07808471
140	0x3e04590c	0.12924594
141	0x3d640d56	0.05567678
142	0xbcd0684f	-0.025440363
143	0x3ba2c43b	0.00496724
144	0xbc3db977	-0.011579863
145	0xba1eb3b9	-0.00060540024
146	0x3b8363a3	0.0040096804
147	0xbc2b27a3	-0.010446462
148	0xbd223768	-0.03960362
149	0x3dbc1efb	0.091855966
150	0x3d061580	0.032735348
151	0x3d400024	0.046875134
152	0x3d047a26	0.032343052
153	0xbd6d5816	-0.057945333
154	0xbd01ac98	-0.03165874
155	0x3d75baca	0.05999259
156	0xbca63801	-0.020290377
157	0x3dd413e9	0.1035536
158	0x3cba43ca	0.022737402
159	0x3d3b2814	0.04569252
160	0x3c87c76a	0.01657458
161	0xbd1a3ebd	-0.03765749
162	0x3c058e34	0.00815158
163	0x3d50dd26	0.050992154
164	0xbcd53d45	-0.026030192
165	0x3cb652b3	0.022256231
166	0x3d039ce7	0.032132056
167	0x3d12bd25	0.035824914
168	0xbd3f8444	-0.046756998
169	0x3d224f6c	0.039626524
170	0x3d0e20da	0.0346993
171	0x3c7b1f83	0.015327337
172	0x3c95476e	0.018222537
173	0xbd9193d2	-0.071082726
174	0xbcd31247	-0.025765551
175	0xbd243b78	-0.040095776
176	0xbd85243f	-0.06501054
177	0x3d362e1e	0.044477575
178	0xbd0f4a01	-0.034982685
179	0xbda102ac	-0.07861838
180	0xbd7b086b	-0.061287325
181	0xbd85c9eb	-0.065326534
182	0x3b7296b5	0.0037016098
183	0x3c90eb70	0.01769039
184	0x3b5ec901	0.003399432
185	0x3d2139ea	0.03936187
186	0x3d1c2fb4	0.03813143
187	0xbc02121a	-0.007938886
188	0xbc343a46	-0.011000222
189	0xba972928	-0.0011532651
190	0x3cc191d4	0.023629107
191	0x3c1f1c8c	0.009711396
192	0x3cc50eb0	0.024054855
193	0xbc6f34a2	-0.014599951
194	0x3d2ed43f	0.042682882
195	0x3cb6fcf3	0.022337412
196	0x3c1452bc	0.009052929
197	0xbd776460	-0.06039846
198	0x3d16daf5	0.036829907
199	0xbca6f6d6	-0.020381372
200	0xbd14885a	-0.036262847
201	0x3cd01fab	0.025405725
202	0x3cac4bc6	0.021032225
203	0xbd0d9b53	-0.034571957
204	0x3d34e844	0.04416682
205	0xbd916f16	-0.07101266
206	0x3c2d072e	0.010560794
207	0xbcdc9ae8	-0.026929334
208	0x3cb27983	0.021786457
209	0x3c0f7ef4	0.008758295
210	0x3b120c9a	0.0022285343
211	0xbd408664	-0.047003165
212	0x3d3bb720	0.04582894
213	0xbd32b0d7	-0.04362568
214	0x3b9829a3	0.0046436354
215	0xbc9d8ed5	-0.019233147
216	0xbcc4cc7e	-0.02402329
217	0xbbe69dfa	-0.0070378752
218	0x3d36e03b	0.044647437
219	0x3bb6a8f9	0.0055743423
220	0x3bb52f4f	0.0055293213
221	0xbdb3d36a	-0.087805584
222	0x3ca897d1	0.020580204
223	0xbcfdb1e0	-0.030968606
224	0xbd99f14f	-0.07516729
225	0xbc21abeb	-0.009867649
226	0xbc5f4f2f	-0.013629719
227	0xbdba997d	-0.09111307
228	0xbd4e3684	-0.05034496
229	0xbd522f3e	-0.051314585
230	0xbcaac329	-0.020845013
231	0xbd96f2f8	-0.07370561
232	0xbc2001a5	-0.009766017
233	0x3d0ade97	0.033903684
234	0x3d00ecae	0.031475715
235	0xbcc33fdd	-0.023834163
236	0xbd1764d1	-0.03696138
237	0xbd3f80a7	-0.04675355
238	0xbcc58704	-0.024112232
239	0xbb6bded1	-0.0035990963
240	0x3d722dbb	0.059125643
241	0xbcab4ee5	-0.020911643
242	0xbcf4d9c4	-0.029888995
243	0x3ce2dbc7	0.027692689
244	0xbb8aee64	-0.004239844
245	0xbd5ef92b	-0.054436844
246	0xbd686b14	-0.056742743
247	0xbcea5cb5	-0.02860866
248	0x3abc030f	0.0014344173
249	0x3d032b19	0.032023523
250	0x3c9d6d78	0.019217238
251	0xbcb640bb	-0.022247663
252	0x3c8b8ecb	0.017035862
253	0x3d47e5e7	0.048803236
254	0xbcc1dcfe	-0.023664948
255	0x3cdf5d86	0.027266275

fc1.bias f4 [400]
0	0x3e3d5efe	0.18493268
1	0x3d8d20d8	0.0689103
2	0xbcbcd4e1	-0.023050727
3	0x3e277204	0.16352087
4	0x3bdfc7d4	0.0068292413
5	0x3d6b53c7	0.057452943
6	0x3cca31c7	0.024681939
7	0xbdf8d275	-0.121495165
8	0xbd53fcbe	-0.051754706
9	0xbe372376	-0.17884621
10	0x3be9c514	0.0071340892
11	0xbe43df53	-0.1912816
12	0x3d306c82	0.04307223
13	0x3c943308	0.01809074
14	0x3db60565	0.08887748
15	0xbddbd175	-0.1073331
16	0x39b710e7	0.00034917073
17	0xbd12d393	-0.035846304
18	0xbde23942	-0.11046077
19	0x3e3883ce	0.1801903
20	0xbe294798	-0.16531217
21	0x3e1f9897	0.15585552
22	0xbb409d66	-0.0029390692
23	0xbdd03948	-0.101671755
24	0xbe440def	-0.1914594
25	0xbe3b8124	-0.18310982
26	0xbd683a02	-0.056695946
27	0x3e18d090	0.1492331
28	0x3d40413e	0.04693722
29	0xbe09ce1c	-0.1345753
30	0x3e3e9631	0.18611981
31	0x3e32a7d9	0.17446841
32	0x3dd19ef7	0.10235398
33	0x3e582368	0.21107256
34	0x3e27a4f1	0.16371514
35	0x3cd57102	0.026054863
36	0x3e1b4ba3	0.15165572
37	0xbdc4d8c3	-0.096116565
38	0xbc2c67c7	-0.010522789
39	0xbdc1aa56	-0.09456317
40	0xbd08b1ca	-0.033372678
41	0xbe275c47	-0.16343795
42	0x3e09ffeb	0.13476531
43	0xbd754b97	-0.05988654
44	0x3db4a715	0.08820931
45	0x3e578baf	0.21049379
46	0x3d9ef594	0.07761684
47	0x3cd6c670	0.02621767
48	0x3e663a0e	0.22483084
49	0xbe4d5025	-0.20050104
50	0x3e698813	0.22805814
51	0xbe286ba9	-0.16447319
52	0x3e5c1076	0.21490654
53	0x3d295b68	0.041346937
54	0xbde5822f	-0.11206471
55	0xbd73dc83	-0.05953647
56	0xbddd9e05	-0.108211555
57	0x3e088987	0.13333713
58	0x3e3f9bfb	0.18711846
59	0x3e041c3c	0.12901396
60	0x3e1f9901	0.1558571
61	0x3e561745	0.20907314
62	0xbe3441d3	-0.17603235
63	0x3db0f54b	0.08640536
64	0x3d28468d	0.041082907
65	0x3dfd7d63	0.12377431
66	0x3d5dd788	0.054160625
67	0x3cccefd5	0.025016705
68	0x3e0cddd3	0.13756494
69	0xbd8e2814	-0.06941238
70	0xbdfc1228	-0.123081505
71	0xbe12fdd0	-0.14354634
72	0x3e1facbd	0.15593238
73	0x3c6b300f	0.01435472
74	0xbe1aa3fd	-0.15101619
75	0x3da9c449	0.082893915
76	0xbc4686cf	-0.012117102
77	0xbe07d088	-0.13263142
78	0x3e47f9f4	0.19528943
79	0x3e01c93a	0.12674418
80	0x3e350a9c	0.17679828
81	0xbc3fad4b	-0.011699031
82	0xbdfa5b59	-0.122244544
83	0xbe2183c8	-0.15772927
84	0x3cf001db	0.02929776
85	0xbe166e4a	-0.1469051
86	0x3e0434ff	0.12910841
87	0xbe2c0366	-0.16798171
88	0xbde8ef13	-0.11373725
89	0x3d0a2d23	0.033734452
90	0x3daa4f80	0.08315945
91	0xbcf1a2e2	-0.029496614
92	0xbd1dddbe	-0.038541548
93	0xbdd586f7	-0.10426133
94	0xbd37d8ae	-0.044884376
95	0x3d18676e	0.037208013
96	0xbe240431	-0.16017224
97	0xbcae488d	-0.02127483
98	0xbc8c4679	-0.017123448
99	0x3caaaf88	0.020835653
100	0x3e23f634	0.16011888
101	0xbe2373d5	-0.15962155
102	0x3d8b474d	0.06800709
103	0x3dc654a8	0.09684116
104	0x3d8bfb87	0.068350844
105	0xbd287077	-0.04112288
106	0x3e031e5f	0.12804554
107	0xbe0345b9	-0.12819566
108	0xbd9506dc	-0.07276699
109	0xbc09999f	-0.0083984425
110	0xbc8f3f6a	-0.017486293
111	0xbe4e858c	-0.20168132
112	0x3de76acb	0.11299666
113	0x3e02475f	0.12722538
114	0xbe26eb9b	-0.16300814
115	0x3cae1843	0.021251803
116	0xbe2b0470	-0.16700912
117	0xbcf1dbc9	-0.029523747
118	0x3d36001f	0.04443371
119	0x3e352417	0.17689548
120	0x3e04058a	0.12892738
121	0x3dd27b8f	0.10277473
122	0x3cfa1e62	0.030532066
123	0xbe38a66f	-0.1803224
124	0xbd791244	-0.060808435
125	0x3e4a2844	0.19741923
126	0x3cace57a	0.021105517
127	0xbd2080ac	-0.03918521
128	0xbd9b1a48	-0.07573372
129	0x3e03e321	0.12879612
130	0x3e14512f	0.14484094
131	0xbcab2a5a	-0.020894218
132	0x3dbec9c5	0.09315828
133	0x3e1e77e8	0.15475428
134	0x3e1c18f7	0.15243898
135	0x3ddb6da1	0.107142694
136	0x3e144b33	0.14481811
137	0x3da6932e	0.08133541
138	0x3d61ebc0	0.05515647
139	0xbe3e8a04	-0.18607336
140	0xbce63970	-0.02810356
141	0xbd78c141	-0.060731176
142	0x3d88b28d	0.06674681
143	0xbce05938	-0.027386293
144	0xbe4797c4	-0.19491488
145	0x3e389438	0.18025291
146	0xbd958e59	-0.07302541
147	0xbe3214eb	-0.17390792
148	0xbd908c2b	-0.07057985
149	0x3d3e6091	0.04647881
150	0xbd8b3ec0	-0.06799078
151	0xbe3961c9	-0.18103708
152	0x3d98fcb8	0.07470077
153	0x3dad42e0	0.08460021
154	0x3e5f53f5	0.21809371
155	0xbe44192f	-0.19150232
156	0xbcf65b5a	-0.030072857
157	0xbd81b80a	-0.06333931
158	0xbd813f14	-0.06310859
159	0x3c46b6b3	0.01212852
160	0x3e48e435	0.19618304
161	0xbc17dd7f	-0.009269117
162	0x3e355cc0	0.17711163
163	0x3d0e078c	0.034675166
164	0xbde8a438	-0.11359447
165	0x38ebd2f5	0.00011244967
166	0x3dfcbd65	0.12340812
167	0x3e17d871	0.1482866
168	0xbd502cac	-0.050823852
169	0xbc01aa41	-0.007914127
170	0xbe1ee9ec	-0.15518922
171	0xbdea13e4	-0.11429575
172	0xbd46be2f	-0.048521217
173	0x3e01e63d	0.12685485
174	0x3c549de9	0.012977102
175	0x3db40b2f	0.087911956
176	0xbe27c38e	-0.16383192
177	0x3d41f353	0.047351193
178	0xbe1e29a7	-0.15445577
179	0xbd7db5fa	-0.061941124
180	0x3e340b8d	0.17582531
181	0x3cf7972e	0.030223455
182	0xbe1a3215	-0.15058167
183	0xbe5114bd	-0.20418067
184	0xbd1d2f4d	-0.038375188
185	0xbd95c360	-0.073126554
186	0xbe481881	-0.19540597
187	0x3df1a020	0.117981195
188	0x3cc9a1f4	0.024613358
189	0x3b8e21f2	0.0043375427
190	0x3e2db42a	0.16963258
191	0xbe4f2fa2	-0.20233014
192	0x3da0f861	0.078598745
193	0x3e241cf0	0.16026664
194	0x3d624c12	0.055248328
195	0x3dee14d3	0.11625066
196	0xbd633689	-0.05547193
197	0xbe453165	-0.19257124
198	0x3e4faed8	0.20281541
199	0xbe3bd8a1	-0.18344356
200	0xbd938a0e	-0.07204066
201	0x3e4f56ae	0.2024791
202	0xbdae6ce1	-0.08516861
203	0xbcd82b7e	-0.026387926
204	0xbdabe001	-0.08392335
205	0x3d672b85	0.056437988
206	0xbdb9ea30	-0.09077871
207	0x3d74ca92	0.0597635
208	0x3e4ffe7c	0.20311922
209	0xbe13da53	-0.14438753
210	0x3e0e80ce	0.13916323
211	0xbd29dc38	-0.041469783
212	0xbe4c24aa	-0.19935861
213	0x3dc54808	0.096328795
214	0xbe086c97	-0.13322674
215	0x3df82d7e	0.12118052
216	0xbc927922	-0.017880026
217	0xbdcc2d55	-0.09969584
218	0xbe3ee175	-0.18640693
219	0x3d7ffc10	0.062496245
220	0xbe56c71a	-0.20974389
221	0x3df3ca04	0.11903766
222	0x3dd6c60b	0.104869924
223	0xbe2e51e5	-0.17023428
224	0x3dc55347	0.096350245
225	0xbe20a095	-0.15686257
226	0x3cb8367e	0.022486921
227	0xbd358dbe	-0.04432463
228	0x3e2541a4	0.16138321
229	0xbe048bdb	-0.12943976
230	0xbd6c5f3c	-0.05770801
231	0xbd85b730	-0.06529081
232	0xbb4ce79a	-0.0031265975
233	0x3c501410	0.012700096
234	0xbdd92288	-0.106022894
235	0x3d855b68	0.06511575
236	0x3cdd30af	0.027000753
237	0xbd9dd915	-0.07707421
238	0x3d396e52	0.045271225
239	0x3e349f33	0.17638855
240	0x3df767fe	0.12080382
241	0x3db56b4b	0.08858355
242	0xbd48b41f	-0.0489999
243	0xbe107433	-0.14106826
244	0x3e08c2ba	0.13355532
245	0x3d5a4fde	0.053298824
246	0x3cf13180	0.029442549
247	0x3dfe880f	0.12428295
248	0xbdbbe08c	-0.09173688
249	0xbe3e06ef	-0.18557332
250	0xbe179fd1	-0.14807059
251	0xbe2c5185	-0.16827972
252	0x3e100f9f	0.14068459
253	0x3e0cdc09	0.13755812
254	0xbd4bfd64	-0.0498022
255	0xbd0dfa2b	-0.034662407

fc2.weight f4 [300, 400]
0	0x3ce8c387	0.028413547
1	0x3ce045a6	0.027376961
2	0xbcd0775c	-0.02544754
3	0x3d656962	0.056008704
4	0x3d4d2fe6	0.050094508
5	0x3db7fd30	0.089838386
6	0x3d1c0dc1	0.038099054
7	0xbc280118	-0.010254167
8	0x3d5b7edb	0.053587776
9	0xbbf1d6bf	-0.007380336
10	0x3bd1524f	0.006387986
11	0x3d85b59e	0.06528781
12	0xbcad4660	-0.021151721
13	0x3c3d4e64	0.011554334
14	0xbd23d63e	-0.03999924
15	0xbbdc7f22	-0.0067290226
16	0xbc11b91e	-0.008894233
17	0x3d9cab7d	0.07649896
18	0xbcb59ff5	-0.022171
19	0xba4837b4	-0.0007637695
20	0x3c96e9f7	0.01842211
21	0x3b8b7bc0	0.0042566955
22	0x3d897659	0.06712026
23	0xbd0fd24b	-0.03511266
24	0xbb3a10d2	-0.0028391373
25	0xbc1ef0cb	-0.009700964
26	0x3d8aa808	0.06770331
27	0x3d6f38ec	0.058403894
28	0xbc8c6e4a	-0.017142434
29	0xbcecb91e	-0.028896865
30	0x3cd5f9b2	0.02612004
31	0x3d82d459	0.06388158
32	0xbba7e6b7	-0.005123939
33	0xbb5a4a1a	-0.0033308328
34	0x3dcf58f8	0.10124391
35	0x3d6ec03d	0.0582888
36	0x3d7354ed	0.059407163
37	0xbd267581	-0.040639404
38	0x3d724cbb	0.059155207
39	0x3d85f1b5	0.065402426
40	0x3d92e9fc	0.07173535
41	0xbc840688	-0.016116396
42	0xbbe47a5e	-0.006972595
43	0x3c957001	0.018241884
44	0xbc944c1c	-0.018102698
45	0x3ba3bace	0.004996634
46	0x3d734dc1	0.059400324
47	0x3d1a9527	0.0377399
48	0x3d42eaee	0.047587328
49	0xbd19be4e	-0.037535004
50	0x3d8af20e	0.067844495
51	0xbd63ae58	-0.05558619
52	0xbd3e73d9	-0.0464972
53	0x3c146d6a	0.0090592895
54	0x3d4cacbf	0.04996943
55	0xbd4adaff	-0.049525257
56	0xbd2abe26	-0.041685246
57	0xbc3e2ce5	-0.011607383
58	0x3bf183f1	0.007370465
59	0xbcae4342	-0.021272305
60	0xbd1496c0	-0.03627658
61	0x3c848e5e	0.016181167
62	0xbd0dee73	-0.03465123
63	0xbcf470bf	-0.029838918
64	0x3d09b65a	0.03362117
65	0x3d730375	0.05932947
66	0x3cd6f135	0.026238063
67	0x3c2f1295	0.010685583
68	0x3c92ccda	0.017919946
69	0xbd4b1c7c	-0.04958771
70	0x3ca7eb9a	0.020498086
71	0x3cbd6420	0.023119032
72	0x3d2429f0	0.040079057
73	0x3d0b264f	0.03397208
74	0x3d50b5b7	0.050954547
75	0x3d2b4ece	0.0418232
76	0x3d77ca2c	0.06049554
77	0x3b19ffd5	0.0023498435
78	0xbd0c0941	-0.034188513
79	0x3d19e868	0.037575155
80	0x3c44b9d6	0.012007197
81	0xbc3f5e6e	-0.011680229
82	0x3d691f0c	0.056914374
83	0x3bbff385	0.005857887
84	0x3c356582	0.011071565
85	0x3d5ecd0f	0.054394778
86	0x3730df64	1.054243e-05
87	0xbc8d9967	-0.017285062
88	0xbd0f338c	-0.03496127
89	0xbcd71e2f	-0.02625951
90	0x3d109b6f	0.035304483
91	0xbd0a37b2	-0.03374452
92	0x3d01025a	0.031496383
93	0xbd0cf8cd	-0.034416962
94	0x3c9cd4e6	0.019144487
95	0xbb16dad0	-0.0023018606
96	0xbce6e42b	-0.02818497
97	0xbbcf0a35	-0.0063183554
98	0x3bb9a917	0.005665909
99	0x3cbdb31a	0.023156691
100	0x3ca6c3ca	0.020357031
101	0xbcaa5263	-0.020791238
102	0xbd4e76a3	-0.05040611
103	0x3d4eb94d	0.050469685
104	0x3d6c8ece	0.057753377
105	0x3c882fe8	0.016624406
106	0x3c8d85db	0.017275741
107	0x3c3b2a00	0.011423588
108	0x3c215110	0.009845987
109	0x3d8e58a5	0.06950501
110	0xbd05a3fb	-0.032627087
111	0x3c82e6c3	0.015979176
112	0x3cfac68e	0.030612256
113	0x3cd48cf6	0.025946122
114	0x3caf74b6	0.021417957
115	0x3d25c857	0.040474262
116	0x3c71dcd4	0.014762122
117	0x3b243457	0.002505561
118	0x3ce804f4	0.028322674
119	0x3d44e03c	0.04806541
120	0x3cbc638e	0.02299669
121	0xbc0df355	-0.008663972
122	0x3d3acbce	0.04560452
123	0x3d0cdd94	0.034391
124	0x3c65c1de	0.014023272
125	0x3d84e4b0	0.06488931
126	0xbcdf6b83	-0.027272945
127	0x3cd02494	0.025408067
128	0xbd2d70a4	-0.04234375
129	0x3d8eed82	0.06978895
130	0x3d956d47	0.072962336
131	0xbcb9fa77	-0.022702439
132	0x3ca333f9	0.019922243
133	0x3d2b0ca6	0.04176011
134	0x3cd51f26	0.02601583
135	0x3d7c2aae	0.06156414
136	0x3d18b10c	0.03727822
137	0x3c9f0ac7	0.019414319
138	0xbca6d962	-0.020367328
139	0xbd518a27	-0.051157143
140	0x3d887ccf	0.0666443
141	0x3b4ce2f6	0.003126321
142	0x3b6a5d3a	0.0035761134
143	0x3b4915d8	0.0030683186
144	0xbca498c7	-0.020092381
145	0xbd06e776	-0.032935582
146	0x3cb3d3ec	0.021951638
147	0x3d638f07	0.055556323
148	0x3d69bcba	0.05706475
149	0x3d199440	0.037494898
150	0xbc318fb2	-0.010837482
151	0xbc85b102	-0.016319755
152	0xbd280fd3	-0.041030716
153	0xbcf95643	-0.03043664
154	0x3d259087	0.040421035
155	0x3c122386	0.008919602
156	0x3d1e918f	0.038713034
157	0x3bdb3488	0.006689612
158	0xbc94fbb1	-0.018186422
159	0x3cb3f68c	0.021968149
160	0xbd18f1e9	-0.03734008
161	0x3b8479dd	0.0040428475
162	0x3d59fa09	0.053216968
163	0xbce97fdd	-0.028503353
164	0xbb81d773	-0.003962451
165	0xbd07c0b1	-0.03314275
166	0xbc58c480	-0.013230443
167	0x3d48bb0b	0.049006503
168	0x3d0f3f24	0.034972325
169	0xbc702db4	-0.014659334
170	0x3d8f6da4	0.07003334
171	0xbc465960	-0.01210627
172	0x3ce348f2	0.027744744
173	0x3d865f2a	0.0656112
174	0xbc4db9af	-0.012556477
175	0xbd289778	-0.041160077
176	0x3cede4f1	0.029039832
177	0x3d504923	0.050851
178	0xbb9c1d22	-0.004764215
179	0xbd3fc2fd	-0.046816815
180	0x3d20354e	0.039113335
181	0x3cbfdc4f	0.023420481
182	0xbc91d7a7	-0.017803026
183	0x3cd8cc4b	0.026464602
184	0x3d281a5f	0.041040774
185	0xbd1707ea	-0.03687278
186	0xbd63cf96	-0.05561789
187	0x39b337a2	0.0003418299
188	0x3d369ba3	0.04458202
189	0xbae7e3f4	-0.0017691837
190	0x3d628c8a	0.05530981
191	0x3cbe2e35	0.023215393
192	0x3c1cda11	0.009573475
193	0xbd2eccaf	-0.04267567
194	0xbd27d343	-0.04097296
195	0xbcb3a63c	-0.021929853
196	0xbb3f7cc8	-0.0029218663
197	0xbd0fb403	-0.035083782
198	0xbc954ba2	-0.018224541
199	0x3d275366	0.04085102
200	0x3cd6da8e	0.026227262
201	0x3d2d52cf	0.0423153
202	0x3cbd9690	0.023143083
203	0x3d04be3a	0.032407977
204	0x3cba8693	0.022769248
205	0x3d49d170	0.049272
206	0x3b97ab42	0.00462857
207	0xbcd1dc92	-0.025617871
208	0xbcec18e4	-0.028820463
209	0xbd4bcc6c	-0.0497555
210	0x3d01f886	0.03173115
211	0xbb691a11	-0.0035568515
212	0xbcfb8772	-0.030704234
213	0x3d916c44	0.07100728
214	0x3d6e1dc9	0.058133874
215	0xbb82f983	-0.0039970293
216	0x3d424ccb	0.047436517
217	0x3d06cb1c	0.032908544
218	0xbd1d71a1	-0.038438443
219	0x3c29ddad	0.010367793
220	0xbd67d3c9	-0.05659846
221	0xbb042ae4	-0.0020167166
222	0xbd0dc96a	-0.03461591
223	0x3c03ce04	0.008044723
224	0xbbcdaacb	-0.0062764636
225	0xbc01f854	-0.007932741
226	0x3b16bc83	0.0023000545
227	0x3d8d93a6	0.06912927
228	0x3cfeff2e	0.031127539
229	0x3af9f6fd	0.0019070801
230	0xbd19b3c3	-0.03752495
231	0xbd31dc7b	-0.043423157
232	0x3cad2fdb	0.021140983
233	0xbd57005d	-0.05249058
234	0xbb38e18a	-0.0028210604
235	0x3d748077	0.059692826
236	0x3c9b98c2	0.018993739
237	0x3d4b33ef	0.049610075
238	0xbc7b341b	-0.015332247
239	0x3d488209	0.048952136
240	0xbbed1f7f	-0.0072364206
241	0xbd082792	-0.033240862
242	0xbc7090e3	-0.014682981
243	0xbd0fe501	-0.035130505
244	0xbc0a0b75	-0.008425583
245	0x3d077484	0.033070102
246	0x3d8acc9c	0.067773074
247	0x3bdb43eb	0.006691446
248	0xbb9d9dd4	-0.0048100743
249	0x3d0c358e	0.03423076
250	0x3d1cbf60	0.038268447
251	0x3b943d98	0.004523944
252	0x3d0f9dee	0.035062723
253	0xbcf33fd6	-0.029693525
254	0x3c82ef7b	0.015983334
255	0x3c21df79	0.00987994

fc2.bias f4 [300]
0	0x3ce5f13a	0.028069127
1	0x3d3abff8	0.045593232
2	0x3d5aaa18	0.05338487
3	0x3c9b5eec	0.01896616
4	0x3c8009e1	0.01562971
5	0x3d6532c9	0.055956636
6	0x3b376675	0.0027984653
7	0xbb6d7b5a	-0.0036236853
8	0x3cc35db1	0.023848386
9	0xbc21b578	-0.009869926
10	0x3d0c3c16	0.03423699
11	0x3ca0161d	0.019541794
12	0x3c2a286c	0.010385614
13	0x3c112c93	0.008860725
14	0x3ceb29b6	0.028706413
15	0xbd382f19	-0.04496679
16	0xbb811f8a	-0.0039405273
17	0x3d1e969d	0.038717855
18	0x3d48d098	0.049027056
19	0x3c974ad1	0.018468292
20	0xbcefe2e7	-0.029283
21	0xbcae0a29	-0.02124508
22	0x3d298547	0.04138687
23	0x3ca50fe9	0.020149188
24	0x3d355dee	0.04427903
25	0x3d46cab3	0.048533153
26	0x3b50f77b	0.003188579
27	0xbcc5b9ba	-0.024136413
28	0x3d01af78	0.03166148
29	0x3d83fa15	0.06444184
30	0x3d4d8ea2	0.050184853
31	0xbd08ca05	-0.033395786
32	0x3d678259	0.056520794
33	0x3d0fbf23	0.03509439
34	0x3d576158	0.05258307
35	0x3cdd5c6c	0.02702161
36	0xbc8c7098	-0.017143533
37	0x3d2bedbb	0.041974764
38	0xbd25ffb8	-0.040527076
39	0x3c974c3e	0.018468972
40	0xbcbc91a7	-0.023018671
41	0x3c1d0a4f	0.009584977
42	0x3d2bae10	0.041914046
43	0x3a1020b6	0.00054980384
44	0x3d265537	0.04060861
45	0xbb5d74b4	-0.0033791484
46	0xbc6a2dd8	-0.014293157
47	0xbcfb6819	-0.030689286
48	0x3c84e9d0	0.016224772
49	0x3d2a1d34	0.041531757
50	0x3c00353f	0.007825195
51	0x3c755132	0.014972972
52	0xbab66a51	-0.0013917183
53	0xbad83f69	-0.001649839
54	0xbd0c61d8	-0.034273
55	0xb8ed4f67	-0.000113158305
56	0x3cfc2846	0.030780923
57	0x3d6c8072	0.057739682
58	0x3970ecfc	0.00022976467
59	0xbc70d159	-0.01469835
60	0x3d1e0284	0.038576618
61	0xbca70c8d	-0.020391727
62	0xbc83e6a6	-0.016101193
63	0xbccbd0e4	-0.02487988
64	0xbd181c4c	-0.03713636
65	0xbb2e5ad1	-0.0026604424
66	0x3d3c1148	0.04591492
67	0xbce61e35	-0.028090576
68	0x3c4f10c6	0.012638276
69	0x3d2c73fa	0.04210279
70	0x3d363236	0.04448148
71	0xbc5baed6	-0.013408383
72	0xbbfa0ed2	-0.0076311613
73	0xbbd5e7a9	-0.00652786
74	0x3d4ed41d	0.050495256
75	0x3d5b0f9f	0.053481694
76	0xb85f40be	-5.322764e-05
77	0x3c800c75	0.01563094
78	0x3c89d16d	0.016823495
79	0xbc817c42	-0.015806321
80	0x3b9c4df8	0.004770037
81	0xbd63d9f5	-0.055627782
82	0xbcd3b772	-0.02584431
83	0xbd32ffb4	-0.04370089
84	0xbd06b9ed	-0.032892156
85	0xbd0339cf	-0.032037552
86	0x3b02bf47	0.0019950436
87	0xbcf677a0	-0.030086339
88	0xbc5314a1	-0.012883336
89	0xbc98b247	-0.018639697
90	0x3be359bd	0.006938188
91	0x3c8eb70e	0.017421272
92	0x3b480e2a	0.003052602
93	0xbd4be875	-0.049782235
94	0x3cffcbaf	0.031225054
95	0x3c2f4161	0.01069674
96	0x3c9bfeaa	0.019042332
97	0xbc58504b	-0.013202737
98	0xbc4dab24	-0.01255301
99	0x3ca8e328	0.020616129
100	0xbd007c12	-0.031368323
101	0xbd39fec8	-0.045408994
102	0xbc866310	-0.016404659
103	0xbd11f8fe	-0.035637848
104	0xbc57abe1	-0.013163538
105	0x3d265bfd	0.04061507
106	0xbd1c41c2	-0.03814865
107	0xbd2cb2d2	-0.042162724
108	0x3d157edf	0.036497947
109	0xbcdb5a9e	-0.026776608
110	0x3d5e86f5	0.054327924
111	0x3c49ea69	0.012323954
112	0x3d1c113f	0.038102385
113	0x3c33092d	0.010927481
114	0xbc64885e	-0.013948528
115	0xbc5e264d	-0.013558936
116	0x3d3d93a9	0.046283398
117	0x3b8cf5c5	0.004301759
118	0x3cba598a	0.022747774
119	0xbd0a4e80	-0.03376627
120	0x3d8c8464	0.06861189
121	0xbc2e3d8b	-0.01063479
122	0xbcacf1d9	-0.021111416
123	0x3cde0f22	0.027106825
124	0xbc736b24	-0.014857087
125	0x3ae79e91	0.0017671158
126	0x39979f4a	0.00028919644
127	0x3d3bce55	0.04585107
128	0x3ccd01ba	0.025025237
129	0x3d4595b5	0.048238475
130	0x3d900a5d	0.07033227
131	0x3c16138c	0.009159934
132	0x3c2b4c4f	0.010455205
133	0xbcbc2fe8	-0.022972062
134	0x3977e695	0.00023641654
135	0x3d52d437	0.051471915
136	0x3d698cbc	0.05701898
137	0xbd3705ba	-0.044683196
138	0x3cac8651	0.02106014
139	0xbce3c5bc	-0.027804248
140	0x3d2a6785	0.04160263
141	0x3d225527	0.03963199
142	0x3b6895c6	0.0035489663
143	0x3ca4487e	0.020054098
144	0xbc9c811c	-0.019104533
145	0x3dc4c479	0.09607787
146	0xbc353537	-0.011060051
147	0xbca224d0	-0.019792944
148	0xbc135a1c	-0.008993652
149	0x3ca27a6c	0.019833766
150	0x3d637e5c	0.055540428
151	0x3ba38a11	0.004990824
152	0xbceb40be	-0.028717395
153	0xbcb5df01	-0.022201063
154	0xbc2ffe91	-0.010741846
155	0xbbd72ede	-0.0065668663
156	0xbd4c5921	-0.049889687
157	0x3cd72797	0.026263995
158	0x3d3928fa	0.045205094
159	0x3d57b1e9	0.052659903
160	0xbc68fcc7	-0.014220423
161	0x3a37914a	0.0007002546
162	0x3cc0590e	0.023479965
163	0x3c0db5e0	0.008649319
164	0x3cb914d1	0.022592934
165	0xbc4ed6ed	-0.0126244845
166	0x3d302d15	0.043011744
167	0xbbbadc24	-0.0057025123
168	0x3cc709d9	0.024296688
169	0xbc11ebd8	-0.008906327
170	0x3cffdaf3	0.031232333
171	0x3c5d0a99	0.013491296
172	0x3c6a95a6	0.0143179055
173	0x3d16713c	0.036729082
174	0x3ccc9dc9	0.024977582
175	0x3ca7cc24	0.020483084
176	0x3d0990e7	0.033585455
177	0x3d2e434b	0.042544644
178	0xbd069be7	-0.032863524
179	0xbcc48516	-0.023989242
180	0x3d31378b	0.04326586
181	0x3d2750e9	0.040848646
182	0x3d811f75	0.06304828
183	0x3d449395	0.047992308
184	0x3baa4d98	0.005197238
185	0x3d978cb9	0.073998876
186	0xbd15ad2f	-0.036542114
187	0xbcc76c5e	-0.024343666
188	0x3d75a0a4	0.059967652
189	0xbd60bed8	-0.054869503
190	0x3c430e7f	0.011905312
191	0x3c877628	0.016535833
192	0x3d27bfdb	0.040954452
193	0x3d3a4832	0.045479007
194	0x3d42da3d	0.04757141
195	0xbc4a89f3	-0.012361991
196	0xbd14b406	-0.036304496
197	0x3d31b8e5	0.04338922
198	0x3c43e859	0.0119572515
199	0xbacbd597	-0.0015551326
200	0x3d2684e1	0.040654067
201	0x3d638629	0.055547867
202	0x3cce4998	0.025181577
203	0x3cb21610	0.021739036
204	0xbca5234b	-0.02015843
205	0x3d7f0ef2	0.062270112
206	0x3c251a1d	0.010077027
207	0xbcdd8e53	-0.027045405
208	0xbc4cd6b6	-0.012502363
209	0x3c0c6fd0	0.00857158
210	0xbce53b62	-0.027982417
211	0x3d4c12ea	0.049822725
212	0x3b795879	0.0038047119
213	0xbb610586	-0.0034335568
214	0xbbc155a6	-0.0059001027
215	0x3d5aa511	0.053380076
216	0xb922ee69	-0.00015538339
217	0x3cbdc665	0.023165891
218	0xbd27535b	-0.04085098
219	0xbd55b43d	-0.05217384
220	0x3c9924c5	0.01869429
221	0x3be47714	0.006972203
222	0xbc1cc703	-0.0095689325
223	0x3d0759b1	0.03304452
224	0xbc0b070c	-0.008485567
225	0x3c8c654f	0.017138151
226	0x3b48ab87	0.0030619816
227	0x3cc8c4fd	0.024507994
228	0x3cc6e3c3	0.024278527
229	0xbce69bec	-0.028150521
230	0x3d1252c3	0.03572346
231	0xbc5fa7da	-0.013650859
232	0xbcf2ce0a	-0.029639263
233	0x3c9999e2	0.018750135
234	0x3cb00bb1	0.02148995
235	0x3d18bfb0	0.037292182
236	0xbd2f2a73	-0.042765092
237	0xbbc97b30	-0.0061487183
238	0x3d209730	0.039206684
239	0x3c8a0e63	0.016852563
240	0xbd4f5b16	-0.050623976
241	0x3d7956c2	0.060873754
242	0x3d53079f	0.05152094
243	0xbc03c890	-0.008043423
244	0x3cb048fc	0.021519177
245	0xbc3c7ad4	-0.011503894
246	0x3d5ec37d	0.05438565
247	0xbc59b947	-0.0132888025
248	0xbc89a50a	-0.01680233
249	0x3c8a99a2	0.016918961
250	0xbc935ec2	-0.01798952
251	0x3bec6db3	0.0072152256
252	0x3ccdd4d1	0.025125893
253	0x3d37baa5	0.044855732
254	0xbcd67800	-0.026180267
255	0x3ca03bb8	0.019559726

fc3.weight f4 [2, 300]
0	0x3c6692f6	0.014073124
1	0xbc61825a	-0.013763988
2	0x3af6363f	0.0018784477
3	0x3cd81426	0.026376795
4	0xbbdf15b6	-0.006808008
5	0x3c32d806	0.010915762
6	0x3c55de48	0.013053484
7	0x3c76e7d7	0.015069923
8	0x3c86f68c	0.016474985
9	0x3c3e18d5	0.0116026
10	0x3caf4f7d	0.021400208
11	0x3c930b61	0.017949762
12	0x3c2774ab	0.010220687
13	0x3c1f0b2c	0.009707253
14	0x3c53e7e4	0.012933705
15	0x3c364913	0.011125821
16	0x3c457f89	0.0120543325
17	0x3be14f6c	0.006875923
18	0x3d1448f6	0.036202393
19	0x3c15c30c	0.009140741
20	0x3c4dbd72	0.012557374
21	0xbbbc95a5	-0.0057551437
22	0x3d3c39bd	0.0459535
23	0x3b696295	0.0035611738
24	0x3c3a1059	0.011356437
25	0x3be5548f	0.0069986056
26	0x3c9380fc	0.01800584
27	0xba6f179a	-0.00091206434
28	0x3b970ab3	0.0046094297
29	0xbb27e0b1	-0.0025616104
30	0x3c5cdfbe	0.013481079
31	0x3bef32e5	0.0072997683
32	0x3c9c8062	0.019104186
33	0x3c5a6dc8	0.013331838
34	0x3c55472a	0.013017455
35	0xbc9a9637	-0.018870456
36	0x3c67eeab	0.014156024
37	0x3c361e33	0.0111155985
38	0x3c587287	0.013210899
39	0x3d79a181	0.060945038
40	0x3bd76366	0.0065731285
41	0x3b941dbb	0.0045201457
42	0x3c7aaa7d	0.015299437
43	0x3c80d4ed	0.01572653
44	0x3c8493e8	0.016183808
45	0x3c639f4a	0.013892958
46	0x3c5022a4	0.0127035715
47	0x3c4b4ca9	0.012408414
48	0x3c4f3e21	0.01264909
49	0x3d6ce45d	0.05783497
50	0x3c215daf	0.009848996
51	0x3c423ba3	0.011855039
52	0x3d0b7b34	0.034053043
53	0x3c679d39	0.014136606
54	0x3bc90994	0.006135175
55	0x3c9d9a6a	0.01923867
56	0x3c785b64	0.015158508
57	0x3cf745eb	0.030184707
58	0x3c626d21	0.013819964
59	0x3c048349	0.008087941
60	0x3bd4707b	0.0064831353
61	0x3c408af6	0.011751881
62	0xbbecbbf4	-0.007224554
63	0x3c24080a	0.010011682
64	0x3c267dda	0.010161841
65	0x3bdbf354	0.0067123566
66	0xbbe42c92	-0.006963321
67	0x3c671597	0.0141042685
68	0x3bde9d35	0.006793643
69	0x3c1216b0	0.008916542
70	0x3c5a1cba	0.013312513
71	0x3c500d5e	0.0126984995
72	0x3c39c8c4	0.01133937
73	0x3c3708ed	0.011171562
74	0x3c5002cb	0.012695978
75	0x3b1b9f10	0.0023745932
76	0x3c5d7e54	0.0135188885
77	0x3c3af821	0.011411698
78	0x3c30c623	0.010789427
79	0xbc2dbc64	-0.010603998
80	0xbb7500e4	-0.0037384564
81	0x3c11a4a7	0.008889354
82	0x3ca660c2	0.02030981
83	0x3c367d63	0.011138293
84	0xbcc4c56c	-0.02401992
85	0x3c17dae5	0.009268497
86	0x3d411649	0.047140393
87	0x3c85ea26	0.016347002
88	0x3c12d961	0.00896296
89	0x3c057092	0.008144515
90	0x3c46f537	0.012143425
91	0x3c43bcf0	0.011946902
92	0x3d32a715	0.043616373
93	0x3c534b54	0.012896378
94	0x3bdd60b3	0.006755912
95	0x3c3cc37b	0.011521216
96	0x3c750e2d	0.014956993
97	0x3c97e685	0.018542537
98	0x3c8497de	0.016185697
99	0x3c5a4e79	0.013324373
100	0x3c4e6c62	0.012599083
101	0x3c088a85	0.008333807
102	0x3b423184	0.0029631564
103	0x37b42c7c	2.1478387e-05
104	0x3c75b4b3	0.014996695
105	0x3dc3db17	0.095632724
106	0x3c5414f5	0.01294445
107	0xbd04b2a8	-0.032396942
108	0xba6c3440	-0.00090104714
109	0x3af16c7b	0.001841917
110	0x3c6cdf62	0.0144575555
111	0x3caa4db9	0.020789014
112	0xbb4b8fc4	-0.0031061033
113	0x3c69db40	0.014273465
114	0x3c4bbfab	0.012435834
115	0xbcfddfae	-0.030990448
116	0x3c1fae0a	0.009746084
117	0xb9bef306	-0.0003642069
118	0x3c38d405	0.011281018
119	0x3be546fb	0.006996987
120	0x3d992262	0.07477261
121	0x3c3f020f	0.011658206
122	0x3b401a0d	0.0029312402
123	0x3c94c445	0.018159995
124	0x3ca41dd5	0.020033756
125	0x3c68f924	0.014219556
126	0x3c13a2cb	0.009010981
127	0x3d3a3e20	0.045469403
128	0x3b07cfaa	0.0020723143
129	0x3cc1d5c5	0.023661504
130	0xbb3e8b74	-0.002907482
131	0x3c70e8ed	0.014703971
132	0x3d2255ec	0.039632723
133	0x3b76d3bd	0.0037662827
134	0xbcda18ab	-0.02662309
135	0x3c902123	0.017593926
136	0xbc584b31	-0.013201521
137	0x3c50255e	0.0127042215
138	0x3c95567b	0.018229714
139	0x3d0a71e5	0.033800025
140	0x3c61812b	0.013763706
141	0x3cefa2f8	0.029252514
142	0x3b473763	0.0030398003
143	0x3c6b44ba	0.014359647
144	0x3c3bb1c7	0.01145596
145	0x3db7f7a8	0.089827836
146	0x3c92d9ce	0.017926123
147	0x3c5a508f	0.013324871
148	0xbc717794	-0.014737982
149	0x3c94ea0b	0.018178007
150	0x3c6df5d3	0.014523941
151	0x3bcbf2c6	0.006224009
152	0xbcf042d7	-0.029328747
153	0x3c648561	0.013947816
154	0x3c90c477	0.017671807
155	0x3c592754	0.013254005
156	0x3bcd7244	0.006269725
157	0x3c41089d	0.011781839
158	0xbbb99760	-0.0056637973
159	0x3cc32c36	0.023824792
160	0x3d143b43	0.03618933
161	0x3c717919	0.014738345
162	0xbc86a5dc	-0.01643651
163	0x3ca64794	0.020297803
164	0x3cd469ae	0.025929298
165	0x3a0f3f0b	0.0005464411
166	0x3c23ca5d	0.009996978
167	0xbc0b3ee0	-0.008498877
168	0x3d1b6b09	0.037943874
169	0xbb993615	-0.0046756365
170	0x3c6f17e4	0.014593098
171	0x3b812030	0.0039406046
172	0xba36bb6d	-0.00069706776
173	0x3c8600a6	0.016357731
174	0x3ba371d0	0.0049879327
175	0x3c28aacd	0.010294628
176	0x3c4f9a4d	0.0126710655
177	0x3d220e21	0.039564256
178	0xbc910004	-0.017700203
179	0xbb7707ae	-0.0037693786
180	0x3c88a9d8	0.01668255
181	0x3c374eb7	0.011188201
182	0x3c95da03	0.018292433
183	0x3bfd5e00	0.007732153
184	0x3bdcbbe3	0.006736265
185	0x3ad51bb4	0.0016258867
186	0x3b8fab1c	0.0043844115
187	0x3cafa97c	0.021443121
188	0x3ba7c9ff	0.0051205154
189	0xbce31832	-0.027721498
190	0xbbb24e4d	-0.005441463
191	0x3beb7596	0.007185648
192	0x3b279ea1	0.0025576728
193	0x3d5d775c	0.054068908
194	0x3cd77ab6	0.02630363
195	0xbbee46ef	-0.0072716395
196	0x3aa96d71	0.0012926293
197	0x3bfd66d9	0.0077332077
198	0x3c5256ef	0.012838109
199	0x3bb9a38e	0.005665249
200	0x3c6f7837	0.014616064
201	0x3c92dd6a	0.017927844
202	0x3c3ab22e	0.01139502
203	0x3c3eb4cc	0.011639785
204	0x3c3f20cf	0.011665537
205	0xbd275fd9	-0.04086289
206	0x3c12c73f	0.008958637
207	0x3c3d3f18	0.011550687
208	0x3cd7df66	0.026351642
209	0x3c6a4adc	0.014300074
210	0xbc591cea	-0.013251523
211	0x3c882541	0.016619327
212	0x3c5f243e	0.013619481
213	0x3b81434d	0.0039447905
214	0x3b163260	0.002291821
215	0x3c42fa3a	0.011900479
216	0xbc93de6c	-0.018050395
217	0x3c3ae9ae	0.011408253
218	0x3c6fe975	0.014643063
219	0x3b9a335e	0.0047058305
220	0xbb3f7bdd	-0.0029218115
221	0x3c658c00	0.014010429
222	0x3c97715e	0.018486675
223	0x3bc0423f	0.005867272
224	0xbbfc1da8	-0.007693965
225	0x3b241dc8	0.0025042165
226	0x3c6c9e91	0.014442102
227	0x3c23db94	0.010001082
228	0x3d054782	0.0325389
229	0x3c17415a	0.00923189
230	0x3c58bbd9	0.01322838
231	0xba9b0df3	-0.0011829719
232	0x3b91cc7f	0.0044494267
233	0xbca9f1bd	-0.020745153
234	0x3c3c011f	0.011474877
235	0xbc852fcd	-0.016258145
236	0x3c2281f9	0.009918683
237	0x3c861ccc	0.016371153
238	0x3c4f6218	0.012657665
239	0x3c470a7a	0.012148494
240	0x3a1c2a8c	0.0005957268
241	0x3d278df5	0.040906865
242	0x3c840217	0.016114278
243	0x3da89368	0.082312405
244	0x3c820a25	0.015873978
245	0x3ae1bbda	0.0017222122
246	0x3c5141fd	0.0127720805
247	0x3ca204a1	0.019777598
248	0x3c80ba3d	0.015713805
249	0x3c35fd54	0.011107761
250	0x3c0045c3	0.0078291325
251	0x3d5795da	0.052633144
252	0xbad4ded5	-0.0016240726
253	0x3c676815	0.014123936
254	0xb9dc4a10	-0.0004201685
255	0x3c732d87	0.0148423975

fc3.bias f4 [2]
0	0x3cefd896	0.02927808
1	0x3d62ffd3	0.055419754
