checkpoint_critic.pth (torch_old, 525862 bytes, 5 tensors)

fcs1.weight f4 [400, 24]
000000 7b 1d 93 bc 31 59 27 bd 77 81 a9 3c a7 ba e9 bc
       -0.017958393 -0.040856544 0.020691616 -0.028531386
000010 01 65 14 3b b4 07 55 bd 3b bb df 3c 18 6c 07 bc
       0.002264321 -0.0520093 0.027310958 -0.008265518
000020 1b db ec 3c 87 28 32 3d 9d 2b ef 3c e4 7c 4a bb
       0.028913071 0.04349568 0.029195601 -0.0030897195
000030 99 22 3a 3d bb a5 d6 3c f4 51 2f 3d a2 7c 4a 3d
       0.04544315 0.026202073 0.042802766 0.049435265
000040 03 42 90 3b 2d c0 24 bc 68 6c 12 bc aa 1d 8a 3b
       0.0044024005 -0.010055584 -0.008936979 0.004214962
000050 03 2a 80 bc 00 4b b1 bc f6 6f 18 3d d1 da 71 bc
       -0.015645033 -0.021642208 0.03721615 -0.014761643
000060 a4 6a ea 3c 2d bf fd 3c 8d fe 13 bd 1f cd 9a bc
       0.028615303 0.030974949 -0.03613143 -0.018896637
000070 d4 f4 f3 ba b7 71 59 3d b8 9e ba bc f5 14 ee 3c
       -0.0018612393 0.053086963 -0.022780761 0.029062727
000080 48 48 48 bd d5 9d 25 3d ca f5 44 bd b9 30 db 3c
       -0.048897058 0.040433723 -0.048085965 0.026756631
000090 97 58 22 bd 63 37 3d bd 3f e1 99 3c 33 78 aa bc
       -0.039635267 -0.0461954 0.018784164 -0.020809269
0000a0 fc bc 00 3c b0 97 6a 3b 39 a1 7e 3b bd 40 2e 3d
       0.007857557 0.003579598 0.003885342 0.042542208
0000b0 a4 cc 63 3a 13 a8 a5 3c fc 98 cc bc 1f 14 b5 bb
       0.00086898566 0.020221746 -0.024975292 -0.0055260803
0000c0 e8 11 a1 3c c4 ce fd bc bc 8e 07 bd 63 02 35 3d
       0.019661859 -0.030982383 -0.033095106 0.04419173
0000d0 82 7e 4a 3c 22 29 19 bd e6 36 dc 3c 7f 27 1c 3b
       0.012359263 -0.037392743 0.026881646 0.0023827252
0000e0 45 b3 ee 3c 88 ef 15 bd 7b d8 49 3d d5 c3 e4 3c
       0.029138217 -0.036605388 0.049278717 0.027925411
0000f0 45 b4 37 3d 7c f4 96 bc be 16 10 3c 04 47 4c bd
       0.044849653 -0.018427126 0.008794485 -0.049872413
000100 af ea 9b bb fa af 7e 3c ce 7e ea bc a0 14 49 3c
       -0.004758201 0.015544886 -0.028624918 0.012272984
000110 6d 00 8c 3c fd 67 31 3d f8 1e bd bc 2e c4 10 bd
       0.017090047 0.04331206 -0.023086056 -0.03534334
000120 92 d5 f7 bc fa 8f 35 3d 43 81 02 3d 4b d0 0b 3d
       -0.030253205 0.04432676 0.031861555 0.03413419
000130 c9 84 4e bd 87 fe 48 3c 4d 5b 18 3d 25 38 99 3c
       -0.050419603 0.012267715 0.037196446 0.01870353
000140 55 d0 03 3d ea ec b1 3c 81 34 ce bc dc 54 22 bc
       0.032181103 0.021719415 -0.02517152 -0.009907927
000150 a8 98 4c bd 30 eb f0 3c 16 af 22 3d d9 82 4b 3c
       -0.04995027 0.029409021 0.039717756 0.012421333
000160 f9 07 17 3d 07 ea 16 bd 99 68 f9 3c 8f 16 14 bd
       0.036872838 -0.03684428 0.030445384 -0.036154326
000170 3a cf 0d bd b6 3d 5b bd 9b 0d 56 3a 3b 5d 22 3d
       -0.034621455 -0.05352565 0.00081654795 0.039639693
000180 40 ea 55 bd b3 5a 12 3d 25 76 e2 3c 58 b4 14 3d
       -0.05222535 0.03573103 0.027644226 0.0363048
000190 3f 6c 58 3c 9e 90 4a bd f9 aa 9e bc 60 a3 cd 3c
       0.013209402 -0.049454324 -0.019368635 0.025102317
0001a0 a2 f6 c9 bc 65 19 51 3b 92 36 49 bd 3e a2 e9 3c
       -0.024653737 0.0031906005 -0.049124308 0.028519746
0001b0 25 fd 33 3c 94 87 32 3c fb 90 c9 3c 01 0c 2d 3c
       0.010985647 0.010896582 0.024605265 0.010561944
0001c0 ce fa e7 3b ae 0d 23 3c fd 91 23 bb b6 05 db 3b
       0.007079459 0.009951992 -0.0024958842 0.0066840304
0001d0 25 98 3c bd aa 1e e1 bc 60 0a e6 bc 0b 2f f3 bb
       -0.046043534 -0.027480442 -0.028081119 -0.0074213794
0001e0 42 4f eb 3c 5a 66 36 3d b1 e0 ac 3b 5f 3e 26 bd
       0.028724317 0.044531204 0.0052758087 -0.040586825
0001f0 74 ef ca bb 5d 31 48 3d 1c 3b aa 3a 2f 01 22 bd
       -0.006193096 0.0488752 0.0012987587 -0.03955191
000200 51 f6 bb bb 5d b9 96 bb 5d 56 95 3b e4 41 01 3d
       -0.0057361503 -0.0045997337 0.0045574144 0.03155698
000210 40 b4 a5 bc 1b dc 65 3d a8 c1 46 3d bb 7f e8 bc
       -0.020227551 0.056118112 0.04852453 -0.02838122
000220 fa c8 45 bb cf eb 3b bd c3 b7 06 3d 57 d5 af bb
       -0.0030179606 -0.04587918 0.032890093 -0.0053660083
000230 ce 87 b3 bc 10 0f 6a 3d 6f 0b 0e 3d 25 43 03 3d
       -0.021915343 0.05714327 0.034678873 0.032046456
000240 d2 05 25 3d e0 6b 11 3d 6a b1 1d 3d 53 c3 13 bd
       0.040288754 0.03550327 0.038499273 -0.036074948
000250 c2 aa 07 3b 6c 5f f5 bc 28 72 07 3d 96 0d 24 bd
       0.0020701145 -0.029952727 0.033067852 -0.04005202
000260 5d f0 d3 bc 50 5a b4 bc ae f7 29 3d 6b d9 3f 3d
       -0.02587145 -0.02201572 0.04149597 0.046838205
000270 06 76 f3 3c e3 8b c7 bc 5c 1a f4 3c 03 15 47 3d
       0.029719364 -0.024358695 0.029797725 0.048604023
000280 7f 6d ae bc 86 1e 3e 3d 2a 67 02 bd 6c 98 42 bd
       -0.021292446 0.04641583 -0.031836666 -0.047508642
000290 37 81 d8 3c 11 2e 4e 3d e4 49 06 bd 9e c5 91 3b
       0.026428802 0.0503369 -0.03278531 0.0044486066
0002a0 94 1f 1a bd 99 94 e1 3c 35 b0 bf 3c 16 a4 ec bc
       -0.03762777 0.027536677 0.023399452 -0.028886836
0002b0 dd dd 6e bc 5f ff f5 bc ae 64 f0 3b b9 39 d6 bc
       -0.0145792635 -0.030028997 0.0073362207 -0.026150571
0002c0 30 bb 74 3c c2 bd e1 bc 66 d8 23 bd 44 7f 9b 3c
       0.014937207 -0.027556304 -0.040001296 0.018981583
0002d0 4a 6a 17 bd ce 83 4a 3c 4d f2 33 3d c5 63 c9 bc
       -0.0369666 0.012360526 0.043932248 -0.024583707
0002e0 c4 aa 37 3d 51 cc 49 bd d1 65 d0 3c 4c c3 0c bd
       0.04484059 -0.049267117 0.025439175 -0.034365937
0002f0 3b db b6 3c eb 82 fe 3c 43 6f 28 bd d1 43 65 3c
       0.022321334 0.031068286 -0.041121732 0.0139932195
000300 7a be f5 bc 61 5b 62 bc b5 47 3d bc d6 13 24 bc
       -0.029998053 -0.013815732 -0.011552741 -0.010014495
000310 af e6 a4 3c 2a 0c 4b bd 48 0c db bb ed f1 d1 bc
       0.02012953 -0.049572147 -0.0066848136 -0.025628055
000320 4d 03 07 bd 65 34 6f 3c 62 07 c5 bc a9 4c de bc
       -0.032962132 0.014599894 -0.024051372 -0.027136164
000330 1c 8d 48 3d ef e0 93 ba 87 24 b9 3a f2 60 45 3d
       0.048962697 -0.0011282245 0.0014125266 0.048188157
000340 5a 5c d5 3a 8c ed f0 3c b7 3a 39 bd d7 cb af bc
       0.0016278133 0.029410146 -0.04522201 -0.021459503
000350 a5 55 08 bd 1c af 8f ba 3a b8 eb 3c 85 ee 11 bc
       -0.033284802 -0.0010962221 0.02877437 -0.008906965
000360 05 e9 1c 3d 2a eb ff bc 8f 25 e1 bc 66 65 c6 bc
       0.038308162 -0.031240065 -0.02748373 -0.024218272
000370 66 98 41 bd 6b a3 31 3d f5 b7 38 3d 6c 70 88 3b
       -0.04726448 0.04336874 0.04509731 0.0041637924
000380 01 79 3c 3d 34 93 8c bc d4 bc 65 bc bd 83 ae 3c
       0.046013836 -0.017160036 -0.014022071 0.021303052
000390 cb 0d 4f 3d c7 af e0 bc 13 e9 1f bd 46 7f 26 bd
       0.050550263 -0.027427567 -0.039040636 -0.04064872
0003a0 95 fa 03 3d 09 8c 52 3d 34 64 98 bc 69 3a bc 3c
       0.032221396 0.05140308 -0.018602468 0.02297707
0003b0 6c 0f 45 bd cb e6 8c 3c 79 bd 27 3d 88 23 34 bc
       -0.04811041 0.017199894 0.04095218 -0.010994799
0003c0 9b 64 83 bc 86 ce d4 bc 63 96 25 3b 82 78 27 bd
       -0.016039183 -0.025977384 0.002526664 -0.04088641
0003d0 be 84 2a bd 80 9c 85 3b 46 84 1d bc 19 3e 0f 3b
       -0.0416305 0.004077494 -0.009614056 0.0021857081
0003e0 da 18 db bb 25 dd 1c 3b 5a 48 15 3c 01 f9 e0 3c
       -0.006686312 0.0023935523 0.009111488 0.027462484
0003f0 7a 8c dc bc 7f 0f 42 ba 19 4e 30 bd b0 7f 28 3c
       -0.026922453 -0.0007402822 -0.04304323 0.010284349

fcs1.bias f4 [400]
000000 38 da 37 3e 28 ce 12 3d a5 c8 19 bd b9 dd 20 3e
       0.17954338 0.035841137 -0.037544865 0.1570958
000010 51 92 bd 3b 5d 24 af bb 12 89 18 3c af e8 00 be
       0.0057852645 -0.005344911 0.009310024 -0.12588762
000020 48 52 82 bd f0 5a 3f be a1 fb b4 bc 4c 73 4b be
       -0.0636335 -0.18687034 -0.022092642 -0.19868201
000030 68 a2 02 3d b3 a5 e1 ba b3 31 92 3d 19 b2 02 be
       0.031893164 -0.001721552 0.071383856 -0.12763251
000040 b3 58 ba ba 9b e1 6b bd 18 94 f7 bd dc 62 23 3e
       -0.0014217108 -0.0575882 -0.120887935 0.1595568
000050 95 ca 4d be 69 5e 0f 3e 0b 10 47 bd 74 00 e9 bd
       -0.2009681 0.14000858 -0.048599284 -0.113770396
000060 df f0 4d be 5f 34 48 be 00 0c 98 bd 79 42 07 3e
       -0.20111416 -0.19551228 -0.07424164 0.13208951
000070 09 6d 29 3d 54 c3 1a be 42 f5 2e 3e 4e 5c 29 3e
       0.04136375 -0.15113574 0.17085746 0.16539118
000080 7f 79 b1 3d 05 e4 4b 3e e2 8f 08 3e 8a 33 e7 3c
       0.08665752 0.19911201 0.13336137 0.028222818
000090 5e e2 14 3e 53 46 eb bd 10 45 ca bc 2e 09 db bd
       0.14539477 -0.11488023 -0.024691135 -0.1069511
0000a0 b6 66 1d bd 8a 47 26 be 95 3a 0b 3e ce f9 a6 bd
       -0.03842803 -0.16238227 0.13596566 -0.08153115
0000b0 31 ff 82 3d d8 2d 3c 3e cf ed 88 3d 0d 7e 4b 3c
       0.0639633 0.18376863 0.066859834 0.01242019
0000c0 6a 31 52 3e cd ab 4c be 9b 7c 44 3e 3e ff 39 be
       0.20526662 -0.19987412 0.19188158 -0.18163773
0000d0 d1 de 4e 3e ab 13 6b 3c 29 e9 01 be b8 24 8e bd
       0.20202185 0.014347951 -0.126866 -0.06940597
0000e0 7e c5 cc bd a2 37 fd 3d c9 ba 2f 3e ec 97 ff 3d
       -0.09998606 0.12364127 0.17161097 0.12480149
0000f0 ad bc 16 3e 69 a3 46 3e 31 ef 37 be d9 09 b3 3d
       0.14720412 0.19398274 -0.17962338 0.08742113
000100 dd 3b 65 3c 1e bc fd 3d 21 ed 73 3d ec a0 d4 3b
       0.013991323 0.12389396 0.059552316 0.00648891
000110 1a e3 0f 3e b5 5c b1 bd 2b 7b 21 be 1b e4 15 be
       0.14051476 -0.086602606 -0.15769641 -0.14637797
000120 4d ff 13 3e f5 67 58 3b 5a aa 2b be ec fc 8a 3d
       0.14452858 0.0033020948 -0.16764203 0.06786522
000130 dc 98 fe bb cf 72 f9 bd f9 4f 38 3e de e3 f0 3d
       -0.007769687 -0.12180101 0.17999257 0.11762212
000140 27 7b 2f 3e 09 dc 09 bd 03 51 01 be 8f 5a 32 be
       0.17136823 -0.033657108 -0.1262856 -0.17417358
000150 80 55 d2 3c 2f c8 13 be 9e 3f fc 3d 79 16 3d be
       0.025675535 -0.14431833 0.123168215 -0.18465604
000160 7d dc 19 be b8 e0 f1 3c 30 8f 4d 3d 2d 15 00 bd
       -0.15025516 0.0295261 0.050185382 -0.031270195
000170 bc b6 36 bd bb eb d6 bd 58 8c 4e bd e7 f9 ed 3c
       -0.044607863 -0.10494181 -0.05042681 0.029049827
000180 e9 38 3b be d2 8f 15 bd 78 b2 09 bd 9c e3 a4 3b
       -0.18283428 -0.03651411 -0.033617467 0.005032016
000190 c8 58 18 3e a1 96 2f be 1e a9 8f 3d 8c b1 97 3d
       0.14877617 -0.17147304 0.070146784 0.07406911
0001a0 f4 2b 61 3d df ae 75 bd b6 03 f2 3d a9 6c 13 be
       0.054973558 -0.059981223 0.11817114 -0.1439692
0001b0 ee 1a b2 bd 26 e1 f7 bb 21 2b e9 bc 68 43 52 be
       -0.08696543 -0.0075646816 -0.028462948 -0.20533526
0001c0 94 d1 dd 3d 4a b0 fa 3d 93 9a 3b be f5 b6 dd 3a
       0.108309895 0.12240656 -0.18320684 0.0016915487
0001d0 90 81 34 be 0b 21 21 bd 48 27 d3 3c 1d 7a 34 3e
       -0.17627549 -0.039338153 0.025775567 0.17624708
0001e0 6b 45 13 3e 54 d7 d7 3d 0d 7a ee 3c 43 8c 3b be
       0.1438195 0.105391175 0.029110933 -0.18315224
0001f0 55 88 84 bd 91 01 3a 3e 83 cf 77 3c d8 74 37 bd
       -0.06471316 0.1816466 0.015125158 -0.044789165
000200 82 9d 96 bd 69 b3 c8 3d 43 5f 04 3e e2 aa 8b bc
       -0.07354261 0.09799845 0.12926964 -0.017049257
000210 53 8b 67 3d bd 20 19 3e 7f ee 0a 3e ce bf d5 3d
       0.056529354 0.14953895 0.13567542 0.104369745
000220 87 1e 0f 3e be 3a a0 3d 93 ad 52 3d 08 89 4c be
       0.13976489 0.07823704 0.051435065 -0.19974148
000230 3b a3 35 bd 05 25 6a bd 7f 06 40 3d 38 9f 7e bd
       -0.04434512 -0.05716421 0.046881195 -0.06216356
000240 ad 06 41 be f9 7c 2d 3e 67 5a b3 bd 10 34 47 be
       -0.18850203 0.16942205 -0.08757477 -0.19453454
000250 41 ae aa bd 48 fc 28 3d 1c 6f 93 bd 5f 49 55 be
       -0.083340175 0.04125622 -0.07198927 -0.2082877
000260 99 fd 89 3d 05 cb 9d 3d db f6 40 3e ae d7 4e be
       0.06737823 0.077047385 0.18844168 -0.20199463
000270 0c 4f 14 bd 9c 09 ab bd 4e 2e 92 bd f2 dc db 3a
       -0.036208197 -0.08351442 -0.07137738 0.0016774221
000280 d9 fa 40 3e e7 13 ac bc 62 45 33 3e fa 37 fb 3c
       0.18845691 -0.021005584 0.17506936 0.03066634
000290 10 18 db bd 6b f1 82 bc d4 e6 d4 3d 09 52 f6 3d
       -0.10697949 -0.015984258 0.103955895 0.12027366
0002a0 5b 83 8f bd dd 4b da bc a6 90 2c be be 26 02 be
       -0.07007476 -0.026647503 -0.16852054 -0.12710091
0002b0 4f 1b 66 bd a6 2c fa 3d 0a 97 82 3b 80 a0 de 3d
       -0.056178387 0.12215547 0.0039852904 0.10870457
0002c0 a3 c3 2d be ea 79 40 3d 1d d2 27 be 02 16 7c bd
       -0.1696916 0.046991266 -0.16388746 -0.061544426
0002d0 66 01 27 3e ed 0f fb 3b 87 fd 1d be 11 14 4f be
       0.16309127 0.0076618106 -0.15428744 -0.20222498
0002e0 e9 90 87 bd e7 21 a0 bd b7 89 44 be 03 ac e0 3d
       -0.06619436 -0.07818966 -0.19193159 0.10970309
0002f0 db 85 18 3b 98 4e 01 bd d2 b4 22 3e 20 ee 4c be
       0.0023273143 -0.031569093 0.1588929 -0.20012712
000300 28 ec 84 3d c2 df 1a 3e af a4 2c 3d 0c 84 d4 3d
       0.06490356 0.1512442 0.042149242 0.103767484
000310 50 cc 93 bd 74 d1 44 be 3b 8b 41 3e 8b 4e 4d be
       -0.07216704 -0.19220525 0.18900768 -0.20049493
000320 bb 14 ad bd 79 97 3e 3e 57 fd c4 bd 4e c1 1d bd
       -0.0845122 0.1861247 -0.09618633 -0.038514428
000330 6d 5f d4 bd 77 17 2c 3d 18 87 97 bd db cc a0 3d
       -0.103697635 0.042014565 -0.07398814 0.07851573
000340 a2 57 4c 3e 0b ff 1d be d7 79 09 3e 1d 2d 64 bd
       0.19955304 -0.15429322 0.13425384 -0.055707086
000350 dd c9 53 be 57 4d af 3d 62 e2 0c be 6b a5 f5 3d
       -0.20682473 0.08559673 -0.13758233 0.119944416
000360 23 c2 12 bd 05 29 ff bd c8 50 36 be e1 69 26 3d
       -0.035829674 -0.12458996 -0.17804253 0.040628318
000370 ac 6c 48 be d5 63 e2 3d 05 d5 a8 3d 5e dd 35 be
       -0.19572705 0.11054198 0.08243755 -0.17760226
000380 d4 8b d3 3d d2 30 26 be a0 c5 9f 3c db 37 72 bd
       0.103294045 -0.16229561 0.019503415 -0.0591353
000390 65 e4 0d 3e 4b 2f 33 be c4 db 87 bd cf 0d 97 bd
       0.13856657 -0.1749851 -0.06633714 -0.07375681
0003a0 79 a0 b5 bc a2 50 bc 3c 14 53 01 be 2c 53 af 3c
       -0.022171246 0.022987667 -0.12629348 0.021401964
0003b0 9b 5b e0 3b ae bb d7 bd 8c f7 45 3d d2 55 1b 3e
       0.0068468577 -0.10533844 0.048331782 0.15169457
0003c0 c9 1c d7 3d 36 d2 85 3d cc d5 bf bd c3 d3 13 be
       0.10503537 0.06534235 -0.093669504 -0.1443625
0003d0 d1 18 f9 3d 45 e9 e6 3c ec b1 85 3c 1c 25 da 3d
       0.121629365 0.028187403 0.016320191 0.10651609
0003e0 5e 40 c9 bd d0 b2 51 be a9 c1 0f be 0b 98 42 be
       -0.0982673 -0.20478368 -0.14038719 -0.19003312
0003f0 b1 39 02 3e 1f 84 01 3e fb ae c7 bd d9 ed 43 bd
       0.1271732 0.12648056 -0.09750172 -0.04783425

fc2.weight f4 [300, 402]
000000 46 81 1e bd 5c 61 bb bc 9e 5a 01 bd 4a 1e 9b bc
       -0.038697504 -0.022873573 -0.03158056 -0.018935341
000010 db 34 48 bd 53 7c 59 bc 21 a2 08 3d 54 b3 35 bd
       -0.048878532 -0.01327427 0.033357743 -0.044360474
000020 0d 1b ec bc 97 da eb bc bc 55 34 3b 27 c1 3d 3c
       -0.028821493 -0.028790755 0.0027516922 0.011581696
000030 9a a0 1c 3a ca 1c 28 bd ec 08 54 3d f4 a4 60 3d
       0.0005974859 -0.04104308 0.05176632 0.05484481
000040 32 95 45 3d 34 f6 13 3c af f6 09 bd ad fa f5 bc
       0.048237987 0.009030867 -0.03368252 -0.030026758
000050 3a 15 47 3d 89 ce 2f 3d 3a 1c d2 3c 2c 04 a9 bc
       0.048604228 0.042921577 0.025648225 -0.020631872
000060 ed b2 9a bc 8d 4c 53 bc a3 7b 26 bd 92 a2 f1 bb
       -0.018884147 -0.012896669 -0.040645253 -0.007374116
000070 df aa 29 3d cd 4f 1a 3d d3 e1 9d 3c e2 0f b8 bc
       0.04142272 0.03767376 0.01927272 -0.022468511
000080 d0 88 4d bd d4 a5 02 bd 17 4d e4 bc 59 9a 0d 3d
       -0.050179303 -0.031896427 -0.02786879 0.034571026
000090 4a 84 25 bd 8a 34 1b 3d 59 0f e9 bc 6a d0 eb bb
       -0.040409364 0.037891902 -0.028449701 -0.0071964758
0000a0 47 dc 46 3d cd 7c 2a 3d e4 8c 77 3d f2 90 31 bd
       0.048549917 0.041622926 0.0604371 -0.04335112
0000b0 56 d6 1e 3d 7b 53 de b9 d7 77 03 3c f9 4d 08 bd
       0.038778625 -0.00042405337 0.0080241775 -0.033277486
0000c0 af 59 01 bd fb 89 d7 bc d3 a4 0f 3d cb ca 27 bd
       -0.03157967 -0.026310911 0.035069298 -0.040964883
0000d0 11 2b 79 bc 2a 3b 4d 3a fc a7 39 3d 56 c7 0a bb
       -0.015208022 0.00078289455 0.045326218 -0.0021175942
0000e0 26 ce a1 3c 16 49 67 3d c4 e0 48 3c 6d 1b 5a bd
       0.01975162 0.056466185 0.01226062 -0.05324881
0000f0 84 12 ce bc 60 0e 14 3d 75 3f 45 bd 63 55 9e bc
       -0.025155313 0.03614652 -0.04815622 -0.019327825
000100 e9 9f 98 bc 4c 8c 5c 3d ba 5a 58 bc 05 e6 0c bd
       -0.018630939 0.053844735 -0.013205225 -0.03439905
000110 a1 34 2a 3d f3 44 f0 3b e3 eb 8c 3c f5 25 51 bd
       0.041554097 0.007332438 0.017202323 -0.05106159
000120 e1 a0 47 bc 1c fe 59 3d e6 33 88 bc bb 2b b0 3c
       -0.012184353 0.053220853 -0.01662631 0.021505227
000130 47 8c 41 bd e9 f2 8a bc 73 9f 61 ba 56 28 3e 3d
       -0.04725292 -0.016961532 -0.00086068286 0.046425186
000140 22 27 61 bc bc 45 ad 3c 2f e7 21 3d b0 ee 85 3c
       -0.01374224 0.021151416 0.039527114 0.016349167
000150 22 fa 50 3d 8a f0 48 3d 28 58 4c 3d f7 6b 3a bd
       0.051019795 0.04905752 0.04988876 -0.04551312
000160 76 d3 a5 3c 28 a5 4e bc f5 aa 3f 3c 73 1f 02 bd
       0.020242434 -0.0126126185 0.011698474 -0.031768274
000170 fa 2f 45 3b 87 8d 5a bd 8d 6f 45 bd cf 4a cb bc
       0.003008841 -0.053357627 -0.048202086 -0.024815945
000180 54 e6 37 bd d3 33 2c 3c 01 f1 9d 3b a6 26 fe 3c
       -0.044897392 0.010510403 0.0048199897 0.031024288
000190 d5 c1 39 bd eb 6b 55 bd e9 de 52 3d 17 ba c9 3c
       -0.04535087 -0.05210487 0.051482115 0.024624867
0001a0 8b 9e 6a 3c 63 3a 04 bc fb f8 3b bd 51 76 5e bd
       0.014320026 -0.008070561 -0.045891743 -0.054312054
0001b0 93 0d 12 bd 54 22 1e 3d bb 23 6d 3d ef d2 2a bb
       -0.035657477 0.038606957 0.057895403 -0.0026065668
0001c0 26 52 1e 3d ae 44 f9 bb 2a a0 33 bd a5 de bb 3c
       0.03865256 -0.007607064 -0.043853916 0.022933314
0001d0 f2 b5 e1 3c 39 11 d6 ba cc 6b b0 bc c2 eb 0f bd
       0.027552579 -0.0016332037 -0.021535777 -0.035136946
0001e0 a2 db 32 bd 90 3b d6 3c 48 6a 55 bd 8a 20 58 bd
       -0.04366649 0.026151448 -0.05210331 -0.052765407
0001f0 9c 9f d7 bc 0d 63 3b 3d 8a 0d ed bc e0 91 d7 bc
       -0.026321225 0.04574876 -0.02893712 -0.026314676
000200 15 e0 e4 bb af ed 46 3b 1f 56 63 3d f0 c7 31 3d
       -0.0069847205 0.0030354073 0.055502053 0.043403566
000210 c6 72 61 bd 21 89 fe bb 61 b8 7b 3b e2 cd 8f ba
       -0.055041097 -0.007767812 0.003840946 -0.0010971392
000220 c1 5e 03 bd fa d0 b9 bc fa bb 46 bc 41 f0 56 bd
       -0.032072786 -0.022682656 -0.012129778 -0.052475218
000230 86 07 5d 3d a2 3f ed 3c f6 02 72 3c e4 ab f6 3c
       0.053962253 0.028961007 0.014771214 0.03011126
000240 04 07 0b bd 9b f2 9f bc d7 3a f8 bc a5 5e 4f bc
       -0.033942237 -0.019524863 -0.030301495 -0.012656842
000250 18 9c a2 bc 61 7c 00 bb 3c 2d 20 bd 87 88 e8 38
       -0.019849822 -0.0019605386 -0.03910564 0.00011088052
000260 94 5d 20 3c 08 11 12 bd 53 15 41 bd 1e 62 1e bd
       0.009787936 -0.035660774 -0.047139477 -0.03866779
000270 e2 ed 47 bd 75 a2 00 bd 3a a6 2e bd a2 36 66 3d
       -0.048810847 -0.03140493 -0.042638995 0.056204446
000280 b4 07 ee ba bc 02 20 bd 7e 54 8d bc 5a f9 2b bd
       -0.0018160255 -0.039065108 -0.017252203 -0.041985847
000290 6e b6 0d 3d df a0 c3 bc d4 bb 67 3d 64 ba 26 bd
       0.034597807 -0.02388042 0.05657561 -0.0407051
0002a0 88 a7 c3 3c b5 3a 96 bb b2 24 07 3d e4 ab b0 bc
       0.023883596 -0.004584635 0.03299398 -0.021566339
0002b0 56 b9 3a bd 33 c1 68 3d fd d4 ee 3c 93 0a 83 3b
       -0.045586906 0.056824874 0.029154295 0.0039990633
0002c0 ae 83 23 bd 67 b3 bb bc 8a 0a 49 3c 99 c9 e6 3c
       -0.0399205 -0.022912694 0.012270579 0.028172301
0002d0 de 36 57 bd de 60 53 bd 08 c4 6d 3d 50 38 68 3d
       -0.05254256 -0.05160605 0.058048278 0.05669433
0002e0 19 14 61 3d ff 34 33 3d b3 b8 84 bc d8 85 4c 3d
       0.054950807 0.043751713 -0.016201353 0.04993233
0002f0 c9 70 64 3d 77 a0 1c bd 50 10 53 bb d5 92 10 3d
       0.055771623 -0.03823897 -0.0032205768 0.03529628
000300 6a 53 41 3d 2d 9b 6e 3c 37 7c 1d 3c c3 d3 13 bd
       0.04719869 0.014563364 0.009612135 -0.036090624
000310 33 74 1f bd 8e b5 e2 3c bd e9 82 3b fa d0 d4 3b
       -0.038929176 0.027674463 0.003995149 0.0064946385
000320 ec c2 5c bd 7b 69 ba 3c 51 cb 00 3d 34 c7 64 3d
       -0.05389683 0.022755375 0.031443898 0.055854037
000330 c2 80 c2 bc b6 58 24 bd 3f e1 14 3d 18 61 3a bc
       -0.023743037 -0.040123664 0.036347624 -0.011375688
000340 8a d1 bd 3c ed c4 f3 bc 69 a3 b2 3c cd 81 79 bc
       0.023171205 -0.029756987 0.021806436 -0.015228701
000350 f9 7a 1f 3d 60 14 43 bd 16 3e 1b 3d 9b a2 04 3d
       0.038935635 -0.047626853 0.037901007 0.032381635
000360 ba 39 14 3d ec f4 ee bc c4 22 24 3b ca 77 65 bd
       0.036187865 -0.029169522 0.0025045136 -0.056022443
000370 fc 34 82 3c 04 d1 5a 3d 2b 7d bc 3c 2d 70 2d bd
       0.015894406 0.05342199 0.023008903 -0.042343307
000380 4a b7 56 3d e4 3a 99 3c 29 93 a8 bc 70 46 2b 3c
       0.05242089 0.018704839 -0.020577984 0.010453805
000390 90 0a 19 3d 41 03 38 3c 31 6f 3c bd b1 af 51 3d
       0.03736359 0.011231245 -0.046004478 0.051192943
0003a0 b0 37 49 3c 3f cb 8c 3c 3c 80 af bb 71 98 e8 3c
       0.012281343 0.017186759 -0.005355863 0.028393002
0003b0 97 d0 5c 3c fe 92 b8 bc cc 6b 26 bd 64 c1 97 3c
       0.013477466 -0.022531029 -0.040630147 0.018524833
0003c0 61 e5 f4 3c 24 dc 40 bc e4 3e 15 bd 6a 58 56 3d
       0.029894533 -0.011771236 -0.03643693 0.052330412
0003d0 f7 50 13 bd 99 ac 27 bd ea d5 09 3d 2b e7 21 3d
       -0.035965886 -0.040936086 0.03365127 0.0395271
0003e0 88 0a 34 bd 34 6d 48 3d 0d 8e 17 bd fe 16 90 3c
       -0.043955356 0.04893227 -0.037000705 0.017589089
0003f0 ab 2e 10 3d a6 8a 09 3d b8 42 29 bc 56 e4 0a bd
       0.035200756 0.03357949 -0.010330848 -0.033909164

fc2.bias f4 [300]
000000 d5 3b 41 bd 8f 6f 4b bd e8 d1 21 bd 46 22 4f bd
       -0.0471762 -0.049666937 -0.039506823 -0.050569795
000010 b4 ca 22 bd 43 df 20 bc 02 1f 9d 3b d5 dc a3 3c
       -0.039744094 -0.009818855 0.004794956 0.020002762
000020 b8 a4 9c 3c 99 25 a7 3c 9f 37 32 bd 4c cc 11 bd
       0.019121513 0.02040367 -0.043510076 -0.035595223
000030 d2 7c dc bc a9 d0 e9 3c 4e fc 2f bd 4f 81 3f bd
       -0.026914988 0.02854188 -0.042965226 -0.046754178
000040 df 51 78 3c df 08 3f 3d 64 fa 22 bc 36 c4 50 3c
       0.015156238 0.04663932 -0.009947393 0.012742093
000050 85 5d 36 bd 6d 58 1f 3d f0 a0 05 3d a3 ee 8e bc
       -0.04452278 0.03890269 0.032624185 -0.017447775
000060 e2 1b 82 3c 23 42 37 bd f9 45 0f 3d b3 e8 2d bd
       0.015882436 -0.044740807 0.03497884 -0.042458247
000070 49 4f 3d bd 96 66 2b 3d 10 16 a3 bc f0 70 ee bc
       -0.04621819 0.04184588 -0.019907981 -0.029106587
000080 c8 e1 88 bc 88 d0 86 3c cf 83 0e 3d b0 4e e4 3c
       -0.016709223 0.016456857 0.03479367 0.027869552
000090 37 2a e0 3c 0c 59 6b bc f4 07 7c 3b 55 3f a2 3b
       0.02736388 -0.014364492 0.003845689 0.0049513974
0000a0 34 55 3d 3d 22 61 43 3c 8a 86 21 3d 2e 5b 7b bc
       0.046223834 0.011925014 0.039434947 -0.015341563
0000b0 c0 5c 11 bd 1d 20 3f 3d ea c2 16 3d f7 d9 0d bb
       -0.035488844 0.046661485 0.03680698 -0.002164481
0000c0 ed a2 4f bd 20 e8 1d 3d 57 40 9f 3c 98 a3 b6 bb
       -0.050692488 0.03855145 0.01943986 -0.005573701
0000d0 f6 f2 b6 3b 32 0e 1f 3d 8f dd 2f 3b bb 63 c3 bb
       0.0055831624 0.038831897 0.002683494 -0.0059628165
0000e0 03 36 43 bd a8 a3 96 bc ae 5c 86 3a f6 be 58 bc
       -0.04765893 -0.018388584 0.0010251009 -0.013229122
0000f0 02 a6 3b bc 2c 48 41 3d 07 4d 09 bb 36 df 0d bb
       -0.011453154 0.04718797 -0.0020950453 -0.0021647937
000100 c0 27 c3 bc 18 a4 dd 3b ef c7 0c 3d c7 51 ad 3c
       -0.023822665 0.0067639463 0.03437036 0.021157159
000110 d6 e5 96 3c 29 27 9e bc 22 13 18 3d 9d 9a 2d bc
       0.018420141 -0.019305782 0.03712762 -0.010595945
000120 98 d4 43 b9 b3 28 40 bc af 0e db bc 1e a8 f3 3c
       -0.00018675847 -0.011728453 -0.0267404 0.02974325
000130 ce a8 ec bc 22 50 0b 3c 5e f6 8c bc 2a e5 14 bd
       -0.028889086 0.008502992 -0.01720732 -0.03635136
000140 b6 ca aa bc de d9 36 bc 54 56 2d 3d 97 f4 15 bd
       -0.020848613 -0.011160342 0.042318657 -0.036610212
000150 57 3b 44 bd 79 7f 17 3c 66 a9 56 3c e1 7b 04 3d
       -0.047908153 0.0092467 0.013101911 0.032344703
000160 24 3b 30 bc 29 e8 0c 3c f7 36 e1 39 03 e7 04 bd
       -0.010756288 0.008600273 0.00042956296 -0.032446872
000170 c1 2e 0a ba 40 ff 76 bb e8 71 01 3c e5 40 27 3d
       -0.0005271249 -0.0037688762 0.0079006925 0.040833373
000180 bf f9 0d bd 79 ac 07 3d 9c 7e c6 3c 6c 6f 06 3d
       -0.034662005 0.033123467 0.024230294 0.032821104
000190 e1 f2 f2 ba 50 2b 15 bd 22 ce 1d 3d bc 51 44 bd
       -0.0018535518 -0.03641826 0.03852666 -0.04792951
0001a0 53 14 10 3a 12 43 da 3c 8d d5 39 bc a6 ad 27 3d
       0.00054961926 0.02664331 -0.011342418 0.04093709
0001b0 f0 a1 f6 3b f2 df 27 3d ec ad 51 3d 10 76 ea 3c
       0.0075266287 0.040985055 0.051191255 0.02862075
0001c0 85 8a 9e 3c d8 cf ef 3c 42 03 07 3c 65 75 82 bc
       0.01935316 0.029273912 0.008240523 -0.015925119
0001d0 b3 f2 8e bc 87 80 1a 3d 73 3e a3 bc 81 fe 14 bd
       -0.017449712 0.03772023 -0.019927239 -0.036375526
0001e0 90 84 a2 bc 15 27 4d 3d 84 39 43 3d b6 61 e6 3c
       -0.019838601 0.0500861 0.047662273 0.028122764
0001f0 62 81 31 bd 54 92 b4 bb ff e5 85 3c d4 8e a1 3c
       -0.04333628 -0.0055106077 0.016345022 0.019721426
000200 2f 1d 34 3d eb bb 63 3c 35 17 11 3d 94 8f b5 3b
       0.043973144 0.013899784 0.035422523 0.0055407975
000210 fc b9 c9 3c 69 3c 2d bd cb df 3d 3d 05 a4 e8 3c
       0.024624817 -0.04229394 0.046356004 0.028398523
000220 a2 4b 58 bb ca 5d 1b 3d 86 a3 c3 3a ac 72 61 3c
       -0.0033004065 0.03793124 0.0014926053 0.01376025
000230 4d 0e 56 bc bd b6 fe 3c 93 45 b3 bb 01 69 59 3c
       -0.013064933 0.031092996 -0.0054709404 0.013269664
000240 92 5a 3a bd c7 8c b1 3b 15 00 e5 3b f5 06 97 bc
       -0.04549653 0.0054183933 0.006988535 -0.018435935
000250 40 d6 c6 3b d3 54 97 3c 07 e9 0b bd 3a 93 b1 bb
       0.006068021 0.018473065 -0.03415778 -0.005419162
000260 62 4f 44 3d 84 ac 3f 3d 86 fc 3a 3d 91 fa 2e 3d
       0.047927268 0.046795383 0.04565098 0.042719427
000270 2e 1e eb bb be a5 8b 3c db 7f f3 3c a0 ad e7 bc
       -0.0071752286 0.017046805 0.029724052 -0.028281033
000280 ea 77 a7 bc 17 08 d4 3c 31 88 b9 bc a7 0d 2e 3d
       -0.020442922 0.025882764 -0.022647949 0.04249349
000290 5b 52 57 bd af 1d 4b bd 72 a6 15 3c 71 8f 1f bc
       -0.052568775 -0.049588855 0.009133922 -0.009738789
0002a0 64 f0 3e bd 0b 3d 15 bb 9b ef 25 bb 7f 29 d7 bc
       -0.046615973 -0.002277198 -0.0025319818 -0.026264904
0002b0 a1 d5 37 bb 0b 5c e6 3a 48 37 6f 38 0f 14 33 3d
       -0.0028050917 0.0017575038 5.7033525e-05 0.0437203
0002c0 1d 75 1c bc 49 37 f0 3b cf d6 28 3d 6c 4b 3a 3d
       -0.009549406 0.0073308093 0.041220482 0.045482084
0002d0 a7 cc c1 3c a9 e1 02 bc 7b 31 16 bd b6 4e 5a 3c
       0.023657156 -0.007988372 -0.036668282 0.01332443
0002e0 f6 bf 05 bd 55 bd dd 3c 18 b5 49 bc a7 c3 25 3d
       -0.03265377 0.02706782 -0.0123112425 0.04046979
0002f0 58 8d 54 3c d7 59 bd 3c 60 f1 a5 bc 9e 6a 5b bb
       0.012973152 0.023114128 -0.020256698 -0.0033480297
000300 0c 4a e7 bc 25 56 43 3d 6a 89 fb bc 35 ed 36 bc
       -0.02823355 0.047689576 -0.030705173 -0.011164953
000310 24 f7 8c bc 7b a9 a1 3c 17 35 52 bd 25 a8 ac bc
       -0.01720769 0.019734135 -0.05132016 -0.021076271
000320 de f6 30 3b 77 ee a7 bb 57 09 de bc 45 51 8b bc
       0.0027002613 -0.005124863 -0.027104063 -0.017006526
000330 93 7c 20 bd ed ec 28 bd c7 2a 3d bd 7a dc b0 bc
       -0.039181303 -0.041241575 -0.046183374 -0.021589506
000340 71 10 04 3d 2d 41 02 bd 57 3f fc 3a 80 8d 8d 3c
       0.032242242 -0.031800438 0.0019244951 0.017279387
000350 85 92 1f bd 5a 46 ad bc 9c d6 66 3c 88 a8 a9 3c
       -0.03895809 -0.02115171 0.014089253 0.020710245
000360 88 82 14 3b c6 9c cb bb f9 a3 2f bd b8 9a 98 3c
       0.002266081 -0.006213757 -0.042880986 0.018628463
000370 b3 b5 30 3d 3f 15 e4 3c e2 7f 6a bc 69 b0 06 bd
       0.043142032 0.027842162 -0.014312716 -0.03288308
000380 ac 30 04 3c cd e4 18 bc 5e 80 5d bc 74 9a ab bc
       0.008068245 -0.009331894 -0.013519375 -0.020947672
000390 1e 53 d4 3c d3 c6 c4 bc 21 7f 2c bd 3a cb 86 3c
       0.02591854 -0.024020588 -0.042113427 0.016454328
0003a0 cd 6a a3 bc 22 6c da 3b ce d7 13 3d e5 8c 03 bd
       -0.019948388 0.0066657225 0.03609448 -0.03211679
0003b0 f1 22 33 3d 11 ca 24 3d 6c 09 52 3c d0 76 48 3d
       0.043734495 0.040231768 0.012819629 0.048941433
0003c0 21 d8 36 bd 6f 17 28 bd 2f ab 2a 3d 87 f5 45 3d
       -0.04463971 -0.041037973 0.04166716 0.048329856
0003d0 86 65 5e bd cf a9 e6 bc 0e dd 85 bc 3d 8a 46 bd
       -0.05429604 -0.028157143 -0.016340759 -0.048471678
0003e0 88 f5 fe bc 87 a4 fa bc 08 01 4b bd 74 09 70 3c
       -0.031122938 -0.03059603 -0.04956153 0.014650691
0003f0 0e 6f 25 3d d7 99 3a 3d 86 5d 37 bd fd 83 10 3d
       0.040389113 0.04555687 -0.044766925 0.035282124

fc3.weight f4 [1, 300]
000000 bf d3 3b 3b 28 8d 98 3a 31 b0 1f bc 0e ac 84 3a
       0.0028660146 0.0011638748 -0.009746597 0.0010122077
000010 a2 31 56 39 f0 54 83 3a f1 9d 0a ba d5 8e 8c b8
       0.0002042712 0.001001982 -0.00052878173 -6.702325e-05
000020 47 d8 2e 3b 28 7f 83 39 1b 11 7b ba f2 cf ad 3a
       0.0026679204 0.00025081006 -0.0009577439 0.0013260825
000030 32 c4 03 ba 7e b4 30 3b 5e 29 65 ba da ae ff 39
       -0.0005026489 0.002696305 -0.0008741821 0.00048767665
000040 16 77 aa 3a a1 b7 01 3b bb 2a 8e 3a c1 d4 5b b9
       0.0013005461 0.001979329 0.0010846475 -0.00020964725
000050 ff d5 14 3b 31 f2 35 bc ae c1 56 38 b7 fe 97 39
       0.002271056 -0.011105106 5.1201954e-05 0.00028990742
000060 04 82 c6 b9 5c 3a 00 bb d6 98 4f 39 47 54 4d bc
       -0.00037862372 -0.0019566035 0.00019797994 -0.0125323
000070 5e 5c 06 bb dc 42 0e bb 63 f8 80 b9 86 58 3a 3a
       -0.0020501832 -0.0021707332 -0.00024599125 0.0007108528
000080 64 61 fe ba bb 90 c6 ba b1 17 13 bc dc 99 07 3a
       -0.0019407687 -0.0015149334 -0.008977816 0.0005172768
000090 58 ca d6 3a 04 2e 50 bb 2f 6e b1 bb a5 5f 8d 3a
       0.0016387207 -0.0031765709 -0.0054147462 0.001078595
0000a0 4f 45 79 ba f8 65 60 bb a7 ee 19 bb 78 e9 a7 3a
       -0.0009508924 -0.0034240466 -0.0023488195 0.0012810668
0000b0 02 53 a9 3a df 3b 4f bb 82 a0 44 39 b3 7d 73 ba
       0.0012918415 -0.003162138 0.0001875181 -0.0009288445
0000c0 c5 e9 1d bc f8 0d 3b 3a c7 cc ac ba 09 90 d4 ba
       -0.0096382545 0.00071355654 -0.0013183587 -0.0016217242
0000d0 e6 2a cc 3a 32 9e 13 3a 1c 9e 4a bb 3e dd 42 ba
       0.001557675 0.0005631178 -0.0030916994 -0.00074334804
0000e0 68 42 cd 3b 43 7a 93 ba ac b4 77 3a 85 e1 12 bb
       0.0062640198 -0.0011251647 0.00094492245 -0.0022412252
0000f0 35 08 b9 b8 dd c1 a6 ba 31 e4 da ba 34 b1 f2 ba
       -8.823016e-05 -0.0012722571 -0.0016700086 -0.0018515945
000100 b7 81 2a 3b 3c 6e 2d bc b2 eb 2e bb b5 5a 35 3a
       0.0026017257 -0.010585364 -0.0026690778 0.00069181185
000110 20 d4 3f 3a b5 94 04 b9 ff b2 97 bb 85 f9 0c bb
       0.0007317681 -0.00012643899 -0.0046294923 -0.002151103
000120 63 f5 f7 39 39 22 a0 3b e9 bc f3 b8 6b 12 02 3b
       0.0004729434 0.004886892 -0.0001162233 0.0019847404
000130 d1 64 42 bc 5c 06 90 b9 95 70 66 bb bd ad a4 b9
       -0.011864857 -0.00027470558 -0.003516232 -0.00031409963
000140 0d 3e 96 bb 98 91 b0 b8 77 63 64 3c d9 a3 2e bb
       -0.0045850337 -8.419453e-05 0.01393973 -0.0026647954
000150 84 a0 bd b9 db fb 49 bb b2 b9 97 39 0b 0a 27 3b
       -0.00036168483 -0.0030820284 0.00028939318 0.0025488164
000160 bd 28 cf b9 43 e4 e4 ba 11 8c 9e ba bf 85 23 3b
       -0.0003951247 -0.0017463047 -0.0012096186 0.0024951545
000170 08 bc 69 3a d6 54 ca 3a 42 06 fe b9 bc b6 a2 3a
       0.00089162635 0.001543666 -0.00048451318 0.0012414078
000180 38 20 81 b9 d7 36 4c ba ea 4d ce b9 ca 9c 0b bb
       -0.00024628802 -0.0007790154 -0.00039349432 -0.002130317
000190 86 6c b2 ba 44 11 06 3b b2 45 c0 ba f0 b2 2b 3b
       -0.0013612665 0.0020457068 -0.0014669208 0.0026199184
0001a0 e7 75 5e 3b e6 b6 eb 3a 7e f8 2e ba 64 a6 09 bb
       0.0033944787 0.0017983585 -0.00066746015 -0.0021003718
0001b0 21 d9 31 3a d8 b1 0b b7 f8 3b 1f bb 45 dd c0 3a
       0.0006784369 -8.326453e-06 -0.0024297219 0.0014714381
0001c0 cb 3c c1 ba f3 94 cf ba dd 4c 21 3b 7e 71 0e bb
       -0.0014742849 -0.0015837237 0.0024612464 -0.0021735127
0001d0 2d 08 20 bb 00 5e 7d 3b 63 d0 ae ba c6 68 4a 3b
       -0.0024418936 0.0038660765 -0.001333725 0.0030885204
0001e0 5f 1b 94 b8 92 c4 25 bb ff 01 98 3a a9 61 14 39
       -7.062288e-05 -0.0025294167 0.0011597275 0.00014150761
0001f0 ea 90 d8 ba 58 6b f7 b9 05 0f b0 ba 00 78 1f 3a
       -0.001652268 -0.0004719149 -0.001343221 0.000608325
000200 e8 54 c8 b9 9f 66 a0 39 93 ac 06 bc a0 06 6f ba
       -0.00038210233 0.00030594037 -0.008219856 -0.00091181137
000210 6d 9d 22 3b 65 eb 12 ba d6 f5 af ba d2 66 ad 3a
       0.0024813071 -0.00056045345 -0.0013424705 0.0013229495
000220 e8 b6 c8 bc 24 62 20 ba 3a d1 1b ba e0 3a f9 3a
       -0.024501279 -0.000611814 -0.0005943958 0.0019014739
000230 39 fc a3 3b 12 be 1c ba 7e df 1e bb 45 5a 19 ba
       0.0050044325 -0.00059792504 -0.0024242098 -0.0005849938
000240 92 55 7b 3b 2b 36 f0 bb 9a ff b8 ba b0 9f 22 bb
       0.0038350564 -0.007330676 -0.0014114261 -0.002481442
000250 fa 8a 30 bb 1a df 9a 38 a6 fa 70 bb d6 2d 2d bc
       -0.0026938305 7.384848e-05 -0.0036770492 -0.01057001
000260 21 4e 0e 3b 62 0b 07 3b 8c 30 0d 3b 14 51 28 3b
       0.002171405 0.002060615 0.0021543829 0.0025683092
000270 39 fd d0 ba 68 40 cb ba 24 2d 87 ba 20 5b 89 bb
       -0.0015944607 -0.0015506865 -0.0010313136 -0.004191771
000280 0e c9 15 3a 1c 1b 35 bb a5 88 9a ba 11 e6 77 bb
       0.00057138584 -0.0027634567 -0.0011789991 -0.003782634
000290 28 2e 66 bb da c2 91 3a 17 98 56 3b 33 58 15 b7
       -0.0035122726 0.0011120692 0.0032744461 -8.901628e-06
0002a0 cb f1 03 3b 06 ef f9 ba 5c 8a e3 ba 3e 83 e1 39
       0.0020133134 -0.0019068427 -0.001735996 0.00043013127
0002b0 ec c8 64 b9 60 6c 25 39 d5 cc ab 3a f7 d9 88 3b
       -0.00021818624 0.00015775999 0.0013107309 0.004176374
0002c0 20 46 27 bc 67 21 93 3a 8a cf a5 3a e3 30 6e 3a
       -0.01020959 0.0011225165 0.0012650352 0.0009086264
0002d0 c0 da 01 bb 8d 4f 49 3b 93 57 8a ba 85 aa 18 bb
       -0.0019814223 0.0030717582 -0.0010554664 -0.0023294997
0002e0 23 8b 16 bb 57 f3 ea ba 7d b9 cb 38 ba 39 a4 3a
       -0.0022971116 -0.0017925304 9.714344e-05 0.0012529411
0002f0 08 b3 ed 39 f0 ab 96 39 6e af 5f 39 a4 e2 0b b9
       0.0004533755 0.00028738333 0.0002133229 -0.00013340503
000300 14 c2 91 3a 0f 56 21 bb 74 8a 8e b8 86 52 ea ba
       0.0011120462 -0.0024617945 -6.7968766e-05 -0.0017877377
000310 a8 02 01 3b ba 38 09 3b f3 41 93 3a 86 df cb 38
       0.001968542 0.0020938353 0.0011234864 9.721429e-05
000320 d2 91 ce ba a5 41 03 ba eb 0c 57 3b 1b b7 71 b9
       -0.001576001 -0.0005007035 0.0032814096 -0.00023051763
000330 af 19 97 ba af a2 a9 b9 0b 65 0b 3a 99 94 20 b8
       -0.001152804 -0.000323554 0.0005317486 -3.8285365e-05
000340 26 59 4a 3b f1 a7 9a ba 34 dc 14 3a 50 d9 c6 bb
       0.003087589 -0.0011799318 0.0005678565 -0.006068386
000350 89 12 23 ba c0 e1 7d ba 45 09 59 bb 73 b7 eb 3a
       -0.00062207185 -0.00096848235 -0.0033117097 0.0017983749
000360 f0 46 68 bb e3 1b ed bb 67 b7 ea 3a 8d 13 ad ba
       -0.0035442673 -0.0072359904 0.0017907441 -0.0013204679
000370 8f d9 96 39 92 8f 38 3b 52 44 f0 ba 79 58 50 bb
       0.00028772323 0.0028161746 -0.0018330908 -0.0031791015
000380 36 f2 10 3b 09 3d d5 ba f0 96 32 39 47 82 ae 39
       0.0022117025 -0.00162688 0.00017031631 0.0003328493
000390 8e 05 e8 39 dd bc cd ba 0a 2a d2 3b 72 9c 87 39
       0.00044254627 -0.0015696544 0.006413703 0.00025865767
0003a0 5c fd e0 3a b7 b9 1c 3b eb b9 aa bb 65 56 80 3a
       0.0017165351 0.0023914406 -0.0052101514 0.0009791373
0003b0 68 f9 47 3c a7 72 a9 bb b9 fb fc bb 8f 05 57 3b
       0.012205459 -0.0051711383 -0.0077204374 0.003280971
0003c0 e0 5f c1 ba 3f d2 38 bb 62 33 83 ba b1 57 10 bc
       -0.0014753304 -0.0028201488 -0.001000982 -0.00880997
0003d0 7f ec 2f bb 64 90 39 b5 e5 07 2a 3b 72 3e 9e 3b
       -0.0026843844 -6.9127987e-07 0.0025944647 0.0048292214
0003e0 a6 ef 5f 3a 1b 7e 8a ba 67 88 c6 ba de 8f e6 39
       0.00085424853 -0.0010566147 -0.0015146852 0.00043976208
0003f0 60 93 66 3a 7f bb d5 3a 6a ac 83 3a e8 d0 af 3a
       0.00087957643 0.0016306489 0.001004589 0.0013413699
